…
Creating data loaders
Using [0, 0.5, 0.6299605249474366, 0.7937005259840997, 1.0, 1.2599210498948732, 1.5874010519681994, 2.0, inf] as bins for aspect ratio quantization
Count of instances per bin: [  104   982 24236  2332  8225 74466  5763  1158]
Creating model
len(in_channels_list): 4
model: DistributedDataParallel(
  (module): MaskRCNN(
    (transform): GeneralizedRCNNTransform(
        Normalize(mean=[0.485, 0.456, 0.406], std=[0.229, 0.224, 0.225])
        Resize(min_size=(800,), max_size=1333, mode='bilinear')
    )
    (backbone): BackboneWithFPN(
      (body): IntermediateLayerGetter(
        (conv1): Conv2d(3, 64, kernel_size=(7, 7), stride=(2, 2), padding=(3, 3), bias=False)
        (bn1): FrozenBatchNorm2d(64, eps=1e-05)
        (relu): ReLU(inplace=True)
        (maxpool): MaxPool2d(kernel_size=3, stride=2, padding=1, dilation=1, ceil_mode=False)
        (layer1): Sequential(
          (0): Bottleneck(
            (conv1): Conv2d(64, 64, kernel_size=(1, 1), stride=(1, 1), bias=False)
            (bn1): FrozenBatchNorm2d(64, eps=1e-05)
            (conv2): Conv2d(64, 64, kernel_size=(3, 3), stride=(1, 1), padding=(1, 1), bias=False)
            (bn2): FrozenBatchNorm2d(64, eps=1e-05)
            (conv3): Conv2d(64, 256, kernel_size=(1, 1), stride=(1, 1), bias=False)
            (bn3): FrozenBatchNorm2d(256, eps=1e-05)
            (relu): ReLU(inplace=True)
            (downsample): Sequential(
              (0): Conv2d(64, 256, kernel_size=(1, 1), stride=(1, 1), bias=False)
              (1): FrozenBatchNorm2d(256, eps=1e-05)
            )
          )
          (1): Bottleneck(
            (conv1): Conv2d(256, 64, kernel_size=(1, 1), stride=(1, 1), bias=False)
            (bn1): FrozenBatchNorm2d(64, eps=1e-05)
            (conv2): Conv2d(64, 64, kernel_size=(3, 3), stride=(1, 1), padding=(1, 1), bias=False)
            (bn2): FrozenBatchNorm2d(64, eps=1e-05)
            (conv3): Conv2d(64, 256, kernel_size=(1, 1), stride=(1, 1), bias=False)
            (bn3): FrozenBatchNorm2d(256, eps=1e-05)
            (relu): ReLU(inplace=True)
          )
          (2): Bottleneck(
            (conv1): Conv2d(256, 64, kernel_size=(1, 1), stride=(1, 1), bias=False)
            (bn1): FrozenBatchNorm2d(64, eps=1e-05)
            (conv2): Conv2d(64, 64, kernel_size=(3, 3), stride=(1, 1), padding=(1, 1), bias=False)
            (bn2): FrozenBatchNorm2d(64, eps=1e-05)
            (conv3): Conv2d(64, 256, kernel_size=(1, 1), stride=(1, 1), bias=False)
            (bn3): FrozenBatchNorm2d(256, eps=1e-05)
            (relu): ReLU(inplace=True)
          )
        )
        (layer2): Sequential(
          (0): Bottleneck(
            (conv1): Conv2d(256, 128, kernel_size=(1, 1), stride=(1, 1), bias=False)
            (bn1): FrozenBatchNorm2d(128, eps=1e-05)
            (conv2): Conv2d(128, 128, kernel_size=(3, 3), stride=(2, 2), padding=(1, 1), bias=False)
            (bn2): FrozenBatchNorm2d(128, eps=1e-05)
            (conv3): Conv2d(128, 512, kernel_size=(1, 1), stride=(1, 1), bias=False)
            (bn3): FrozenBatchNorm2d(512, eps=1e-05)
            (relu): ReLU(inplace=True)
            (downsample): Sequential(
              (0): Conv2d(256, 512, kernel_size=(1, 1), stride=(2, 2), bias=False)
              (1): FrozenBatchNorm2d(512, eps=1e-05)
            )
          )
          (1): Bottleneck(
            (conv1): Conv2d(512, 128, kernel_size=(1, 1), stride=(1, 1), bias=False)
            (bn1): FrozenBatchNorm2d(128, eps=1e-05)
            (conv2): Conv2d(128, 128, kernel_size=(3, 3), stride=(1, 1), padding=(1, 1), bias=False)
            (bn2): FrozenBatchNorm2d(128, eps=1e-05)
            (conv3): Conv2d(128, 512, kernel_size=(1, 1), stride=(1, 1), bias=False)
            (bn3): FrozenBatchNorm2d(512, eps=1e-05)
            (relu): ReLU(inplace=True)
          )
          (2): Bottleneck(
            (conv1): Conv2d(512, 128, kernel_size=(1, 1), stride=(1, 1), bias=False)
            (bn1): FrozenBatchNorm2d(128, eps=1e-05)
            (conv2): Conv2d(128, 128, kernel_size=(3, 3), stride=(1, 1), padding=(1, 1), bias=False)
            (bn2): FrozenBatchNorm2d(128, eps=1e-05)
            (conv3): Conv2d(128, 512, kernel_size=(1, 1), stride=(1, 1), bias=False)
            (bn3): FrozenBatchNorm2d(512, eps=1e-05)
            (relu): ReLU(inplace=True)
          )
          (3): Bottleneck(
            (conv1): Conv2d(512, 128, kernel_size=(1, 1), stride=(1, 1), bias=False)
            (bn1): FrozenBatchNorm2d(128, eps=1e-05)
            (conv2): Conv2d(128, 128, kernel_size=(3, 3), stride=(1, 1), padding=(1, 1), bias=False)
            (bn2): FrozenBatchNorm2d(128, eps=1e-05)
            (conv3): Conv2d(128, 512, kernel_size=(1, 1), stride=(1, 1), bias=False)
            (bn3): FrozenBatchNorm2d(512, eps=1e-05)
            (relu): ReLU(inplace=True)
          )
        )
        (layer3): Sequential(
          (0): Bottleneck(
            (conv1): Conv2d(512, 256, kernel_size=(1, 1), stride=(1, 1), bias=False)
            (bn1): FrozenBatchNorm2d(256, eps=1e-05)
            (conv2): Conv2d(256, 256, kernel_size=(3, 3), stride=(2, 2), padding=(1, 1), bias=False)
            (bn2): FrozenBatchNorm2d(256, eps=1e-05)
            (conv3): Conv2d(256, 1024, kernel_size=(1, 1), stride=(1, 1), bias=False)
            (bn3): FrozenBatchNorm2d(1024, eps=1e-05)
            (relu): ReLU(inplace=True)
            (downsample): Sequential(
              (0): Conv2d(512, 1024, kernel_size=(1, 1), stride=(2, 2), bias=False)
              (1): FrozenBatchNorm2d(1024, eps=1e-05)
            )
          )
          (1): Bottleneck(
            (conv1): Conv2d(1024, 256, kernel_size=(1, 1), stride=(1, 1), bias=False)
            (bn1): FrozenBatchNorm2d(256, eps=1e-05)
            (conv2): Conv2d(256, 256, kernel_size=(3, 3), stride=(1, 1), padding=(1, 1), bias=False)
            (bn2): FrozenBatchNorm2d(256, eps=1e-05)
            (conv3): Conv2d(256, 1024, kernel_size=(1, 1), stride=(1, 1), bias=False)
            (bn3): FrozenBatchNorm2d(1024, eps=1e-05)
            (relu): ReLU(inplace=True)
          )
          (2): Bottleneck(
            (conv1): Conv2d(1024, 256, kernel_size=(1, 1), stride=(1, 1), bias=False)
            (bn1): FrozenBatchNorm2d(256, eps=1e-05)
            (conv2): Conv2d(256, 256, kernel_size=(3, 3), stride=(1, 1), padding=(1, 1), bias=False)
            (bn2): FrozenBatchNorm2d(256, eps=1e-05)
            (conv3): Conv2d(256, 1024, kernel_size=(1, 1), stride=(1, 1), bias=False)
            (bn3): FrozenBatchNorm2d(1024, eps=1e-05)
            (relu): ReLU(inplace=True)
          )
          (3): Bottleneck(
            (conv1): Conv2d(1024, 256, kernel_size=(1, 1), stride=(1, 1), bias=False)
            (bn1): FrozenBatchNorm2d(256, eps=1e-05)
            (conv2): Conv2d(256, 256, kernel_size=(3, 3), stride=(1, 1), padding=(1, 1), bias=False)
            (bn2): FrozenBatchNorm2d(256, eps=1e-05)
            (conv3): Conv2d(256, 1024, kernel_size=(1, 1), stride=(1, 1), bias=False)
            (bn3): FrozenBatchNorm2d(1024, eps=1e-05)
            (relu): ReLU(inplace=True)
          )
          (4): Bottleneck(
            (conv1): Conv2d(1024, 256, kernel_size=(1, 1), stride=(1, 1), bias=False)
            (bn1): FrozenBatchNorm2d(256, eps=1e-05)
            (conv2): Conv2d(256, 256, kernel_size=(3, 3), stride=(1, 1), padding=(1, 1), bias=False)
            (bn2): FrozenBatchNorm2d(256, eps=1e-05)
            (conv3): Conv2d(256, 1024, kernel_size=(1, 1), stride=(1, 1), bias=False)
            (bn3): FrozenBatchNorm2d(1024, eps=1e-05)
            (relu): ReLU(inplace=True)
          )
          (5): Bottleneck(
            (conv1): Conv2d(1024, 256, kernel_size=(1, 1), stride=(1, 1), bias=False)
            (bn1): FrozenBatchNorm2d(256, eps=1e-05)
            (conv2): Conv2d(256, 256, kernel_size=(3, 3), stride=(1, 1), padding=(1, 1), bias=False)
            (bn2): FrozenBatchNorm2d(256, eps=1e-05)
            (conv3): Conv2d(256, 1024, kernel_size=(1, 1), stride=(1, 1), bias=False)
            (bn3): FrozenBatchNorm2d(1024, eps=1e-05)
            (relu): ReLU(inplace=True)
          )
        )
        (layer4): Sequential(
          (0): Bottleneck(
            (conv1): Conv2d(1024, 512, kernel_size=(1, 1), stride=(1, 1), bias=False)
            (bn1): FrozenBatchNorm2d(512, eps=1e-05)
            (conv2): Conv2d(512, 512, kernel_size=(3, 3), stride=(2, 2), padding=(1, 1), bias=False)
            (bn2): FrozenBatchNorm2d(512, eps=1e-05)
            (conv3): Conv2d(512, 2048, kernel_size=(1, 1), stride=(1, 1), bias=False)
            (bn3): FrozenBatchNorm2d(2048, eps=1e-05)
            (relu): ReLU(inplace=True)
            (downsample): Sequential(
              (0): Conv2d(1024, 2048, kernel_size=(1, 1), stride=(2, 2), bias=False)
              (1): FrozenBatchNorm2d(2048, eps=1e-05)
            )
          )
          (1): Bottleneck(
            (conv1): Conv2d(2048, 512, kernel_size=(1, 1), stride=(1, 1), bias=False)
            (bn1): FrozenBatchNorm2d(512, eps=1e-05)
            (conv2): Conv2d(512, 512, kernel_size=(3, 3), stride=(1, 1), padding=(1, 1), bias=False)
            (bn2): FrozenBatchNorm2d(512, eps=1e-05)
            (conv3): Conv2d(512, 2048, kernel_size=(1, 1), stride=(1, 1), bias=False)
            (bn3): FrozenBatchNorm2d(2048, eps=1e-05)
            (relu): ReLU(inplace=True)
          )
          (2): Bottleneck(
            (conv1): Conv2d(2048, 512, kernel_size=(1, 1), stride=(1, 1), bias=False)
            (bn1): FrozenBatchNorm2d(512, eps=1e-05)
            (conv2): Conv2d(512, 512, kernel_size=(3, 3), stride=(1, 1), padding=(1, 1), bias=False)
            (bn2): FrozenBatchNorm2d(512, eps=1e-05)
            (conv3): Conv2d(512, 2048, kernel_size=(1, 1), stride=(1, 1), bias=False)
            (bn3): FrozenBatchNorm2d(2048, eps=1e-05)
            (relu): ReLU(inplace=True)
          )
        )
      )
      (fpn): FeaturePyramidNetwork(
        (inner_blocks): ModuleList(
          (0): Conv2dNormActivation(
            (0): Conv2d(256, 256, kernel_size=(1, 1), stride=(1, 1))
          )
          (1): Conv2dNormActivation(
            (0): Conv2d(512, 256, kernel_size=(1, 1), stride=(1, 1))
          )
          (2): Conv2dNormActivation(
            (0): Conv2d(1024, 256, kernel_size=(1, 1), stride=(1, 1))
          )
          (3): Conv2dNormActivation(
            (0): Conv2d(2048, 256, kernel_size=(1, 1), stride=(1, 1))
          )
        )
        (layer_blocks): ModuleList(
          (0-3): 4 x Conv2dNormActivation(
            (0): Conv2d(256, 256, kernel_size=(3, 3), stride=(1, 1), padding=(1, 1))
          )
        )
        (sa_cross_attn): ModuleList(
          (0): SpatialAlignTransNormer(
            (q_proj): Linear(in_features=256, out_features=256, bias=True)
            (k_proj): Linear(in_features=256, out_features=256, bias=True)
            (v_proj): Linear(in_features=256, out_features=256, bias=True)
            (out_proj): Linear(in_features=256, out_features=256, bias=True)
            (attn_norm): RMSNorm((32,), eps=None, elementwise_affine=True)
            (linear1): Linear(in_features=256, out_features=1024, bias=True)
            (dropout): Dropout(p=0.0, inplace=False)
            (linear2): Linear(in_features=1024, out_features=256, bias=True)
            (activation): GELU(approximate='none')
            (norm1): LayerNorm((256,), eps=1e-05, elementwise_affine=True)
            (norm2): LayerNorm((256,), eps=1e-05, elementwise_affine=True)
            (dropout1): Dropout(p=0.0, inplace=False)
            (dropout2): Dropout(p=0.0, inplace=False)
            (avg_pool_high): Identity()
            (avg_pool_low): AvgPool2d(kernel_size=2, stride=2, padding=0)
          )
          (1): SpatialAlignTransNormer(
            (q_proj): Linear(in_features=256, out_features=256, bias=True)
            (k_proj): Linear(in_features=256, out_features=256, bias=True)
            (v_proj): Linear(in_features=256, out_features=256, bias=True)
            (out_proj): Linear(in_features=256, out_features=256, bias=True)
            (attn_norm): RMSNorm((32,), eps=None, elementwise_affine=True)
            (linear1): Linear(in_features=256, out_features=1024, bias=True)
            (dropout): Dropout(p=0.0, inplace=False)
            (linear2): Linear(in_features=1024, out_features=256, bias=True)
            (activation): GELU(approximate='none')
            (norm1): LayerNorm((256,), eps=1e-05, elementwise_affine=True)
            (norm2): LayerNorm((256,), eps=1e-05, elementwise_affine=True)
            (dropout1): Dropout(p=0.0, inplace=False)
            (dropout2): Dropout(p=0.0, inplace=False)
            (avg_pool_high): AvgPool2d(kernel_size=2, stride=2, padding=0)
            (avg_pool_low): AvgPool2d(kernel_size=4, stride=4, padding=0)
          )
        )
        (extra_blocks): LastLevelMaxPool()
      )
    )
    (rpn): RegionProposalNetwork(
      (anchor_generator): AnchorGenerator()
      (head): RPNHead(
        (conv): Sequential(
          (0): Conv2dNormActivation(
            (0): Conv2d(256, 256, kernel_size=(3, 3), stride=(1, 1), padding=(1, 1))
            (1): ReLU(inplace=True)
          )
        )
        (cls_logits): Conv2d(256, 3, kernel_size=(1, 1), stride=(1, 1))
        (bbox_pred): Conv2d(256, 12, kernel_size=(1, 1), stride=(1, 1))
      )
    )
    (roi_heads): RoIHeads(
      (box_roi_pool): MultiScaleRoIAlign(featmap_names=['0', '1', '2', '3'], output_size=(7, 7), sampling_ratio=2)
      (box_head): TwoMLPHead(
        (fc6): Linear(in_features=12544, out_features=1024, bias=True)
        (fc7): Linear(in_features=1024, out_features=1024, bias=True)
      )
      (box_predictor): FastRCNNPredictor(
        (cls_score): Linear(in_features=1024, out_features=91, bias=True)
        (bbox_pred): Linear(in_features=1024, out_features=364, bias=True)
      )
      (mask_roi_pool): MultiScaleRoIAlign(featmap_names=['0', '1', '2', '3'], output_size=(14, 14), sampling_ratio=2)
      (mask_head): MaskRCNNHeads(
        (0): Conv2dNormActivation(
          (0): Conv2d(256, 256, kernel_size=(3, 3), stride=(1, 1), padding=(1, 1))
          (1): ReLU(inplace=True)
        )
        (1): Conv2dNormActivation(
          (0): Conv2d(256, 256, kernel_size=(3, 3), stride=(1, 1), padding=(1, 1))
          (1): ReLU(inplace=True)
        )
        (2): Conv2dNormActivation(
          (0): Conv2d(256, 256, kernel_size=(3, 3), stride=(1, 1), padding=(1, 1))
          (1): ReLU(inplace=True)
        )
        (3): Conv2dNormActivation(
          (0): Conv2d(256, 256, kernel_size=(3, 3), stride=(1, 1), padding=(1, 1))
          (1): ReLU(inplace=True)
        )
      )
      (mask_predictor): MaskRCNNPredictor(
        (conv5_mask): ConvTranspose2d(256, 256, kernel_size=(2, 2), stride=(2, 2))
        (relu): ReLU(inplace=True)
        (mask_fcn_logits): Conv2d(256, 91, kernel_size=(1, 1), stride=(1, 1))
      )
    )
  )
)
Warning: module GeneralizedRCNNTransform is treated as a zero-op.
Warning: module FrozenBatchNorm2d is treated as a zero-op.
Warning: module Bottleneck is treated as a zero-op.
Warning: module IntermediateLayerGetter is treated as a zero-op.
Warning: module Conv2dNormActivation is treated as a zero-op.
Warning: module RMSNorm is treated as a zero-op.
…
Warning: module DistributedDataParallel is treated as a zero-op.
DistributedDataParallel(
  45.76 M, 100.000% Params, 135.56 GMac, 99.873% MACs, 
  (module): MaskRCNN(
    45.76 M, 100.000% Params, 135.56 GMac, 99.873% MACs, 
    (transform): GeneralizedRCNNTransform(
        Normalize(mean=[0.485, 0.456, 0.406], std=[0.229, 0.224, 0.225])
        Resize(min_size=(800,), max_size=1333, mode='bilinear')
    )
    (backbone): BackboneWithFPN(
      28.16 M, 61.533% Params, 89.53 GMac, 65.962% MACs, 
      (body): IntermediateLayerGetter(
        23.23 M, 50.772% Params, 52.26 GMac, 38.505% MACs, 
        (conv1): Conv2d(0, 0.000% Params, 1.51 GMac, 1.109% MACs, 3, 64, kernel_size=(7, 7), stride=(2, 2), padding=(3, 3), bias=False)
        (bn1): FrozenBatchNorm2d(64, eps=1e-05)
        (relu): ReLU(0, 0.000% Params, 10.24 MMac, 0.008% MACs, inplace=True)
        (maxpool): MaxPool2d(0, 0.000% Params, 10.24 MMac, 0.008% MACs, kernel_size=3, stride=2, padding=1, dilation=1, ceil_mode=False)
        (layer1): Sequential(
          0, 0.000% Params, 8.57 GMac, 6.311% MACs, 
          (0): Bottleneck(
            0, 0.000% Params, 2.96 GMac, 2.184% MACs, 
            (conv1): Conv2d(0, 0.000% Params, 163.84 MMac, 0.121% MACs, 64, 64, kernel_size=(1, 1), stride=(1, 1), bias=False)
            (bn1): FrozenBatchNorm2d(64, eps=1e-05)
            (conv2): Conv2d(0, 0.000% Params, 1.47 GMac, 1.086% MACs, 64, 64, kernel_size=(3, 3), stride=(1, 1), padding=(1, 1), bias=False)
            (bn2): FrozenBatchNorm2d(64, eps=1e-05)
            (conv3): Conv2d(0, 0.000% Params, 655.36 MMac, 0.483% MACs, 64, 256, kernel_size=(1, 1), stride=(1, 1), bias=False)
            (bn3): FrozenBatchNorm2d(256, eps=1e-05)
            (relu): ReLU(0, 0.000% Params, 15.36 MMac, 0.011% MACs, inplace=True)
            (downsample): Sequential(
              0, 0.000% Params, 655.36 MMac, 0.483% MACs, 
              (0): Conv2d(0, 0.000% Params, 655.36 MMac, 0.483% MACs, 64, 256, kernel_size=(1, 1), stride=(1, 1), bias=False)
              (1): FrozenBatchNorm2d(256, eps=1e-05)
            )
          )
          (1): Bottleneck(
            0, 0.000% Params, 2.8 GMac, 2.063% MACs, 
            (conv1): Conv2d(0, 0.000% Params, 655.36 MMac, 0.483% MACs, 256, 64, kernel_size=(1, 1), stride=(1, 1), bias=False)
            (bn1): FrozenBatchNorm2d(64, eps=1e-05)
            (conv2): Conv2d(0, 0.000% Params, 1.47 GMac, 1.086% MACs, 64, 64, kernel_size=(3, 3), stride=(1, 1), padding=(1, 1), bias=False)
            (bn2): FrozenBatchNorm2d(64, eps=1e-05)
            (conv3): Conv2d(0, 0.000% Params, 655.36 MMac, 0.483% MACs, 64, 256, kernel_size=(1, 1), stride=(1, 1), bias=False)
            (bn3): FrozenBatchNorm2d(256, eps=1e-05)
            (relu): ReLU(0, 0.000% Params, 15.36 MMac, 0.011% MACs, inplace=True)
          )
          (2): Bottleneck(
            0, 0.000% Params, 2.8 GMac, 2.063% MACs, 
            (conv1): Conv2d(0, 0.000% Params, 655.36 MMac, 0.483% MACs, 256, 64, kernel_size=(1, 1), stride=(1, 1), bias=False)
            (bn1): FrozenBatchNorm2d(64, eps=1e-05)
            (conv2): Conv2d(0, 0.000% Params, 1.47 GMac, 1.086% MACs, 64, 64, kernel_size=(3, 3), stride=(1, 1), padding=(1, 1), bias=False)
            (bn2): FrozenBatchNorm2d(64, eps=1e-05)
            (conv3): Conv2d(0, 0.000% Params, 655.36 MMac, 0.483% MACs, 64, 256, kernel_size=(1, 1), stride=(1, 1), bias=False)
            (bn3): FrozenBatchNorm2d(256, eps=1e-05)
            (relu): ReLU(0, 0.000% Params, 15.36 MMac, 0.011% MACs, inplace=True)
          )
        )
        (layer2): Sequential(
          1.21 M, 2.650% Params, 13.14 GMac, 9.682% MACs, 
          (0): Bottleneck(
            376.83 k, 0.824% Params, 4.76 GMac, 3.509% MACs, 
            (conv1): Conv2d(32.77 k, 0.072% Params, 1.31 GMac, 0.966% MACs, 256, 128, kernel_size=(1, 1), stride=(1, 1), bias=False)
            (bn1): FrozenBatchNorm2d(128, eps=1e-05)
            (conv2): Conv2d(147.46 k, 0.322% Params, 1.47 GMac, 1.086% MACs, 128, 128, kernel_size=(3, 3), stride=(2, 2), padding=(1, 1), bias=False)
            (bn2): FrozenBatchNorm2d(128, eps=1e-05)
            (conv3): Conv2d(65.54 k, 0.143% Params, 655.36 MMac, 0.483% MACs, 128, 512, kernel_size=(1, 1), stride=(1, 1), bias=False)
            (bn3): FrozenBatchNorm2d(512, eps=1e-05)
            (relu): ReLU(0, 0.000% Params, 11.52 MMac, 0.008% MACs, inplace=True)
            (downsample): Sequential(
              131.07 k, 0.286% Params, 1.31 GMac, 0.966% MACs, 
              (0): Conv2d(131.07 k, 0.286% Params, 1.31 GMac, 0.966% MACs, 256, 512, kernel_size=(1, 1), stride=(2, 2), bias=False)
              (1): FrozenBatchNorm2d(512, eps=1e-05)
            )
          )
          (1): Bottleneck(
            278.53 k, 0.609% Params, 2.79 GMac, 2.058% MACs, 
            (conv1): Conv2d(65.54 k, 0.143% Params, 655.36 MMac, 0.483% MACs, 512, 128, kernel_size=(1, 1), stride=(1, 1), bias=False)
            (bn1): FrozenBatchNorm2d(128, eps=1e-05)
            (conv2): Conv2d(147.46 k, 0.322% Params, 1.47 GMac, 1.086% MACs, 128, 128, kernel_size=(3, 3), stride=(1, 1), padding=(1, 1), bias=False)
            (bn2): FrozenBatchNorm2d(128, eps=1e-05)
            (conv3): Conv2d(65.54 k, 0.143% Params, 655.36 MMac, 0.483% MACs, 128, 512, kernel_size=(1, 1), stride=(1, 1), bias=False)
            (bn3): FrozenBatchNorm2d(512, eps=1e-05)
            (relu): ReLU(0, 0.000% Params, 7.68 MMac, 0.006% MACs, inplace=True)
          )
          (2): Bottleneck(
            278.53 k, 0.609% Params, 2.79 GMac, 2.058% MACs, 
            (conv1): Conv2d(65.54 k, 0.143% Params, 655.36 MMac, 0.483% MACs, 512, 128, kernel_size=(1, 1), stride=(1, 1), bias=False)
            (bn1): FrozenBatchNorm2d(128, eps=1e-05)
            (conv2): Conv2d(147.46 k, 0.322% Params, 1.47 GMac, 1.086% MACs, 128, 128, kernel_size=(3, 3), stride=(1, 1), padding=(1, 1), bias=False)
            (bn2): FrozenBatchNorm2d(128, eps=1e-05)
            (conv3): Conv2d(65.54 k, 0.143% Params, 655.36 MMac, 0.483% MACs, 128, 512, kernel_size=(1, 1), stride=(1, 1), bias=False)
            (bn3): FrozenBatchNorm2d(512, eps=1e-05)
            (relu): ReLU(0, 0.000% Params, 7.68 MMac, 0.006% MACs, inplace=True)
          )
          (3): Bottleneck(
            278.53 k, 0.609% Params, 2.79 GMac, 2.058% MACs, 
            (conv1): Conv2d(65.54 k, 0.143% Params, 655.36 MMac, 0.483% MACs, 512, 128, kernel_size=(1, 1), stride=(1, 1), bias=False)
            (bn1): FrozenBatchNorm2d(128, eps=1e-05)
            (conv2): Conv2d(147.46 k, 0.322% Params, 1.47 GMac, 1.086% MACs, 128, 128, kernel_size=(3, 3), stride=(1, 1), padding=(1, 1), bias=False)
            (bn2): FrozenBatchNorm2d(128, eps=1e-05)
            (conv3): Conv2d(65.54 k, 0.143% Params, 655.36 MMac, 0.483% MACs, 128, 512, kernel_size=(1, 1), stride=(1, 1), bias=False)
            (bn3): FrozenBatchNorm2d(512, eps=1e-05)
            (relu): ReLU(0, 0.000% Params, 7.68 MMac, 0.006% MACs, inplace=True)
          )
        )
        (layer3): Sequential(
          7.08 M, 15.468% Params, 18.7 GMac, 13.779% MACs, 
          (0): Bottleneck(
            1.51 M, 3.294% Params, 4.76 GMac, 3.505% MACs, 
            (conv1): Conv2d(131.07 k, 0.286% Params, 1.31 GMac, 0.966% MACs, 512, 256, kernel_size=(1, 1), stride=(1, 1), bias=False)
            (bn1): FrozenBatchNorm2d(256, eps=1e-05)
            (conv2): Conv2d(589.82 k, 1.289% Params, 1.47 GMac, 1.086% MACs, 256, 256, kernel_size=(3, 3), stride=(2, 2), padding=(1, 1), bias=False)
            (bn2): FrozenBatchNorm2d(256, eps=1e-05)
            (conv3): Conv2d(262.14 k, 0.573% Params, 655.36 MMac, 0.483% MACs, 256, 1024, kernel_size=(1, 1), stride=(1, 1), bias=False)
            (bn3): FrozenBatchNorm2d(1024, eps=1e-05)
            (relu): ReLU(0, 0.000% Params, 5.76 MMac, 0.004% MACs, inplace=True)
            (downsample): Sequential(
              524.29 k, 1.146% Params, 1.31 GMac, 0.966% MACs, 
              (0): Conv2d(524.29 k, 1.146% Params, 1.31 GMac, 0.966% MACs, 512, 1024, kernel_size=(1, 1), stride=(2, 2), bias=False)
              (1): FrozenBatchNorm2d(1024, eps=1e-05)
            )
          )
          (1): Bottleneck(
            1.11 M, 2.435% Params, 2.79 GMac, 2.055% MACs, 
            (conv1): Conv2d(262.14 k, 0.573% Params, 655.36 MMac, 0.483% MACs, 1024, 256, kernel_size=(1, 1), stride=(1, 1), bias=False)
            (bn1): FrozenBatchNorm2d(256, eps=1e-05)
            (conv2): Conv2d(589.82 k, 1.289% Params, 1.47 GMac, 1.086% MACs, 256, 256, kernel_size=(3, 3), stride=(1, 1), padding=(1, 1), bias=False)
            (bn2): FrozenBatchNorm2d(256, eps=1e-05)
            (conv3): Conv2d(262.14 k, 0.573% Params, 655.36 MMac, 0.483% MACs, 256, 1024, kernel_size=(1, 1), stride=(1, 1), bias=False)
            (bn3): FrozenBatchNorm2d(1024, eps=1e-05)
            (relu): ReLU(0, 0.000% Params, 3.84 MMac, 0.003% MACs, inplace=True)
          )
          (2): Bottleneck(
            1.11 M, 2.435% Params, 2.79 GMac, 2.055% MACs, 
            (conv1): Conv2d(262.14 k, 0.573% Params, 655.36 MMac, 0.483% MACs, 1024, 256, kernel_size=(1, 1), stride=(1, 1), bias=False)
            (bn1): FrozenBatchNorm2d(256, eps=1e-05)
            (conv2): Conv2d(589.82 k, 1.289% Params, 1.47 GMac, 1.086% MACs, 256, 256, kernel_size=(3, 3), stride=(1, 1), padding=(1, 1), bias=False)
            (bn2): FrozenBatchNorm2d(256, eps=1e-05)
            (conv3): Conv2d(262.14 k, 0.573% Params, 655.36 MMac, 0.483% MACs, 256, 1024, kernel_size=(1, 1), stride=(1, 1), bias=False)
            (bn3): FrozenBatchNorm2d(1024, eps=1e-05)
            (relu): ReLU(0, 0.000% Params, 3.84 MMac, 0.003% MACs, inplace=True)
          )
          (3): Bottleneck(
            1.11 M, 2.435% Params, 2.79 GMac, 2.055% MACs, 
            (conv1): Conv2d(262.14 k, 0.573% Params, 655.36 MMac, 0.483% MACs, 1024, 256, kernel_size=(1, 1), stride=(1, 1), bias=False)
            (bn1): FrozenBatchNorm2d(256, eps=1e-05)
            (conv2): Conv2d(589.82 k, 1.289% Params, 1.47 GMac, 1.086% MACs, 256, 256, kernel_size=(3, 3), stride=(1, 1), padding=(1, 1), bias=False)
            (bn2): FrozenBatchNorm2d(256, eps=1e-05)
            (conv3): Conv2d(262.14 k, 0.573% Params, 655.36 MMac, 0.483% MACs, 256, 1024, kernel_size=(1, 1), stride=(1, 1), bias=False)
            (bn3): FrozenBatchNorm2d(1024, eps=1e-05)
            (relu): ReLU(0, 0.000% Params, 3.84 MMac, 0.003% MACs, inplace=True)
          )
          (4): Bottleneck(
            1.11 M, 2.435% Params, 2.79 GMac, 2.055% MACs, 
            (conv1): Conv2d(262.14 k, 0.573% Params, 655.36 MMac, 0.483% MACs, 1024, 256, kernel_size=(1, 1), stride=(1, 1), bias=False)
            (bn1): FrozenBatchNorm2d(256, eps=1e-05)
            (conv2): Conv2d(589.82 k, 1.289% Params, 1.47 GMac, 1.086% MACs, 256, 256, kernel_size=(3, 3), stride=(1, 1), padding=(1, 1), bias=False)
            (bn2): FrozenBatchNorm2d(256, eps=1e-05)
            (conv3): Conv2d(262.14 k, 0.573% Params, 655.36 MMac, 0.483% MACs, 256, 1024, kernel_size=(1, 1), stride=(1, 1), bias=False)
            (bn3): FrozenBatchNorm2d(1024, eps=1e-05)
            (relu): ReLU(0, 0.000% Params, 3.84 MMac, 0.003% MACs, inplace=True)
          )
          (5): Bottleneck(
            1.11 M, 2.435% Params, 2.79 GMac, 2.055% MACs, 
            (conv1): Conv2d(262.14 k, 0.573% Params, 655.36 MMac, 0.483% MACs, 1024, 256, kernel_size=(1, 1), stride=(1, 1), bias=False)
            (bn1): FrozenBatchNorm2d(256, eps=1e-05)
            (conv2): Conv2d(589.82 k, 1.289% Params, 1.47 GMac, 1.086% MACs, 256, 256, kernel_size=(3, 3), stride=(1, 1), padding=(1, 1), bias=False)
            (bn2): FrozenBatchNorm2d(256, eps=1e-05)
            (conv3): Conv2d(262.14 k, 0.573% Params, 655.36 MMac, 0.483% MACs, 256, 1024, kernel_size=(1, 1), stride=(1, 1), bias=False)
            (bn3): FrozenBatchNorm2d(1024, eps=1e-05)
            (relu): ReLU(0, 0.000% Params, 3.84 MMac, 0.003% MACs, inplace=True)
          )
        )
        (layer4): Sequential(
          14.94 M, 32.654% Params, 10.33 GMac, 7.609% MACs, 
          (0): Bottleneck(
            6.03 M, 13.176% Params, 4.75 GMac, 3.503% MACs, 
            (conv1): Conv2d(524.29 k, 1.146% Params, 1.31 GMac, 0.966% MACs, 1024, 512, kernel_size=(1, 1), stride=(1, 1), bias=False)
            (bn1): FrozenBatchNorm2d(512, eps=1e-05)
            (conv2): Conv2d(2.36 M, 5.156% Params, 1.47 GMac, 1.086% MACs, 512, 512, kernel_size=(3, 3), stride=(2, 2), padding=(1, 1), bias=False)
            (bn2): FrozenBatchNorm2d(512, eps=1e-05)
            (conv3): Conv2d(1.05 M, 2.292% Params, 655.36 MMac, 0.483% MACs, 512, 2048, kernel_size=(1, 1), stride=(1, 1), bias=False)
            (bn3): FrozenBatchNorm2d(2048, eps=1e-05)
            (relu): ReLU(0, 0.000% Params, 2.88 MMac, 0.002% MACs, inplace=True)
            (downsample): Sequential(
              2.1 M, 4.583% Params, 1.31 GMac, 0.966% MACs, 
              (0): Conv2d(2.1 M, 4.583% Params, 1.31 GMac, 0.966% MACs, 1024, 2048, kernel_size=(1, 1), stride=(2, 2), bias=False)
              (1): FrozenBatchNorm2d(2048, eps=1e-05)
            )
          )
          (1): Bottleneck(
            4.46 M, 9.739% Params, 2.79 GMac, 2.053% MACs, 
            (conv1): Conv2d(1.05 M, 2.292% Params, 655.36 MMac, 0.483% MACs, 2048, 512, kernel_size=(1, 1), stride=(1, 1), bias=False)
            (bn1): FrozenBatchNorm2d(512, eps=1e-05)
            (conv2): Conv2d(2.36 M, 5.156% Params, 1.47 GMac, 1.086% MACs, 512, 512, kernel_size=(3, 3), stride=(1, 1), padding=(1, 1), bias=False)
            (bn2): FrozenBatchNorm2d(512, eps=1e-05)
            (conv3): Conv2d(1.05 M, 2.292% Params, 655.36 MMac, 0.483% MACs, 512, 2048, kernel_size=(1, 1), stride=(1, 1), bias=False)
            (bn3): FrozenBatchNorm2d(2048, eps=1e-05)
            (relu): ReLU(0, 0.000% Params, 1.92 MMac, 0.001% MACs, inplace=True)
          )
          (2): Bottleneck(
            4.46 M, 9.739% Params, 2.79 GMac, 2.053% MACs, 
            (conv1): Conv2d(1.05 M, 2.292% Params, 655.36 MMac, 0.483% MACs, 2048, 512, kernel_size=(1, 1), stride=(1, 1), bias=False)
            (bn1): FrozenBatchNorm2d(512, eps=1e-05)
            (conv2): Conv2d(2.36 M, 5.156% Params, 1.47 GMac, 1.086% MACs, 512, 512, kernel_size=(3, 3), stride=(1, 1), padding=(1, 1), bias=False)
            (bn2): FrozenBatchNorm2d(512, eps=1e-05)
            (conv3): Conv2d(1.05 M, 2.292% Params, 655.36 MMac, 0.483% MACs, 512, 2048, kernel_size=(1, 1), stride=(1, 1), bias=False)
            (bn3): FrozenBatchNorm2d(2048, eps=1e-05)
            (relu): ReLU(0, 0.000% Params, 1.92 MMac, 0.001% MACs, inplace=True)
          )
        )
      )
      (fpn): FeaturePyramidNetwork(
        4.92 M, 10.761% Params, 37.27 GMac, 27.457% MACs, 
        (inner_blocks): ModuleList(
          (0): Conv2dNormActivation(
            65.79 k, 0.144% Params, 2.63 GMac, 1.939% MACs, 
            (0): Conv2d(65.79 k, 0.144% Params, 2.63 GMac, 1.939% MACs, 256, 256, kernel_size=(1, 1), stride=(1, 1))
          )
          (1): Conv2dNormActivation(
            131.33 k, 0.287% Params, 1.31 GMac, 0.968% MACs, 
            (0): Conv2d(131.33 k, 0.287% Params, 1.31 GMac, 0.968% MACs, 512, 256, kernel_size=(1, 1), stride=(1, 1))
          )
          (2): Conv2dNormActivation(
            262.4 k, 0.573% Params, 656.0 MMac, 0.483% MACs, 
            (0): Conv2d(262.4 k, 0.573% Params, 656.0 MMac, 0.483% MACs, 1024, 256, kernel_size=(1, 1), stride=(1, 1))
          )
          (3): Conv2dNormActivation(
            524.54 k, 1.146% Params, 327.84 MMac, 0.242% MACs, 
            (0): Conv2d(524.54 k, 1.146% Params, 327.84 MMac, 0.242% MACs, 2048, 256, kernel_size=(1, 1), stride=(1, 1))
          )
        )
        (layer_blocks): ModuleList(
          (0): Conv2dNormActivation(
            590.08 k, 1.290% Params, 23.6 GMac, 17.389% MACs, 
            (0): Conv2d(590.08 k, 1.290% Params, 23.6 GMac, 17.389% MACs, 256, 256, kernel_size=(3, 3), stride=(1, 1), padding=(1, 1))
          )
          (1): Conv2dNormActivation(
            590.08 k, 1.290% Params, 5.9 GMac, 4.347% MACs, 
            (0): Conv2d(590.08 k, 1.290% Params, 5.9 GMac, 4.347% MACs, 256, 256, kernel_size=(3, 3), stride=(1, 1), padding=(1, 1))
          )
          (2): Conv2dNormActivation(
            590.08 k, 1.290% Params, 1.48 GMac, 1.087% MACs, 
            (0): Conv2d(590.08 k, 1.290% Params, 1.48 GMac, 1.087% MACs, 256, 256, kernel_size=(3, 3), stride=(1, 1), padding=(1, 1))
          )
          (3): Conv2dNormActivation(
            590.08 k, 1.290% Params, 368.8 MMac, 0.272% MACs, 
            (0): Conv2d(590.08 k, 1.290% Params, 368.8 MMac, 0.272% MACs, 256, 256, kernel_size=(3, 3), stride=(1, 1), padding=(1, 1))
          )
        )
        (sa_cross_attn): ModuleList(
          (0): SpatialAlignTransNormer(
            789.76 k, 1.726% Params, 494.56 MMac, 0.364% MACs, 
            (q_proj): Linear(65.79 k, 0.144% Params, 41.12 MMac, 0.030% MACs, in_features=256, out_features=256, bias=True)
            (k_proj): Linear(65.79 k, 0.144% Params, 41.12 MMac, 0.030% MACs, in_features=256, out_features=256, bias=True)
            (v_proj): Linear(65.79 k, 0.144% Params, 41.12 MMac, 0.030% MACs, in_features=256, out_features=256, bias=True)
            (out_proj): Linear(65.79 k, 0.144% Params, 41.12 MMac, 0.030% MACs, in_features=256, out_features=256, bias=True)
            (attn_norm): RMSNorm(0, 0.000% Params, 0.0 Mac, 0.000% MACs, (32,), eps=None, elementwise_affine=True)
            (linear1): Linear(263.17 k, 0.575% Params, 164.48 MMac, 0.121% MACs, in_features=256, out_features=1024, bias=True)
            (dropout): Dropout(0, 0.000% Params, 0.0 Mac, 0.000% MACs, p=0.0, inplace=False)
            (linear2): Linear(262.4 k, 0.573% Params, 164.0 MMac, 0.121% MACs, in_features=1024, out_features=256, bias=True)
            (activation): GELU(0, 0.000% Params, 640.0 KMac, 0.000% MACs, approximate='none')
            (norm1): LayerNorm(512, 0.001% Params, 160.0 KMac, 0.000% MACs, (256,), eps=1e-05, elementwise_affine=True)
            (norm2): LayerNorm(512, 0.001% Params, 160.0 KMac, 0.000% MACs, (256,), eps=1e-05, elementwise_affine=True)
            (dropout1): Dropout(0, 0.000% Params, 0.0 Mac, 0.000% MACs, p=0.0, inplace=False)
            (dropout2): Dropout(0, 0.000% Params, 0.0 Mac, 0.000% MACs, p=0.0, inplace=False)
            (avg_pool_high): Identity(0, 0.000% Params, 0.0 Mac, 0.000% MACs, )
            (avg_pool_low): AvgPool2d(0, 0.000% Params, 640.0 KMac, 0.000% MACs, kernel_size=2, stride=2, padding=0)
          )
          (1): SpatialAlignTransNormer(
            789.76 k, 1.726% Params, 497.12 MMac, 0.366% MACs, 
            (q_proj): Linear(65.79 k, 0.144% Params, 41.12 MMac, 0.030% MACs, in_features=256, out_features=256, bias=True)
            (k_proj): Linear(65.79 k, 0.144% Params, 41.12 MMac, 0.030% MACs, in_features=256, out_features=256, bias=True)
            (v_proj): Linear(65.79 k, 0.144% Params, 41.12 MMac, 0.030% MACs, in_features=256, out_features=256, bias=True)
            (out_proj): Linear(65.79 k, 0.144% Params, 41.12 MMac, 0.030% MACs, in_features=256, out_features=256, bias=True)
            (attn_norm): RMSNorm(0, 0.000% Params, 0.0 Mac, 0.000% MACs, (32,), eps=None, elementwise_affine=True)
            (linear1): Linear(263.17 k, 0.575% Params, 164.48 MMac, 0.121% MACs, in_features=256, out_features=1024, bias=True)
            (dropout): Dropout(0, 0.000% Params, 0.0 Mac, 0.000% MACs, p=0.0, inplace=False)
            (linear2): Linear(262.4 k, 0.573% Params, 164.0 MMac, 0.121% MACs, in_features=1024, out_features=256, bias=True)
            (activation): GELU(0, 0.000% Params, 640.0 KMac, 0.000% MACs, approximate='none')
            (norm1): LayerNorm(512, 0.001% Params, 160.0 KMac, 0.000% MACs, (256,), eps=1e-05, elementwise_affine=True)
            (norm2): LayerNorm(512, 0.001% Params, 160.0 KMac, 0.000% MACs, (256,), eps=1e-05, elementwise_affine=True)
            (dropout1): Dropout(0, 0.000% Params, 0.0 Mac, 0.000% MACs, p=0.0, inplace=False)
            (dropout2): Dropout(0, 0.000% Params, 0.0 Mac, 0.000% MACs, p=0.0, inplace=False)
            (avg_pool_high): AvgPool2d(0, 0.000% Params, 640.0 KMac, 0.000% MACs, kernel_size=2, stride=2, padding=0)
            (avg_pool_low): AvgPool2d(0, 0.000% Params, 2.56 MMac, 0.002% MACs, kernel_size=4, stride=4, padding=0)
          )
        )
        (extra_blocks): LastLevelMaxPool(0, 0.000% Params, 0.0 Mac, 0.000% MACs, )
      )
    )
    (rpn): RegionProposalNetwork(
      593.93 k, 1.298% Params, 31.67 GMac, 23.330% MACs, 
      (anchor_generator): AnchorGenerator(0, 0.000% Params, 0.0 Mac, 0.000% MACs, )
      (head): RPNHead(
        593.93 k, 1.298% Params, 31.67 GMac, 23.330% MACs, 
        (conv): Sequential(
          590.08 k, 1.290% Params, 31.46 GMac, 23.179% MACs, 
          (0): Conv2dNormActivation(
            590.08 k, 1.290% Params, 31.46 GMac, 23.179% MACs, 
            (0): Conv2d(590.08 k, 1.290% Params, 31.45 GMac, 23.169% MACs, 256, 256, kernel_size=(3, 3), stride=(1, 1), padding=(1, 1))
            (1): ReLU(0, 0.000% Params, 13.64 MMac, 0.010% MACs, inplace=True)
          )
        )
        (cls_logits): Conv2d(771, 0.002% Params, 41.09 MMac, 0.030% MACs, 256, 3, kernel_size=(1, 1), stride=(1, 1))
        (bbox_pred): Conv2d(3.08 k, 0.007% Params, 164.36 MMac, 0.121% MACs, 256, 12, kernel_size=(1, 1), stride=(1, 1))
      )
    )
    (roi_heads): RoIHeads(
      17.01 M, 37.169% Params, 14.36 GMac, 10.581% MACs, 
      (box_roi_pool): MultiScaleRoIAlign(featmap_names=['0', '1', '2', '3'], output_size=(7, 7), sampling_ratio=2)
      (box_head): TwoMLPHead(
        13.9 M, 30.367% Params, 13.9 GMac, 10.237% MACs, 
        (fc6): Linear(12.85 M, 28.074% Params, 12.85 GMac, 9.464% MACs, in_features=12544, out_features=1024, bias=True)
        (fc7): Linear(1.05 M, 2.294% Params, 1.05 GMac, 0.773% MACs, in_features=1024, out_features=1024, bias=True)
      )
      (box_predictor): FastRCNNPredictor(
        466.38 k, 1.019% Params, 466.38 MMac, 0.344% MACs, 
        (cls_score): Linear(93.28 k, 0.204% Params, 93.28 MMac, 0.069% MACs, in_features=1024, out_features=91, bias=True)
        (bbox_pred): Linear(373.1 k, 0.815% Params, 373.1 MMac, 0.275% MACs, in_features=1024, out_features=364, bias=True)
      )
      (mask_roi_pool): MultiScaleRoIAlign(featmap_names=['0', '1', '2', '3'], output_size=(14, 14), sampling_ratio=2)
      (mask_head): MaskRCNNHeads(
        2.36 M, 5.158% Params, 0.0 Mac, 0.000% MACs, 
        (0): Conv2dNormActivation(
          590.08 k, 1.290% Params, 0.0 Mac, 0.000% MACs, 
          (0): Conv2d(590.08 k, 1.290% Params, 0.0 Mac, 0.000% MACs, 256, 256, kernel_size=(3, 3), stride=(1, 1), padding=(1, 1))
          (1): ReLU(0, 0.000% Params, 0.0 Mac, 0.000% MACs, inplace=True)
        )
        (1): Conv2dNormActivation(
          590.08 k, 1.290% Params, 0.0 Mac, 0.000% MACs, 
          (0): Conv2d(590.08 k, 1.290% Params, 0.0 Mac, 0.000% MACs, 256, 256, kernel_size=(3, 3), stride=(1, 1), padding=(1, 1))
          (1): ReLU(0, 0.000% Params, 0.0 Mac, 0.000% MACs, inplace=True)
        )
        (2): Conv2dNormActivation(
          590.08 k, 1.290% Params, 0.0 Mac, 0.000% MACs, 
          (0): Conv2d(590.08 k, 1.290% Params, 0.0 Mac, 0.000% MACs, 256, 256, kernel_size=(3, 3), stride=(1, 1), padding=(1, 1))
          (1): ReLU(0, 0.000% Params, 0.0 Mac, 0.000% MACs, inplace=True)
        )
        (3): Conv2dNormActivation(
          590.08 k, 1.290% Params, 0.0 Mac, 0.000% MACs, 
          (0): Conv2d(590.08 k, 1.290% Params, 0.0 Mac, 0.000% MACs, 256, 256, kernel_size=(3, 3), stride=(1, 1), padding=(1, 1))
          (1): ReLU(0, 0.000% Params, 0.0 Mac, 0.000% MACs, inplace=True)
        )
      )
      (mask_predictor): MaskRCNNPredictor(
        285.79 k, 0.625% Params, 0.0 Mac, 0.000% MACs, 
        (conv5_mask): ConvTranspose2d(262.4 k, 0.573% Params, 0.0 Mac, 0.000% MACs, 256, 256, kernel_size=(2, 2), stride=(2, 2))
        (relu): ReLU(0, 0.000% Params, 0.0 Mac, 0.000% MACs, inplace=True)
        (mask_fcn_logits): Conv2d(23.39 k, 0.051% Params, 0.0 Mac, 0.000% MACs, 256, 91, kernel_size=(1, 1), stride=(1, 1))
      )
    )
  )
)
FLOPs: 135.73 GMac, Params: 45.76 M
Start training
/home/hslee/FINE-FPN/vision/references/detection/engine.py:41: FutureWarning: `torch.cuda.amp.autocast(args...)` is deprecated. Please use `torch.amp.autocast('cuda', args...)` instead.
  with torch.cuda.amp.autocast(enabled=scaler is not None):
…
