…
Warning: module CIB is treated as a zero-op.
Warning: module C2fCIB is treated as a zero-op.
Warning: module DFL is treated as a zero-op.
Warning: module v10Detect is treated as a zero-op.
Warning: module DetectionModel is treated as a zero-op.
Warning: module DistributedDataParallel is treated as a zero-op.
DistributedDataParallel(
  3.07 M, 99.999% Params, 4.46 GMac, 91.906% MACs, 
  (module): DetectionModel(
    3.07 M, 99.999% Params, 4.46 GMac, 91.906% MACs, 
    (model): Sequential(
      3.07 M, 99.999% Params, 4.46 GMac, 91.906% MACs, 
      (0): Conv(
        464, 0.015% Params, 47.51 MMac, 0.980% MACs, 
        (conv): Conv2d(432, 0.014% Params, 44.24 MMac, 0.912% MACs, 3, 16, kernel_size=(3, 3), stride=(2, 2), padding=(1, 1), bias=False)
        (bn): BatchNorm2d(32, 0.001% Params, 3.28 MMac, 0.068% MACs, 16, eps=0.001, momentum=0.03, affine=True, track_running_stats=True)
        (act): SiLU(0, 0.000% Params, 0.0 Mac, 0.000% MACs, inplace=True)
      )
      (1): Conv(
        4.67 k, 0.152% Params, 119.6 MMac, 2.467% MACs, 
        (conv): Conv2d(4.61 k, 0.150% Params, 117.96 MMac, 2.433% MACs, 16, 32, kernel_size=(3, 3), stride=(2, 2), padding=(1, 1), bias=False)
        (bn): BatchNorm2d(64, 0.002% Params, 1.64 MMac, 0.034% MACs, 32, eps=0.001, momentum=0.03, affine=True, track_running_stats=True)
        (act): SiLU(0, 0.000% Params, 0.0 Mac, 0.000% MACs, inplace=True)
      )
      (2): C2f(
        7.36 k, 0.240% Params, 188.42 MMac, 3.887% MACs, 
        (cv1): Conv(
          1.09 k, 0.035% Params, 27.85 MMac, 0.575% MACs, 
          (conv): Conv2d(1.02 k, 0.033% Params, 26.21 MMac, 0.541% MACs, 32, 32, kernel_size=(1, 1), stride=(1, 1), bias=False)
          (bn): BatchNorm2d(64, 0.002% Params, 1.64 MMac, 0.034% MACs, 32, eps=0.001, momentum=0.03, affine=True, track_running_stats=True)
          (act): SiLU(0, 0.000% Params, 0.0 Mac, 0.000% MACs, inplace=True)
        )
        (cv2): Conv(
          1.6 k, 0.052% Params, 40.96 MMac, 0.845% MACs, 
          (conv): Conv2d(1.54 k, 0.050% Params, 39.32 MMac, 0.811% MACs, 48, 32, kernel_size=(1, 1), stride=(1, 1), bias=False)
          (bn): BatchNorm2d(64, 0.002% Params, 1.64 MMac, 0.034% MACs, 32, eps=0.001, momentum=0.03, affine=True, track_running_stats=True)
          (act): SiLU(0, 0.000% Params, 0.0 Mac, 0.000% MACs, inplace=True)
        )
        (m): ModuleList(
          (0): Bottleneck(
            4.67 k, 0.152% Params, 119.6 MMac, 2.467% MACs, 
            (cv1): Conv(
              2.34 k, 0.076% Params, 59.8 MMac, 1.234% MACs, 
              (conv): Conv2d(2.3 k, 0.075% Params, 58.98 MMac, 1.217% MACs, 16, 16, kernel_size=(3, 3), stride=(1, 1), padding=(1, 1), bias=False)
              (bn): BatchNorm2d(32, 0.001% Params, 819.2 KMac, 0.017% MACs, 16, eps=0.001, momentum=0.03, affine=True, track_running_stats=True)
              (act): SiLU(0, 0.000% Params, 0.0 Mac, 0.000% MACs, inplace=True)
            )
            (cv2): Conv(
              2.34 k, 0.076% Params, 59.8 MMac, 1.234% MACs, 
              (conv): Conv2d(2.3 k, 0.075% Params, 58.98 MMac, 1.217% MACs, 16, 16, kernel_size=(3, 3), stride=(1, 1), padding=(1, 1), bias=False)
              (bn): BatchNorm2d(32, 0.001% Params, 819.2 KMac, 0.017% MACs, 16, eps=0.001, momentum=0.03, affine=True, track_running_stats=True)
              (act): SiLU(0, 0.000% Params, 0.0 Mac, 0.000% MACs, inplace=True)
            )
          )
        )
      )
      (3): Conv(
        18.56 k, 0.605% Params, 118.78 MMac, 2.450% MACs, 
        (conv): Conv2d(18.43 k, 0.601% Params, 117.96 MMac, 2.433% MACs, 32, 64, kernel_size=(3, 3), stride=(2, 2), padding=(1, 1), bias=False)
        (bn): BatchNorm2d(128, 0.004% Params, 819.2 KMac, 0.017% MACs, 64, eps=0.001, momentum=0.03, affine=True, track_running_stats=True)
        (act): SiLU(0, 0.000% Params, 0.0 Mac, 0.000% MACs, inplace=True)
      )
      (4): C2f(
        49.66 k, 1.620% Params, 317.85 MMac, 6.556% MACs, 
        (cv1): Conv(
          4.22 k, 0.138% Params, 27.03 MMac, 0.558% MACs, 
          (conv): Conv2d(4.1 k, 0.134% Params, 26.21 MMac, 0.541% MACs, 64, 64, kernel_size=(1, 1), stride=(1, 1), bias=False)
          (bn): BatchNorm2d(128, 0.004% Params, 819.2 KMac, 0.017% MACs, 64, eps=0.001, momentum=0.03, affine=True, track_running_stats=True)
          (act): SiLU(0, 0.000% Params, 0.0 Mac, 0.000% MACs, inplace=True)
        )
        (cv2): Conv(
          8.32 k, 0.271% Params, 53.25 MMac, 1.098% MACs, 
          (conv): Conv2d(8.19 k, 0.267% Params, 52.43 MMac, 1.081% MACs, 128, 64, kernel_size=(1, 1), stride=(1, 1), bias=False)
          (bn): BatchNorm2d(128, 0.004% Params, 819.2 KMac, 0.017% MACs, 64, eps=0.001, momentum=0.03, affine=True, track_running_stats=True)
          (act): SiLU(0, 0.000% Params, 0.0 Mac, 0.000% MACs, inplace=True)
        )
        (m): ModuleList(
          (0-1): 2 x Bottleneck(
            18.56 k, 0.605% Params, 118.78 MMac, 2.450% MACs, 
            (cv1): Conv(
              9.28 k, 0.303% Params, 59.39 MMac, 1.225% MACs, 
              (conv): Conv2d(9.22 k, 0.301% Params, 58.98 MMac, 1.217% MACs, 32, 32, kernel_size=(3, 3), stride=(1, 1), padding=(1, 1), bias=False)
              (bn): BatchNorm2d(64, 0.002% Params, 409.6 KMac, 0.008% MACs, 32, eps=0.001, momentum=0.03, affine=True, track_running_stats=True)
              (act): SiLU(0, 0.000% Params, 0.0 Mac, 0.000% MACs, inplace=True)
            )
            (cv2): Conv(
              9.28 k, 0.303% Params, 59.39 MMac, 1.225% MACs, 
              (conv): Conv2d(9.22 k, 0.301% Params, 58.98 MMac, 1.217% MACs, 32, 32, kernel_size=(3, 3), stride=(1, 1), padding=(1, 1), bias=False)
              (bn): BatchNorm2d(64, 0.002% Params, 409.6 KMac, 0.008% MACs, 32, eps=0.001, momentum=0.03, affine=True, track_running_stats=True)
              (act): SiLU(0, 0.000% Params, 0.0 Mac, 0.000% MACs, inplace=True)
            )
          )
        )
      )
      (5): SCDown(
        9.86 k, 0.322% Params, 56.32 MMac, 1.162% MACs, 
        (cv1): Conv(
          8.45 k, 0.276% Params, 54.07 MMac, 1.115% MACs, 
          (conv): Conv2d(8.19 k, 0.267% Params, 52.43 MMac, 1.081% MACs, 64, 128, kernel_size=(1, 1), stride=(1, 1), bias=False)
          (bn): BatchNorm2d(256, 0.008% Params, 1.64 MMac, 0.034% MACs, 128, eps=0.001, momentum=0.03, affine=True, track_running_stats=True)
          (act): SiLU(0, 0.000% Params, 0.0 Mac, 0.000% MACs, inplace=True)
        )
        (cv2): Conv(
          1.41 k, 0.046% Params, 2.25 MMac, 0.046% MACs, 
          (conv): Conv2d(1.15 k, 0.038% Params, 1.84 MMac, 0.038% MACs, 128, 128, kernel_size=(3, 3), stride=(2, 2), padding=(1, 1), groups=128, bias=False)
          (bn): BatchNorm2d(256, 0.008% Params, 409.6 KMac, 0.008% MACs, 128, eps=0.001, momentum=0.03, affine=True, track_running_stats=True)
          (act): Identity(0, 0.000% Params, 0.0 Mac, 0.000% MACs, )
        )
      )
      (6): C2f(
        197.63 k, 6.447% Params, 316.21 MMac, 6.523% MACs, 
        (cv1): Conv(
          16.64 k, 0.543% Params, 26.62 MMac, 0.549% MACs, 
          (conv): Conv2d(16.38 k, 0.534% Params, 26.21 MMac, 0.541% MACs, 128, 128, kernel_size=(1, 1), stride=(1, 1), bias=False)
          (bn): BatchNorm2d(256, 0.008% Params, 409.6 KMac, 0.008% MACs, 128, eps=0.001, momentum=0.03, affine=True, track_running_stats=True)
          (act): SiLU(0, 0.000% Params, 0.0 Mac, 0.000% MACs, inplace=True)
        )
        (cv2): Conv(
          33.02 k, 1.077% Params, 52.84 MMac, 1.090% MACs, 
          (conv): Conv2d(32.77 k, 1.069% Params, 52.43 MMac, 1.081% MACs, 256, 128, kernel_size=(1, 1), stride=(1, 1), bias=False)
          (bn): BatchNorm2d(256, 0.008% Params, 409.6 KMac, 0.008% MACs, 128, eps=0.001, momentum=0.03, affine=True, track_running_stats=True)
          (act): SiLU(0, 0.000% Params, 0.0 Mac, 0.000% MACs, inplace=True)
        )
        (m): ModuleList(
          (0-1): 2 x Bottleneck(
            73.98 k, 2.414% Params, 118.37 MMac, 2.442% MACs, 
            (cv1): Conv(
              36.99 k, 1.207% Params, 59.19 MMac, 1.221% MACs, 
              (conv): Conv2d(36.86 k, 1.203% Params, 58.98 MMac, 1.217% MACs, 64, 64, kernel_size=(3, 3), stride=(1, 1), padding=(1, 1), bias=False)
              (bn): BatchNorm2d(128, 0.004% Params, 204.8 KMac, 0.004% MACs, 64, eps=0.001, momentum=0.03, affine=True, track_running_stats=True)
              (act): SiLU(0, 0.000% Params, 0.0 Mac, 0.000% MACs, inplace=True)
            )
            (cv2): Conv(
              36.99 k, 1.207% Params, 59.19 MMac, 1.221% MACs, 
              (conv): Conv2d(36.86 k, 1.203% Params, 58.98 MMac, 1.217% MACs, 64, 64, kernel_size=(3, 3), stride=(1, 1), padding=(1, 1), bias=False)
              (bn): BatchNorm2d(128, 0.004% Params, 204.8 KMac, 0.004% MACs, 64, eps=0.001, momentum=0.03, affine=True, track_running_stats=True)
              (act): SiLU(0, 0.000% Params, 0.0 Mac, 0.000% MACs, inplace=True)
            )
          )
        )
      )
      (7): SCDown(
        36.1 k, 1.178% Params, 54.37 MMac, 1.122% MACs, 
        (cv1): Conv(
          33.28 k, 1.086% Params, 53.25 MMac, 1.098% MACs, 
          (conv): Conv2d(32.77 k, 1.069% Params, 52.43 MMac, 1.081% MACs, 128, 256, kernel_size=(1, 1), stride=(1, 1), bias=False)
          (bn): BatchNorm2d(512, 0.017% Params, 819.2 KMac, 0.017% MACs, 256, eps=0.001, momentum=0.03, affine=True, track_running_stats=True)
          (act): SiLU(0, 0.000% Params, 0.0 Mac, 0.000% MACs, inplace=True)
        )
        (cv2): Conv(
          2.82 k, 0.092% Params, 1.13 MMac, 0.023% MACs, 
          (conv): Conv2d(2.3 k, 0.075% Params, 921.6 KMac, 0.019% MACs, 256, 256, kernel_size=(3, 3), stride=(2, 2), padding=(1, 1), groups=256, bias=False)
          (bn): BatchNorm2d(512, 0.017% Params, 204.8 KMac, 0.004% MACs, 256, eps=0.001, momentum=0.03, affine=True, track_running_stats=True)
          (act): Identity(0, 0.000% Params, 0.0 Mac, 0.000% MACs, )
        )
      )
      (8): C2f(
        460.29 k, 15.016% Params, 184.12 MMac, 3.798% MACs, 
        (cv1): Conv(
          66.05 k, 2.155% Params, 26.42 MMac, 0.545% MACs, 
          (conv): Conv2d(65.54 k, 2.138% Params, 26.21 MMac, 0.541% MACs, 256, 256, kernel_size=(1, 1), stride=(1, 1), bias=False)
          (bn): BatchNorm2d(512, 0.017% Params, 204.8 KMac, 0.004% MACs, 256, eps=0.001, momentum=0.03, affine=True, track_running_stats=True)
          (act): SiLU(0, 0.000% Params, 0.0 Mac, 0.000% MACs, inplace=True)
        )
        (cv2): Conv(
          98.82 k, 3.224% Params, 39.53 MMac, 0.815% MACs, 
          (conv): Conv2d(98.3 k, 3.207% Params, 39.32 MMac, 0.811% MACs, 384, 256, kernel_size=(1, 1), stride=(1, 1), bias=False)
          (bn): BatchNorm2d(512, 0.017% Params, 204.8 KMac, 0.004% MACs, 256, eps=0.001, momentum=0.03, affine=True, track_running_stats=True)
          (act): SiLU(0, 0.000% Params, 0.0 Mac, 0.000% MACs, inplace=True)
        )
        (m): ModuleList(
          (0): Bottleneck(
            295.42 k, 9.638% Params, 118.17 MMac, 2.438% MACs, 
            (cv1): Conv(
              147.71 k, 4.819% Params, 59.08 MMac, 1.219% MACs, 
              (conv): Conv2d(147.46 k, 4.810% Params, 58.98 MMac, 1.217% MACs, 128, 128, kernel_size=(3, 3), stride=(1, 1), padding=(1, 1), bias=False)
              (bn): BatchNorm2d(256, 0.008% Params, 102.4 KMac, 0.002% MACs, 128, eps=0.001, momentum=0.03, affine=True, track_running_stats=True)
              (act): SiLU(0, 0.000% Params, 0.0 Mac, 0.000% MACs, inplace=True)
            )
            (cv2): Conv(
              147.71 k, 4.819% Params, 59.08 MMac, 1.219% MACs, 
              (conv): Conv2d(147.46 k, 4.810% Params, 58.98 MMac, 1.217% MACs, 128, 128, kernel_size=(3, 3), stride=(1, 1), padding=(1, 1), bias=False)
              (bn): BatchNorm2d(256, 0.008% Params, 102.4 KMac, 0.002% MACs, 128, eps=0.001, momentum=0.03, affine=True, track_running_stats=True)
              (act): SiLU(0, 0.000% Params, 0.0 Mac, 0.000% MACs, inplace=True)
            )
          )
        )
      )
      (9): SPPF(
        164.61 k, 5.370% Params, 66.0 MMac, 1.361% MACs, 
        (cv1): Conv(
          33.02 k, 1.077% Params, 13.21 MMac, 0.272% MACs, 
          (conv): Conv2d(32.77 k, 1.069% Params, 13.11 MMac, 0.270% MACs, 256, 128, kernel_size=(1, 1), stride=(1, 1), bias=False)
          (bn): BatchNorm2d(256, 0.008% Params, 102.4 KMac, 0.002% MACs, 128, eps=0.001, momentum=0.03, affine=True, track_running_stats=True)
          (act): SiLU(0, 0.000% Params, 0.0 Mac, 0.000% MACs, inplace=True)
        )
        (cv2): Conv(
          131.58 k, 4.293% Params, 52.63 MMac, 1.086% MACs, 
          (conv): Conv2d(131.07 k, 4.276% Params, 52.43 MMac, 1.081% MACs, 512, 256, kernel_size=(1, 1), stride=(1, 1), bias=False)
          (bn): BatchNorm2d(512, 0.017% Params, 204.8 KMac, 0.004% MACs, 256, eps=0.001, momentum=0.03, affine=True, track_running_stats=True)
          (act): SiLU(0, 0.000% Params, 0.0 Mac, 0.000% MACs, inplace=True)
        )
        (m): MaxPool2d(0, 0.000% Params, 153.6 KMac, 0.003% MACs, kernel_size=5, stride=1, padding=2, dilation=1, ceil_mode=False)
      )
      (10): PSA(
        249.73 k, 8.147% Params, 99.89 MMac, 2.061% MACs, 
        (cv1): Conv(
          66.05 k, 2.155% Params, 26.42 MMac, 0.545% MACs, 
          (conv): Conv2d(65.54 k, 2.138% Params, 26.21 MMac, 0.541% MACs, 256, 256, kernel_size=(1, 1), stride=(1, 1), bias=False)
          (bn): BatchNorm2d(512, 0.017% Params, 204.8 KMac, 0.004% MACs, 256, eps=0.001, momentum=0.03, affine=True, track_running_stats=True)
          (act): SiLU(0, 0.000% Params, 0.0 Mac, 0.000% MACs, inplace=True)
        )
        (cv2): Conv(
          66.05 k, 2.155% Params, 26.42 MMac, 0.545% MACs, 
          (conv): Conv2d(65.54 k, 2.138% Params, 26.21 MMac, 0.541% MACs, 256, 256, kernel_size=(1, 1), stride=(1, 1), bias=False)
          (bn): BatchNorm2d(512, 0.017% Params, 204.8 KMac, 0.004% MACs, 256, eps=0.001, momentum=0.03, affine=True, track_running_stats=True)
          (act): SiLU(0, 0.000% Params, 0.0 Mac, 0.000% MACs, inplace=True)
        )
        (attn): Attention(
          51.33 k, 1.674% Params, 20.53 MMac, 0.424% MACs, 
          (qkv): Conv(
            33.28 k, 1.086% Params, 13.31 MMac, 0.275% MACs, 
            (conv): Conv2d(32.77 k, 1.069% Params, 13.11 MMac, 0.270% MACs, 128, 256, kernel_size=(1, 1), stride=(1, 1), bias=False)
            (bn): BatchNorm2d(512, 0.017% Params, 204.8 KMac, 0.004% MACs, 256, eps=0.001, momentum=0.03, affine=True, track_running_stats=True)
            (act): Identity(0, 0.000% Params, 0.0 Mac, 0.000% MACs, )
          )
          (proj): Conv(
            16.64 k, 0.543% Params, 6.66 MMac, 0.137% MACs, 
            (conv): Conv2d(16.38 k, 0.534% Params, 6.55 MMac, 0.135% MACs, 128, 128, kernel_size=(1, 1), stride=(1, 1), bias=False)
            (bn): BatchNorm2d(256, 0.008% Params, 102.4 KMac, 0.002% MACs, 128, eps=0.001, momentum=0.03, affine=True, track_running_stats=True)
            (act): Identity(0, 0.000% Params, 0.0 Mac, 0.000% MACs, )
          )
          (pe): Conv(
            1.41 k, 0.046% Params, 563.2 KMac, 0.012% MACs, 
            (conv): Conv2d(1.15 k, 0.038% Params, 460.8 KMac, 0.010% MACs, 128, 128, kernel_size=(3, 3), stride=(1, 1), padding=(1, 1), groups=128, bias=False)
            (bn): BatchNorm2d(256, 0.008% Params, 102.4 KMac, 0.002% MACs, 128, eps=0.001, momentum=0.03, affine=True, track_running_stats=True)
            (act): Identity(0, 0.000% Params, 0.0 Mac, 0.000% MACs, )
          )
        )
        (ffn): Sequential(
          66.3 k, 2.163% Params, 26.52 MMac, 0.547% MACs, 
          (0): Conv(
            33.28 k, 1.086% Params, 13.31 MMac, 0.275% MACs, 
            (conv): Conv2d(32.77 k, 1.069% Params, 13.11 MMac, 0.270% MACs, 128, 256, kernel_size=(1, 1), stride=(1, 1), bias=False)
            (bn): BatchNorm2d(512, 0.017% Params, 204.8 KMac, 0.004% MACs, 256, eps=0.001, momentum=0.03, affine=True, track_running_stats=True)
            (act): SiLU(0, 0.000% Params, 0.0 Mac, 0.000% MACs, inplace=True)
          )
          (1): Conv(
            33.02 k, 1.077% Params, 13.21 MMac, 0.272% MACs, 
            (conv): Conv2d(32.77 k, 1.069% Params, 13.11 MMac, 0.270% MACs, 256, 128, kernel_size=(1, 1), stride=(1, 1), bias=False)
            (bn): BatchNorm2d(256, 0.008% Params, 102.4 KMac, 0.002% MACs, 128, eps=0.001, momentum=0.03, affine=True, track_running_stats=True)
            (act): Identity(0, 0.000% Params, 0.0 Mac, 0.000% MACs, )
          )
        )
      )
      (11): SpatialAlignTransnormer(
        231.42 k, 7.550% Params, 92.88 MMac, 1.916% MACs, 
        (upsample): Upsample(0, 0.000% Params, 0.0 Mac, 0.000% MACs, scale_factor=2.0, mode='bilinear')
        (high_to_low_embed): Sequential(
          33.15 k, 1.082% Params, 13.26 MMac, 0.274% MACs, 
          (0): Conv2d(32.9 k, 1.073% Params, 13.16 MMac, 0.271% MACs, 256, 128, kernel_size=(1, 1), stride=(1, 1))
          (1): BatchNorm2d(256, 0.008% Params, 102.4 KMac, 0.002% MACs, 128, eps=0.001, momentum=0.03, affine=True, track_running_stats=True)
        )
        (q_proj): Sequential(
          16.51 k, 0.539% Params, 6.6 MMac, 0.136% MACs, 
          (0): Linear(16.51 k, 0.539% Params, 6.6 MMac, 0.136% MACs, in_features=128, out_features=128, bias=True)
        )
        (k_proj): Sequential(
          16.51 k, 0.539% Params, 6.6 MMac, 0.136% MACs, 
          (0): Linear(16.51 k, 0.539% Params, 6.6 MMac, 0.136% MACs, in_features=128, out_features=128, bias=True)
        )
        (v_proj): Linear(16.51 k, 0.539% Params, 6.6 MMac, 0.136% MACs, in_features=128, out_features=128, bias=True)
        (out_proj): Linear(16.51 k, 0.539% Params, 6.6 MMac, 0.136% MACs, in_features=128, out_features=128, bias=True)
        (attn_norm): RMSNorm(0, 0.000% Params, 0.0 Mac, 0.000% MACs, (16,), eps=None, elementwise_affine=True)
        (linear1): Linear(66.05 k, 2.155% Params, 26.42 MMac, 0.545% MACs, in_features=128, out_features=512, bias=True)
        (dropout): Dropout(0, 0.000% Params, 0.0 Mac, 0.000% MACs, p=0.0, inplace=False)
        (linear2): Linear(65.66 k, 2.142% Params, 26.27 MMac, 0.542% MACs, in_features=512, out_features=128, bias=True)
        (activation): GELU(0, 0.000% Params, 204.8 KMac, 0.004% MACs, approximate='none')
        (norm1): LayerNorm(256, 0.008% Params, 51.2 KMac, 0.001% MACs, (128,), eps=1e-05, elementwise_affine=True)
        (norm2): LayerNorm(256, 0.008% Params, 51.2 KMac, 0.001% MACs, (128,), eps=1e-05, elementwise_affine=True)
        (dropout1): Dropout(0, 0.000% Params, 0.0 Mac, 0.000% MACs, p=0.0, inplace=False)
        (dropout2): Dropout(0, 0.000% Params, 0.0 Mac, 0.000% MACs, p=0.0, inplace=False)
        (avg_pool_high): Identity(0, 0.000% Params, 0.0 Mac, 0.000% MACs, )
        (avg_pool_low): AvgPool2d(0, 0.000% Params, 204.8 KMac, 0.004% MACs, kernel_size=2, stride=2, padding=0)
      )
      (12): C2f(
        148.22 k, 4.836% Params, 237.16 MMac, 4.892% MACs, 
        (cv1): Conv(
          49.41 k, 1.612% Params, 79.05 MMac, 1.631% MACs, 
          (conv): Conv2d(49.15 k, 1.603% Params, 78.64 MMac, 1.622% MACs, 384, 128, kernel_size=(1, 1), stride=(1, 1), bias=False)
          (bn): BatchNorm2d(256, 0.008% Params, 409.6 KMac, 0.008% MACs, 128, eps=0.001, momentum=0.03, affine=True, track_running_stats=True)
          (act): SiLU(0, 0.000% Params, 0.0 Mac, 0.000% MACs, inplace=True)
        )
        (cv2): Conv(
          24.83 k, 0.810% Params, 39.73 MMac, 0.820% MACs, 
          (conv): Conv2d(24.58 k, 0.802% Params, 39.32 MMac, 0.811% MACs, 192, 128, kernel_size=(1, 1), stride=(1, 1), bias=False)
          (bn): BatchNorm2d(256, 0.008% Params, 409.6 KMac, 0.008% MACs, 128, eps=0.001, momentum=0.03, affine=True, track_running_stats=True)
          (act): SiLU(0, 0.000% Params, 0.0 Mac, 0.000% MACs, inplace=True)
        )
        (m): ModuleList(
          (0): Bottleneck(
            73.98 k, 2.414% Params, 118.37 MMac, 2.442% MACs, 
            (cv1): Conv(
              36.99 k, 1.207% Params, 59.19 MMac, 1.221% MACs, 
              (conv): Conv2d(36.86 k, 1.203% Params, 58.98 MMac, 1.217% MACs, 64, 64, kernel_size=(3, 3), stride=(1, 1), padding=(1, 1), bias=False)
              (bn): BatchNorm2d(128, 0.004% Params, 204.8 KMac, 0.004% MACs, 64, eps=0.001, momentum=0.03, affine=True, track_running_stats=True)
              (act): SiLU(0, 0.000% Params, 0.0 Mac, 0.000% MACs, inplace=True)
            )
            (cv2): Conv(
              36.99 k, 1.207% Params, 59.19 MMac, 1.221% MACs, 
              (conv): Conv2d(36.86 k, 1.203% Params, 58.98 MMac, 1.217% MACs, 64, 64, kernel_size=(3, 3), stride=(1, 1), padding=(1, 1), bias=False)
              (bn): BatchNorm2d(128, 0.004% Params, 204.8 KMac, 0.004% MACs, 64, eps=0.001, momentum=0.03, affine=True, track_running_stats=True)
              (act): SiLU(0, 0.000% Params, 0.0 Mac, 0.000% MACs, inplace=True)
            )
          )
        )
      )
      (13): SpatialAlignTransnormer(
        58.37 k, 1.904% Params, 33.97 MMac, 0.701% MACs, 
        (upsample): Upsample(0, 0.000% Params, 0.0 Mac, 0.000% MACs, scale_factor=2.0, mode='bilinear')
        (high_to_low_embed): Sequential(
          8.38 k, 0.274% Params, 13.41 MMac, 0.277% MACs, 
          (0): Conv2d(8.26 k, 0.269% Params, 13.21 MMac, 0.272% MACs, 128, 64, kernel_size=(1, 1), stride=(1, 1))
          (1): BatchNorm2d(128, 0.004% Params, 204.8 KMac, 0.004% MACs, 64, eps=0.001, momentum=0.03, affine=True, track_running_stats=True)
        )
        (q_proj): Sequential(
          4.16 k, 0.136% Params, 1.66 MMac, 0.034% MACs, 
          (0): Linear(4.16 k, 0.136% Params, 1.66 MMac, 0.034% MACs, in_features=64, out_features=64, bias=True)
        )
        (k_proj): Sequential(
          4.16 k, 0.136% Params, 1.66 MMac, 0.034% MACs, 
          (0): Linear(4.16 k, 0.136% Params, 1.66 MMac, 0.034% MACs, in_features=64, out_features=64, bias=True)
        )
        (v_proj): Linear(4.16 k, 0.136% Params, 1.66 MMac, 0.034% MACs, in_features=64, out_features=64, bias=True)
        (out_proj): Linear(4.16 k, 0.136% Params, 1.66 MMac, 0.034% MACs, in_features=64, out_features=64, bias=True)
        (attn_norm): RMSNorm(0, 0.000% Params, 0.0 Mac, 0.000% MACs, (8,), eps=None, elementwise_affine=True)
        (linear1): Linear(16.64 k, 0.543% Params, 6.66 MMac, 0.137% MACs, in_features=64, out_features=256, bias=True)
        (dropout): Dropout(0, 0.000% Params, 0.0 Mac, 0.000% MACs, p=0.0, inplace=False)
        (linear2): Linear(16.45 k, 0.537% Params, 6.58 MMac, 0.136% MACs, in_features=256, out_features=64, bias=True)
        (activation): GELU(0, 0.000% Params, 102.4 KMac, 0.002% MACs, approximate='none')
        (norm1): LayerNorm(128, 0.004% Params, 25.6 KMac, 0.001% MACs, (64,), eps=1e-05, elementwise_affine=True)
        (norm2): LayerNorm(128, 0.004% Params, 25.6 KMac, 0.001% MACs, (64,), eps=1e-05, elementwise_affine=True)
        (dropout1): Dropout(0, 0.000% Params, 0.0 Mac, 0.000% MACs, p=0.0, inplace=False)
        (dropout2): Dropout(0, 0.000% Params, 0.0 Mac, 0.000% MACs, p=0.0, inplace=False)
        (avg_pool_high): AvgPool2d(0, 0.000% Params, 102.4 KMac, 0.002% MACs, kernel_size=2, stride=2, padding=0)
        (avg_pool_low): AvgPool2d(0, 0.000% Params, 409.6 KMac, 0.008% MACs, kernel_size=4, stride=4, padding=0)
      )
      (14): C2f(
        37.25 k, 1.215% Params, 238.39 MMac, 4.917% MACs, 
        (cv1): Conv(
          12.42 k, 0.405% Params, 79.46 MMac, 1.639% MACs, 
          (conv): Conv2d(12.29 k, 0.401% Params, 78.64 MMac, 1.622% MACs, 192, 64, kernel_size=(1, 1), stride=(1, 1), bias=False)
          (bn): BatchNorm2d(128, 0.004% Params, 819.2 KMac, 0.017% MACs, 64, eps=0.001, momentum=0.03, affine=True, track_running_stats=True)
          (act): SiLU(0, 0.000% Params, 0.0 Mac, 0.000% MACs, inplace=True)
        )
        (cv2): Conv(
          6.27 k, 0.205% Params, 40.14 MMac, 0.828% MACs, 
          (conv): Conv2d(6.14 k, 0.200% Params, 39.32 MMac, 0.811% MACs, 96, 64, kernel_size=(1, 1), stride=(1, 1), bias=False)
          (bn): BatchNorm2d(128, 0.004% Params, 819.2 KMac, 0.017% MACs, 64, eps=0.001, momentum=0.03, affine=True, track_running_stats=True)
          (act): SiLU(0, 0.000% Params, 0.0 Mac, 0.000% MACs, inplace=True)
        )
        (m): ModuleList(
          (0): Bottleneck(
            18.56 k, 0.605% Params, 118.78 MMac, 2.450% MACs, 
            (cv1): Conv(
              9.28 k, 0.303% Params, 59.39 MMac, 1.225% MACs, 
              (conv): Conv2d(9.22 k, 0.301% Params, 58.98 MMac, 1.217% MACs, 32, 32, kernel_size=(3, 3), stride=(1, 1), padding=(1, 1), bias=False)
              (bn): BatchNorm2d(64, 0.002% Params, 409.6 KMac, 0.008% MACs, 32, eps=0.001, momentum=0.03, affine=True, track_running_stats=True)
              (act): SiLU(0, 0.000% Params, 0.0 Mac, 0.000% MACs, inplace=True)
            )
            (cv2): Conv(
              9.28 k, 0.303% Params, 59.39 MMac, 1.225% MACs, 
              (conv): Conv2d(9.22 k, 0.301% Params, 58.98 MMac, 1.217% MACs, 32, 32, kernel_size=(3, 3), stride=(1, 1), padding=(1, 1), bias=False)
              (bn): BatchNorm2d(64, 0.002% Params, 409.6 KMac, 0.008% MACs, 32, eps=0.001, momentum=0.03, affine=True, track_running_stats=True)
              (act): SiLU(0, 0.000% Params, 0.0 Mac, 0.000% MACs, inplace=True)
            )
          )
        )
      )
      (15): Conv(
        36.99 k, 1.207% Params, 59.19 MMac, 1.221% MACs, 
        (conv): Conv2d(36.86 k, 1.203% Params, 58.98 MMac, 1.217% MACs, 64, 64, kernel_size=(3, 3), stride=(2, 2), padding=(1, 1), bias=False)
        (bn): BatchNorm2d(128, 0.004% Params, 204.8 KMac, 0.004% MACs, 64, eps=0.001, momentum=0.03, affine=True, track_running_stats=True)
        (act): SiLU(0, 0.000% Params, 0.0 Mac, 0.000% MACs, inplace=True)
      )
      (16): Concat(0, 0.000% Params, 0.0 Mac, 0.000% MACs, )
      (17): C2f(
        123.65 k, 4.034% Params, 197.84 MMac, 4.081% MACs, 
        (cv1): Conv(
          24.83 k, 0.810% Params, 39.73 MMac, 0.820% MACs, 
          (conv): Conv2d(24.58 k, 0.802% Params, 39.32 MMac, 0.811% MACs, 192, 128, kernel_size=(1, 1), stride=(1, 1), bias=False)
          (bn): BatchNorm2d(256, 0.008% Params, 409.6 KMac, 0.008% MACs, 128, eps=0.001, momentum=0.03, affine=True, track_running_stats=True)
          (act): SiLU(0, 0.000% Params, 0.0 Mac, 0.000% MACs, inplace=True)
        )
        (cv2): Conv(
          24.83 k, 0.810% Params, 39.73 MMac, 0.820% MACs, 
          (conv): Conv2d(24.58 k, 0.802% Params, 39.32 MMac, 0.811% MACs, 192, 128, kernel_size=(1, 1), stride=(1, 1), bias=False)
          (bn): BatchNorm2d(256, 0.008% Params, 409.6 KMac, 0.008% MACs, 128, eps=0.001, momentum=0.03, affine=True, track_running_stats=True)
          (act): SiLU(0, 0.000% Params, 0.0 Mac, 0.000% MACs, inplace=True)
        )
        (m): ModuleList(
          (0): Bottleneck(
            73.98 k, 2.414% Params, 118.37 MMac, 2.442% MACs, 
            (cv1): Conv(
              36.99 k, 1.207% Params, 59.19 MMac, 1.221% MACs, 
              (conv): Conv2d(36.86 k, 1.203% Params, 58.98 MMac, 1.217% MACs, 64, 64, kernel_size=(3, 3), stride=(1, 1), padding=(1, 1), bias=False)
              (bn): BatchNorm2d(128, 0.004% Params, 204.8 KMac, 0.004% MACs, 64, eps=0.001, momentum=0.03, affine=True, track_running_stats=True)
              (act): SiLU(0, 0.000% Params, 0.0 Mac, 0.000% MACs, inplace=True)
            )
            (cv2): Conv(
              36.99 k, 1.207% Params, 59.19 MMac, 1.221% MACs, 
              (conv): Conv2d(36.86 k, 1.203% Params, 58.98 MMac, 1.217% MACs, 64, 64, kernel_size=(3, 3), stride=(1, 1), padding=(1, 1), bias=False)
              (bn): BatchNorm2d(128, 0.004% Params, 204.8 KMac, 0.004% MACs, 64, eps=0.001, momentum=0.03, affine=True, track_running_stats=True)
              (act): SiLU(0, 0.000% Params, 0.0 Mac, 0.000% MACs, inplace=True)
            )
          )
        )
      )
      (18): SCDown(
        18.05 k, 0.589% Params, 27.19 MMac, 0.561% MACs, 
        (cv1): Conv(
          16.64 k, 0.543% Params, 26.62 MMac, 0.549% MACs, 
          (conv): Conv2d(16.38 k, 0.534% Params, 26.21 MMac, 0.541% MACs, 128, 128, kernel_size=(1, 1), stride=(1, 1), bias=False)
          (bn): BatchNorm2d(256, 0.008% Params, 409.6 KMac, 0.008% MACs, 128, eps=0.001, momentum=0.03, affine=True, track_running_stats=True)
          (act): SiLU(0, 0.000% Params, 0.0 Mac, 0.000% MACs, inplace=True)
        )
        (cv2): Conv(
          1.41 k, 0.046% Params, 563.2 KMac, 0.012% MACs, 
          (conv): Conv2d(1.15 k, 0.038% Params, 460.8 KMac, 0.010% MACs, 128, 128, kernel_size=(3, 3), stride=(2, 2), padding=(1, 1), groups=128, bias=False)
          (bn): BatchNorm2d(256, 0.008% Params, 102.4 KMac, 0.002% MACs, 128, eps=0.001, momentum=0.03, affine=True, track_running_stats=True)
          (act): Identity(0, 0.000% Params, 0.0 Mac, 0.000% MACs, )
        )
      )
      (19): Concat(0, 0.000% Params, 0.0 Mac, 0.000% MACs, )
      (20): C2fCIB(
        282.62 k, 9.220% Params, 113.05 MMac, 2.332% MACs, 
        (cv1): Conv(
          98.82 k, 3.224% Params, 39.53 MMac, 0.815% MACs, 
          (conv): Conv2d(98.3 k, 3.207% Params, 39.32 MMac, 0.811% MACs, 384, 256, kernel_size=(1, 1), stride=(1, 1), bias=False)
          (bn): BatchNorm2d(512, 0.017% Params, 204.8 KMac, 0.004% MACs, 256, eps=0.001, momentum=0.03, affine=True, track_running_stats=True)
          (act): SiLU(0, 0.000% Params, 0.0 Mac, 0.000% MACs, inplace=True)
        )
        (cv2): Conv(
          98.82 k, 3.224% Params, 39.53 MMac, 0.815% MACs, 
          (conv): Conv2d(98.3 k, 3.207% Params, 39.32 MMac, 0.811% MACs, 384, 256, kernel_size=(1, 1), stride=(1, 1), bias=False)
          (bn): BatchNorm2d(512, 0.017% Params, 204.8 KMac, 0.004% MACs, 256, eps=0.001, momentum=0.03, affine=True, track_running_stats=True)
          (act): SiLU(0, 0.000% Params, 0.0 Mac, 0.000% MACs, inplace=True)
        )
        (m): ModuleList(
          (0): CIB(
            84.99 k, 2.773% Params, 34.0 MMac, 0.701% MACs, 
            (cv1): Sequential(
              84.99 k, 2.773% Params, 34.0 MMac, 0.701% MACs, 
              (0): Conv(
                1.41 k, 0.046% Params, 563.2 KMac, 0.012% MACs, 
                (conv): Conv2d(1.15 k, 0.038% Params, 460.8 KMac, 0.010% MACs, 128, 128, kernel_size=(3, 3), stride=(1, 1), padding=(1, 1), groups=128, bias=False)
                (bn): BatchNorm2d(256, 0.008% Params, 102.4 KMac, 0.002% MACs, 128, eps=0.001, momentum=0.03, affine=True, track_running_stats=True)
                (act): SiLU(0, 0.000% Params, 0.0 Mac, 0.000% MACs, inplace=True)
              )
              (1): Conv(
                33.28 k, 1.086% Params, 13.31 MMac, 0.275% MACs, 
                (conv): Conv2d(32.77 k, 1.069% Params, 13.11 MMac, 0.270% MACs, 128, 256, kernel_size=(1, 1), stride=(1, 1), bias=False)
                (bn): BatchNorm2d(512, 0.017% Params, 204.8 KMac, 0.004% MACs, 256, eps=0.001, momentum=0.03, affine=True, track_running_stats=True)
                (act): SiLU(0, 0.000% Params, 0.0 Mac, 0.000% MACs, inplace=True)
              )
              (2): RepVGGDW(
                15.87 k, 0.518% Params, 6.35 MMac, 0.131% MACs, 
                (conv): Conv(
                  13.06 k, 0.426% Params, 5.22 MMac, 0.108% MACs, 
                  (conv): Conv2d(12.54 k, 0.409% Params, 5.02 MMac, 0.104% MACs, 256, 256, kernel_size=(7, 7), stride=(1, 1), padding=(3, 3), groups=256, bias=False)
                  (bn): BatchNorm2d(512, 0.017% Params, 204.8 KMac, 0.004% MACs, 256, eps=0.001, momentum=0.03, affine=True, track_running_stats=True)
                  (act): Identity(0, 0.000% Params, 0.0 Mac, 0.000% MACs, )
                )
                (conv1): Conv(
                  2.82 k, 0.092% Params, 1.13 MMac, 0.023% MACs, 
                  (conv): Conv2d(2.3 k, 0.075% Params, 921.6 KMac, 0.019% MACs, 256, 256, kernel_size=(3, 3), stride=(1, 1), padding=(1, 1), groups=256, bias=False)
                  (bn): BatchNorm2d(512, 0.017% Params, 204.8 KMac, 0.004% MACs, 256, eps=0.001, momentum=0.03, affine=True, track_running_stats=True)
                  (act): Identity(0, 0.000% Params, 0.0 Mac, 0.000% MACs, )
                )
                (act): SiLU(0, 0.000% Params, 0.0 Mac, 0.000% MACs, inplace=True)
              )
              (3): Conv(
                33.02 k, 1.077% Params, 13.21 MMac, 0.272% MACs, 
                (conv): Conv2d(32.77 k, 1.069% Params, 13.11 MMac, 0.270% MACs, 256, 128, kernel_size=(1, 1), stride=(1, 1), bias=False)
                (bn): BatchNorm2d(256, 0.008% Params, 102.4 KMac, 0.002% MACs, 128, eps=0.001, momentum=0.03, affine=True, track_running_stats=True)
                (act): SiLU(0, 0.000% Params, 0.0 Mac, 0.000% MACs, inplace=True)
              )
              (4): Conv(
                1.41 k, 0.046% Params, 563.2 KMac, 0.012% MACs, 
                (conv): Conv2d(1.15 k, 0.038% Params, 460.8 KMac, 0.010% MACs, 128, 128, kernel_size=(3, 3), stride=(1, 1), padding=(1, 1), groups=128, bias=False)
                (bn): BatchNorm2d(256, 0.008% Params, 102.4 KMac, 0.002% MACs, 128, eps=0.001, momentum=0.03, affine=True, track_running_stats=True)
                (act): SiLU(0, 0.000% Params, 0.0 Mac, 0.000% MACs, inplace=True)
              )
            )
          )
        )
      )
      (21): v10Detect(
        929.79 k, 30.333% Params, 1.89 GMac, 38.920% MACs, 
        (cv2): ModuleList(
          (0): Sequential(
            78.14 k, 2.549% Params, 500.12 MMac, 10.316% MACs, 
            (0): Conv(
              36.99 k, 1.207% Params, 236.75 MMac, 4.884% MACs, 
              (conv): Conv2d(36.86 k, 1.203% Params, 235.93 MMac, 4.867% MACs, 64, 64, kernel_size=(3, 3), stride=(1, 1), padding=(1, 1), bias=False)
              (bn): BatchNorm2d(128, 0.004% Params, 819.2 KMac, 0.017% MACs, 64, eps=0.001, momentum=0.03, affine=True, track_running_stats=True)
              (act): SiLU(0, 0.000% Params, 0.0 Mac, 0.000% MACs, inplace=True)
            )
            (1): Conv(
              36.99 k, 1.207% Params, 236.75 MMac, 4.884% MACs, 
              (conv): Conv2d(36.86 k, 1.203% Params, 235.93 MMac, 4.867% MACs, 64, 64, kernel_size=(3, 3), stride=(1, 1), padding=(1, 1), bias=False)
              (bn): BatchNorm2d(128, 0.004% Params, 819.2 KMac, 0.017% MACs, 64, eps=0.001, momentum=0.03, affine=True, track_running_stats=True)
              (act): SiLU(0, 0.000% Params, 0.0 Mac, 0.000% MACs, inplace=True)
            )
            (2): Conv2d(4.16 k, 0.136% Params, 26.62 MMac, 0.549% MACs, 64, 64, kernel_size=(1, 1), stride=(1, 1))
          )
          (1): Sequential(
            115.01 k, 3.752% Params, 184.01 MMac, 3.796% MACs, 
            (0): Conv(
              73.86 k, 2.409% Params, 118.17 MMac, 2.438% MACs, 
              (conv): Conv2d(73.73 k, 2.405% Params, 117.96 MMac, 2.433% MACs, 128, 64, kernel_size=(3, 3), stride=(1, 1), padding=(1, 1), bias=False)
              (bn): BatchNorm2d(128, 0.004% Params, 204.8 KMac, 0.004% MACs, 64, eps=0.001, momentum=0.03, affine=True, track_running_stats=True)
              (act): SiLU(0, 0.000% Params, 0.0 Mac, 0.000% MACs, inplace=True)
            )
            (1): Conv(
              36.99 k, 1.207% Params, 59.19 MMac, 1.221% MACs, 
              (conv): Conv2d(36.86 k, 1.203% Params, 58.98 MMac, 1.217% MACs, 64, 64, kernel_size=(3, 3), stride=(1, 1), padding=(1, 1), bias=False)
              (bn): BatchNorm2d(128, 0.004% Params, 204.8 KMac, 0.004% MACs, 64, eps=0.001, momentum=0.03, affine=True, track_running_stats=True)
              (act): SiLU(0, 0.000% Params, 0.0 Mac, 0.000% MACs, inplace=True)
            )
            (2): Conv2d(4.16 k, 0.136% Params, 6.66 MMac, 0.137% MACs, 64, 64, kernel_size=(1, 1), stride=(1, 1))
          )
          (2): Sequential(
            188.74 k, 6.157% Params, 75.49 MMac, 1.557% MACs, 
            (0): Conv(
              147.58 k, 4.815% Params, 59.03 MMac, 1.218% MACs, 
              (conv): Conv2d(147.46 k, 4.810% Params, 58.98 MMac, 1.217% MACs, 256, 64, kernel_size=(3, 3), stride=(1, 1), padding=(1, 1), bias=False)
              (bn): BatchNorm2d(128, 0.004% Params, 51.2 KMac, 0.001% MACs, 64, eps=0.001, momentum=0.03, affine=True, track_running_stats=True)
              (act): SiLU(0, 0.000% Params, 0.0 Mac, 0.000% MACs, inplace=True)
            )
            (1): Conv(
              36.99 k, 1.207% Params, 14.8 MMac, 0.305% MACs, 
              (conv): Conv2d(36.86 k, 1.203% Params, 14.75 MMac, 0.304% MACs, 64, 64, kernel_size=(3, 3), stride=(1, 1), padding=(1, 1), bias=False)
              (bn): BatchNorm2d(128, 0.004% Params, 51.2 KMac, 0.001% MACs, 64, eps=0.001, momentum=0.03, affine=True, track_running_stats=True)
              (act): SiLU(0, 0.000% Params, 0.0 Mac, 0.000% MACs, inplace=True)
            )
            (2): Conv2d(4.16 k, 0.136% Params, 1.66 MMac, 0.034% MACs, 64, 64, kernel_size=(1, 1), stride=(1, 1))
          )
        )
        (cv3): ModuleList(
          (0): Sequential(
            19.9 k, 0.649% Params, 127.39 MMac, 2.628% MACs, 
            (0): Sequential(
              5.98 k, 0.195% Params, 38.3 MMac, 0.790% MACs, 
              (0): Conv(
                704, 0.023% Params, 4.51 MMac, 0.093% MACs, 
                (conv): Conv2d(576, 0.019% Params, 3.69 MMac, 0.076% MACs, 64, 64, kernel_size=(3, 3), stride=(1, 1), padding=(1, 1), groups=64, bias=False)
                (bn): BatchNorm2d(128, 0.004% Params, 819.2 KMac, 0.017% MACs, 64, eps=0.001, momentum=0.03, affine=True, track_running_stats=True)
                (act): SiLU(0, 0.000% Params, 0.0 Mac, 0.000% MACs, inplace=True)
              )
              (1): Conv(
                5.28 k, 0.172% Params, 33.79 MMac, 0.697% MACs, 
                (conv): Conv2d(5.12 k, 0.167% Params, 32.77 MMac, 0.676% MACs, 64, 80, kernel_size=(1, 1), stride=(1, 1), bias=False)
                (bn): BatchNorm2d(160, 0.005% Params, 1.02 MMac, 0.021% MACs, 80, eps=0.001, momentum=0.03, affine=True, track_running_stats=True)
                (act): SiLU(0, 0.000% Params, 0.0 Mac, 0.000% MACs, inplace=True)
              )
            )
            (1): Sequential(
              7.44 k, 0.243% Params, 47.62 MMac, 0.982% MACs, 
              (0): Conv(
                880, 0.029% Params, 5.63 MMac, 0.116% MACs, 
                (conv): Conv2d(720, 0.023% Params, 4.61 MMac, 0.095% MACs, 80, 80, kernel_size=(3, 3), stride=(1, 1), padding=(1, 1), groups=80, bias=False)
                (bn): BatchNorm2d(160, 0.005% Params, 1.02 MMac, 0.021% MACs, 80, eps=0.001, momentum=0.03, affine=True, track_running_stats=True)
                (act): SiLU(0, 0.000% Params, 0.0 Mac, 0.000% MACs, inplace=True)
              )
              (1): Conv(
                6.56 k, 0.214% Params, 41.98 MMac, 0.866% MACs, 
                (conv): Conv2d(6.4 k, 0.209% Params, 40.96 MMac, 0.845% MACs, 80, 80, kernel_size=(1, 1), stride=(1, 1), bias=False)
                (bn): BatchNorm2d(160, 0.005% Params, 1.02 MMac, 0.021% MACs, 80, eps=0.001, momentum=0.03, affine=True, track_running_stats=True)
                (act): SiLU(0, 0.000% Params, 0.0 Mac, 0.000% MACs, inplace=True)
              )
            )
            (2): Conv2d(6.48 k, 0.211% Params, 41.47 MMac, 0.855% MACs, 80, 80, kernel_size=(1, 1), stride=(1, 1))
          )
          (1): Sequential(
            25.73 k, 0.839% Params, 41.16 MMac, 0.849% MACs, 
            (0): Sequential(
              11.81 k, 0.385% Params, 18.89 MMac, 0.390% MACs, 
              (0): Conv(
                1.41 k, 0.046% Params, 2.25 MMac, 0.046% MACs, 
                (conv): Conv2d(1.15 k, 0.038% Params, 1.84 MMac, 0.038% MACs, 128, 128, kernel_size=(3, 3), stride=(1, 1), padding=(1, 1), groups=128, bias=False)
                (bn): BatchNorm2d(256, 0.008% Params, 409.6 KMac, 0.008% MACs, 128, eps=0.001, momentum=0.03, affine=True, track_running_stats=True)
                (act): SiLU(0, 0.000% Params, 0.0 Mac, 0.000% MACs, inplace=True)
              )
              (1): Conv(
                10.4 k, 0.339% Params, 16.64 MMac, 0.343% MACs, 
                (conv): Conv2d(10.24 k, 0.334% Params, 16.38 MMac, 0.338% MACs, 128, 80, kernel_size=(1, 1), stride=(1, 1), bias=False)
                (bn): BatchNorm2d(160, 0.005% Params, 256.0 KMac, 0.005% MACs, 80, eps=0.001, momentum=0.03, affine=True, track_running_stats=True)
                (act): SiLU(0, 0.000% Params, 0.0 Mac, 0.000% MACs, inplace=True)
              )
            )
            (1): Sequential(
              7.44 k, 0.243% Params, 11.9 MMac, 0.246% MACs, 
              (0): Conv(
                880, 0.029% Params, 1.41 MMac, 0.029% MACs, 
                (conv): Conv2d(720, 0.023% Params, 1.15 MMac, 0.024% MACs, 80, 80, kernel_size=(3, 3), stride=(1, 1), padding=(1, 1), groups=80, bias=False)
                (bn): BatchNorm2d(160, 0.005% Params, 256.0 KMac, 0.005% MACs, 80, eps=0.001, momentum=0.03, affine=True, track_running_stats=True)
                (act): SiLU(0, 0.000% Params, 0.0 Mac, 0.000% MACs, inplace=True)
              )
              (1): Conv(
                6.56 k, 0.214% Params, 10.5 MMac, 0.217% MACs, 
                (conv): Conv2d(6.4 k, 0.209% Params, 10.24 MMac, 0.211% MACs, 80, 80, kernel_size=(1, 1), stride=(1, 1), bias=False)
                (bn): BatchNorm2d(160, 0.005% Params, 256.0 KMac, 0.005% MACs, 80, eps=0.001, momentum=0.03, affine=True, track_running_stats=True)
                (act): SiLU(0, 0.000% Params, 0.0 Mac, 0.000% MACs, inplace=True)
              )
            )
            (2): Conv2d(6.48 k, 0.211% Params, 10.37 MMac, 0.214% MACs, 80, 80, kernel_size=(1, 1), stride=(1, 1))
          )
          (2): Sequential(
            37.38 k, 1.219% Params, 14.95 MMac, 0.308% MACs, 
            (0): Sequential(
              23.46 k, 0.765% Params, 9.38 MMac, 0.194% MACs, 
              (0): Conv(
                2.82 k, 0.092% Params, 1.13 MMac, 0.023% MACs, 
                (conv): Conv2d(2.3 k, 0.075% Params, 921.6 KMac, 0.019% MACs, 256, 256, kernel_size=(3, 3), stride=(1, 1), padding=(1, 1), groups=256, bias=False)
                (bn): BatchNorm2d(512, 0.017% Params, 204.8 KMac, 0.004% MACs, 256, eps=0.001, momentum=0.03, affine=True, track_running_stats=True)
                (act): SiLU(0, 0.000% Params, 0.0 Mac, 0.000% MACs, inplace=True)
              )
              (1): Conv(
                20.64 k, 0.673% Params, 8.26 MMac, 0.170% MACs, 
                (conv): Conv2d(20.48 k, 0.668% Params, 8.19 MMac, 0.169% MACs, 256, 80, kernel_size=(1, 1), stride=(1, 1), bias=False)
                (bn): BatchNorm2d(160, 0.005% Params, 64.0 KMac, 0.001% MACs, 80, eps=0.001, momentum=0.03, affine=True, track_running_stats=True)
                (act): SiLU(0, 0.000% Params, 0.0 Mac, 0.000% MACs, inplace=True)
              )
            )
            (1): Sequential(
              7.44 k, 0.243% Params, 2.98 MMac, 0.061% MACs, 
              (0): Conv(
                880, 0.029% Params, 352.0 KMac, 0.007% MACs, 
                (conv): Conv2d(720, 0.023% Params, 288.0 KMac, 0.006% MACs, 80, 80, kernel_size=(3, 3), stride=(1, 1), padding=(1, 1), groups=80, bias=False)
                (bn): BatchNorm2d(160, 0.005% Params, 64.0 KMac, 0.001% MACs, 80, eps=0.001, momentum=0.03, affine=True, track_running_stats=True)
                (act): SiLU(0, 0.000% Params, 0.0 Mac, 0.000% MACs, inplace=True)
              )
              (1): Conv(
                6.56 k, 0.214% Params, 2.62 MMac, 0.054% MACs, 
                (conv): Conv2d(6.4 k, 0.209% Params, 2.56 MMac, 0.053% MACs, 80, 80, kernel_size=(1, 1), stride=(1, 1), bias=False)
                (bn): BatchNorm2d(160, 0.005% Params, 64.0 KMac, 0.001% MACs, 80, eps=0.001, momentum=0.03, affine=True, track_running_stats=True)
                (act): SiLU(0, 0.000% Params, 0.0 Mac, 0.000% MACs, inplace=True)
              )
            )
            (2): Conv2d(6.48 k, 0.211% Params, 2.59 MMac, 0.053% MACs, 80, 80, kernel_size=(1, 1), stride=(1, 1))
          )
        )
        (dfl): DFL(
          0, 0.000% Params, 537.6 KMac, 0.011% MACs, 
          (conv): Conv2d(0, 0.000% Params, 537.6 KMac, 0.011% MACs, 16, 1, kernel_size=(1, 1), stride=(1, 1), bias=False)
        )
        (one2one_cv2): ModuleList(
          (0): Sequential(
            78.14 k, 2.549% Params, 500.12 MMac, 10.316% MACs, 
            (0): Conv(
              36.99 k, 1.207% Params, 236.75 MMac, 4.884% MACs, 
              (conv): Conv2d(36.86 k, 1.203% Params, 235.93 MMac, 4.867% MACs, 64, 64, kernel_size=(3, 3), stride=(1, 1), padding=(1, 1), bias=False)
              (bn): BatchNorm2d(128, 0.004% Params, 819.2 KMac, 0.017% MACs, 64, eps=0.001, momentum=0.03, affine=True, track_running_stats=True)
              (act): SiLU(0, 0.000% Params, 0.0 Mac, 0.000% MACs, inplace=True)
            )
            (1): Conv(
              36.99 k, 1.207% Params, 236.75 MMac, 4.884% MACs, 
              (conv): Conv2d(36.86 k, 1.203% Params, 235.93 MMac, 4.867% MACs, 64, 64, kernel_size=(3, 3), stride=(1, 1), padding=(1, 1), bias=False)
              (bn): BatchNorm2d(128, 0.004% Params, 819.2 KMac, 0.017% MACs, 64, eps=0.001, momentum=0.03, affine=True, track_running_stats=True)
              (act): SiLU(0, 0.000% Params, 0.0 Mac, 0.000% MACs, inplace=True)
            )
            (2): Conv2d(4.16 k, 0.136% Params, 26.62 MMac, 0.549% MACs, 64, 64, kernel_size=(1, 1), stride=(1, 1))
          )
          (1): Sequential(
            115.01 k, 3.752% Params, 184.01 MMac, 3.796% MACs, 
            (0): Conv(
              73.86 k, 2.409% Params, 118.17 MMac, 2.438% MACs, 
              (conv): Conv2d(73.73 k, 2.405% Params, 117.96 MMac, 2.433% MACs, 128, 64, kernel_size=(3, 3), stride=(1, 1), padding=(1, 1), bias=False)
              (bn): BatchNorm2d(128, 0.004% Params, 204.8 KMac, 0.004% MACs, 64, eps=0.001, momentum=0.03, affine=True, track_running_stats=True)
              (act): SiLU(0, 0.000% Params, 0.0 Mac, 0.000% MACs, inplace=True)
            )
            (1): Conv(
              36.99 k, 1.207% Params, 59.19 MMac, 1.221% MACs, 
              (conv): Conv2d(36.86 k, 1.203% Params, 58.98 MMac, 1.217% MACs, 64, 64, kernel_size=(3, 3), stride=(1, 1), padding=(1, 1), bias=False)
              (bn): BatchNorm2d(128, 0.004% Params, 204.8 KMac, 0.004% MACs, 64, eps=0.001, momentum=0.03, affine=True, track_running_stats=True)
              (act): SiLU(0, 0.000% Params, 0.0 Mac, 0.000% MACs, inplace=True)
            )
            (2): Conv2d(4.16 k, 0.136% Params, 6.66 MMac, 0.137% MACs, 64, 64, kernel_size=(1, 1), stride=(1, 1))
          )
          (2): Sequential(
            188.74 k, 6.157% Params, 75.49 MMac, 1.557% MACs, 
            (0): Conv(
              147.58 k, 4.815% Params, 59.03 MMac, 1.218% MACs, 
              (conv): Conv2d(147.46 k, 4.810% Params, 58.98 MMac, 1.217% MACs, 256, 64, kernel_size=(3, 3), stride=(1, 1), padding=(1, 1), bias=False)
              (bn): BatchNorm2d(128, 0.004% Params, 51.2 KMac, 0.001% MACs, 64, eps=0.001, momentum=0.03, affine=True, track_running_stats=True)
              (act): SiLU(0, 0.000% Params, 0.0 Mac, 0.000% MACs, inplace=True)
            )
            (1): Conv(
              36.99 k, 1.207% Params, 14.8 MMac, 0.305% MACs, 
              (conv): Conv2d(36.86 k, 1.203% Params, 14.75 MMac, 0.304% MACs, 64, 64, kernel_size=(3, 3), stride=(1, 1), padding=(1, 1), bias=False)
              (bn): BatchNorm2d(128, 0.004% Params, 51.2 KMac, 0.001% MACs, 64, eps=0.001, momentum=0.03, affine=True, track_running_stats=True)
              (act): SiLU(0, 0.000% Params, 0.0 Mac, 0.000% MACs, inplace=True)
            )
            (2): Conv2d(4.16 k, 0.136% Params, 1.66 MMac, 0.034% MACs, 64, 64, kernel_size=(1, 1), stride=(1, 1))
          )
        )
        (one2one_cv3): ModuleList(
          (0): Sequential(
            19.9 k, 0.649% Params, 127.39 MMac, 2.628% MACs, 
            (0): Sequential(
              5.98 k, 0.195% Params, 38.3 MMac, 0.790% MACs, 
              (0): Conv(
                704, 0.023% Params, 4.51 MMac, 0.093% MACs, 
                (conv): Conv2d(576, 0.019% Params, 3.69 MMac, 0.076% MACs, 64, 64, kernel_size=(3, 3), stride=(1, 1), padding=(1, 1), groups=64, bias=False)
                (bn): BatchNorm2d(128, 0.004% Params, 819.2 KMac, 0.017% MACs, 64, eps=0.001, momentum=0.03, affine=True, track_running_stats=True)
                (act): SiLU(0, 0.000% Params, 0.0 Mac, 0.000% MACs, inplace=True)
              )
              (1): Conv(
                5.28 k, 0.172% Params, 33.79 MMac, 0.697% MACs, 
                (conv): Conv2d(5.12 k, 0.167% Params, 32.77 MMac, 0.676% MACs, 64, 80, kernel_size=(1, 1), stride=(1, 1), bias=False)
                (bn): BatchNorm2d(160, 0.005% Params, 1.02 MMac, 0.021% MACs, 80, eps=0.001, momentum=0.03, affine=True, track_running_stats=True)
                (act): SiLU(0, 0.000% Params, 0.0 Mac, 0.000% MACs, inplace=True)
              )
            )
            (1): Sequential(
              7.44 k, 0.243% Params, 47.62 MMac, 0.982% MACs, 
              (0): Conv(
                880, 0.029% Params, 5.63 MMac, 0.116% MACs, 
                (conv): Conv2d(720, 0.023% Params, 4.61 MMac, 0.095% MACs, 80, 80, kernel_size=(3, 3), stride=(1, 1), padding=(1, 1), groups=80, bias=False)
                (bn): BatchNorm2d(160, 0.005% Params, 1.02 MMac, 0.021% MACs, 80, eps=0.001, momentum=0.03, affine=True, track_running_stats=True)
                (act): SiLU(0, 0.000% Params, 0.0 Mac, 0.000% MACs, inplace=True)
              )
              (1): Conv(
                6.56 k, 0.214% Params, 41.98 MMac, 0.866% MACs, 
                (conv): Conv2d(6.4 k, 0.209% Params, 40.96 MMac, 0.845% MACs, 80, 80, kernel_size=(1, 1), stride=(1, 1), bias=False)
                (bn): BatchNorm2d(160, 0.005% Params, 1.02 MMac, 0.021% MACs, 80, eps=0.001, momentum=0.03, affine=True, track_running_stats=True)
                (act): SiLU(0, 0.000% Params, 0.0 Mac, 0.000% MACs, inplace=True)
              )
            )
            (2): Conv2d(6.48 k, 0.211% Params, 41.47 MMac, 0.855% MACs, 80, 80, kernel_size=(1, 1), stride=(1, 1))
          )
          (1): Sequential(
            25.73 k, 0.839% Params, 41.16 MMac, 0.849% MACs, 
            (0): Sequential(
              11.81 k, 0.385% Params, 18.89 MMac, 0.390% MACs, 
              (0): Conv(
                1.41 k, 0.046% Params, 2.25 MMac, 0.046% MACs, 
                (conv): Conv2d(1.15 k, 0.038% Params, 1.84 MMac, 0.038% MACs, 128, 128, kernel_size=(3, 3), stride=(1, 1), padding=(1, 1), groups=128, bias=False)
                (bn): BatchNorm2d(256, 0.008% Params, 409.6 KMac, 0.008% MACs, 128, eps=0.001, momentum=0.03, affine=True, track_running_stats=True)
                (act): SiLU(0, 0.000% Params, 0.0 Mac, 0.000% MACs, inplace=True)
              )
              (1): Conv(
                10.4 k, 0.339% Params, 16.64 MMac, 0.343% MACs, 
                (conv): Conv2d(10.24 k, 0.334% Params, 16.38 MMac, 0.338% MACs, 128, 80, kernel_size=(1, 1), stride=(1, 1), bias=False)
                (bn): BatchNorm2d(160, 0.005% Params, 256.0 KMac, 0.005% MACs, 80, eps=0.001, momentum=0.03, affine=True, track_running_stats=True)
                (act): SiLU(0, 0.000% Params, 0.0 Mac, 0.000% MACs, inplace=True)
              )
            )
            (1): Sequential(
              7.44 k, 0.243% Params, 11.9 MMac, 0.246% MACs, 
              (0): Conv(
                880, 0.029% Params, 1.41 MMac, 0.029% MACs, 
                (conv): Conv2d(720, 0.023% Params, 1.15 MMac, 0.024% MACs, 80, 80, kernel_size=(3, 3), stride=(1, 1), padding=(1, 1), groups=80, bias=False)
                (bn): BatchNorm2d(160, 0.005% Params, 256.0 KMac, 0.005% MACs, 80, eps=0.001, momentum=0.03, affine=True, track_running_stats=True)
                (act): SiLU(0, 0.000% Params, 0.0 Mac, 0.000% MACs, inplace=True)
              )
              (1): Conv(
                6.56 k, 0.214% Params, 10.5 MMac, 0.217% MACs, 
                (conv): Conv2d(6.4 k, 0.209% Params, 10.24 MMac, 0.211% MACs, 80, 80, kernel_size=(1, 1), stride=(1, 1), bias=False)
                (bn): BatchNorm2d(160, 0.005% Params, 256.0 KMac, 0.005% MACs, 80, eps=0.001, momentum=0.03, affine=True, track_running_stats=True)
                (act): SiLU(0, 0.000% Params, 0.0 Mac, 0.000% MACs, inplace=True)
              )
            )
            (2): Conv2d(6.48 k, 0.211% Params, 10.37 MMac, 0.214% MACs, 80, 80, kernel_size=(1, 1), stride=(1, 1))
          )
          (2): Sequential(
            37.38 k, 1.219% Params, 14.95 MMac, 0.308% MACs, 
            (0): Sequential(
              23.46 k, 0.765% Params, 9.38 MMac, 0.194% MACs, 
              (0): Conv(
                2.82 k, 0.092% Params, 1.13 MMac, 0.023% MACs, 
                (conv): Conv2d(2.3 k, 0.075% Params, 921.6 KMac, 0.019% MACs, 256, 256, kernel_size=(3, 3), stride=(1, 1), padding=(1, 1), groups=256, bias=False)
                (bn): BatchNorm2d(512, 0.017% Params, 204.8 KMac, 0.004% MACs, 256, eps=0.001, momentum=0.03, affine=True, track_running_stats=True)
                (act): SiLU(0, 0.000% Params, 0.0 Mac, 0.000% MACs, inplace=True)
              )
              (1): Conv(
                20.64 k, 0.673% Params, 8.26 MMac, 0.170% MACs, 
                (conv): Conv2d(20.48 k, 0.668% Params, 8.19 MMac, 0.169% MACs, 256, 80, kernel_size=(1, 1), stride=(1, 1), bias=False)
                (bn): BatchNorm2d(160, 0.005% Params, 64.0 KMac, 0.001% MACs, 80, eps=0.001, momentum=0.03, affine=True, track_running_stats=True)
                (act): SiLU(0, 0.000% Params, 0.0 Mac, 0.000% MACs, inplace=True)
              )
            )
            (1): Sequential(
              7.44 k, 0.243% Params, 2.98 MMac, 0.061% MACs, 
              (0): Conv(
                880, 0.029% Params, 352.0 KMac, 0.007% MACs, 
                (conv): Conv2d(720, 0.023% Params, 288.0 KMac, 0.006% MACs, 80, 80, kernel_size=(3, 3), stride=(1, 1), padding=(1, 1), groups=80, bias=False)
                (bn): BatchNorm2d(160, 0.005% Params, 64.0 KMac, 0.001% MACs, 80, eps=0.001, momentum=0.03, affine=True, track_running_stats=True)
                (act): SiLU(0, 0.000% Params, 0.0 Mac, 0.000% MACs, inplace=True)
              )
              (1): Conv(
                6.56 k, 0.214% Params, 2.62 MMac, 0.054% MACs, 
                (conv): Conv2d(6.4 k, 0.209% Params, 2.56 MMac, 0.053% MACs, 80, 80, kernel_size=(1, 1), stride=(1, 1), bias=False)
                (bn): BatchNorm2d(160, 0.005% Params, 64.0 KMac, 0.001% MACs, 80, eps=0.001, momentum=0.03, affine=True, track_running_stats=True)
                (act): SiLU(0, 0.000% Params, 0.0 Mac, 0.000% MACs, inplace=True)
              )
            )
            (2): Conv2d(6.48 k, 0.211% Params, 2.59 MMac, 0.053% MACs, 80, 80, kernel_size=(1, 1), stride=(1, 1))
          )
        )
      )
    )
  )
)
FLOPs: 4.85 GMac, Params: 3.07 M
[rank0]:[W709 16:58:02.515030563 reducer.cpp:1430] Warning: find_unused_parameters=True was specified in DDP constructor, but did not find any unused parameters in the forward pass. This flag results in an extra traversal of the autogr
…
