…
Warning: module SPPF is treated as a zero-op.
Warning: module Concat is treated as a zero-op.
Warning: module DFL is treated as a zero-op.
Warning: module Detect is treated as a zero-op.
Warning: module DetectionModel is treated as a zero-op.
Warning: module DistributedDataParallel is treated as a zero-op.
DistributedDataParallel(
  11.17 M, 100.000% Params, 14.36 GMac, 99.799% MACs, 
  (module): DetectionModel(
    11.17 M, 100.000% Params, 14.36 GMac, 99.799% MACs, 
    (model): Sequential(
      11.17 M, 100.000% Params, 14.36 GMac, 99.799% MACs, 
      (0): Conv(
        928, 0.008% Params, 95.03 MMac, 0.661% MACs, 
        (conv): Conv2d(864, 0.008% Params, 88.47 MMac, 0.615% MACs, 3, 32, kernel_size=(3, 3), stride=(2, 2), padding=(1, 1), bias=False)
        (bn): BatchNorm2d(64, 0.001% Params, 6.55 MMac, 0.046% MACs, 32, eps=0.001, momentum=0.03, affine=True, track_running_stats=True)
        (act): SiLU(0, 0.000% Params, 0.0 Mac, 0.000% MACs, inplace=True)
      )
      (1): Conv(
        18.56 k, 0.166% Params, 475.14 MMac, 3.303% MACs, 
        (conv): Conv2d(18.43 k, 0.165% Params, 471.86 MMac, 3.280% MACs, 32, 64, kernel_size=(3, 3), stride=(2, 2), padding=(1, 1), bias=False)
        (bn): BatchNorm2d(128, 0.001% Params, 3.28 MMac, 0.023% MACs, 64, eps=0.001, momentum=0.03, affine=True, track_running_stats=True)
        (act): SiLU(0, 0.000% Params, 0.0 Mac, 0.000% MACs, inplace=True)
      )
      (2): C2f(
        29.06 k, 0.260% Params, 743.83 MMac, 5.170% MACs, 
        (cv1): Conv(
          4.22 k, 0.038% Params, 108.13 MMac, 0.752% MACs, 
          (conv): Conv2d(4.1 k, 0.037% Params, 104.86 MMac, 0.729% MACs, 64, 64, kernel_size=(1, 1), stride=(1, 1), bias=False)
          (bn): BatchNorm2d(128, 0.001% Params, 3.28 MMac, 0.023% MACs, 64, eps=0.001, momentum=0.03, affine=True, track_running_stats=True)
          (act): SiLU(0, 0.000% Params, 0.0 Mac, 0.000% MACs, inplace=True)
        )
        (cv2): Conv(
          6.27 k, 0.056% Params, 160.56 MMac, 1.116% MACs, 
          (conv): Conv2d(6.14 k, 0.055% Params, 157.29 MMac, 1.093% MACs, 96, 64, kernel_size=(1, 1), stride=(1, 1), bias=False)
          (bn): BatchNorm2d(128, 0.001% Params, 3.28 MMac, 0.023% MACs, 64, eps=0.001, momentum=0.03, affine=True, track_running_stats=True)
          (act): SiLU(0, 0.000% Params, 0.0 Mac, 0.000% MACs, inplace=True)
        )
        (m): ModuleList(
          (0): Bottleneck(
            18.56 k, 0.166% Params, 475.14 MMac, 3.303% MACs, 
            (cv1): Conv(
              9.28 k, 0.083% Params, 237.57 MMac, 1.651% MACs, 
              (conv): Conv2d(9.22 k, 0.083% Params, 235.93 MMac, 1.640% MACs, 32, 32, kernel_size=(3, 3), stride=(1, 1), padding=(1, 1), bias=False)
              (bn): BatchNorm2d(64, 0.001% Params, 1.64 MMac, 0.011% MACs, 32, eps=0.001, momentum=0.03, affine=True, track_running_stats=True)
              (act): SiLU(0, 0.000% Params, 0.0 Mac, 0.000% MACs, inplace=True)
            )
            (cv2): Conv(
              9.28 k, 0.083% Params, 237.57 MMac, 1.651% MACs, 
              (conv): Conv2d(9.22 k, 0.083% Params, 235.93 MMac, 1.640% MACs, 32, 32, kernel_size=(3, 3), stride=(1, 1), padding=(1, 1), bias=False)
              (bn): BatchNorm2d(64, 0.001% Params, 1.64 MMac, 0.011% MACs, 32, eps=0.001, momentum=0.03, affine=True, track_running_stats=True)
              (act): SiLU(0, 0.000% Params, 0.0 Mac, 0.000% MACs, inplace=True)
            )
          )
        )
      )
      (3): Conv(
        73.98 k, 0.663% Params, 473.5 MMac, 3.291% MACs, 
        (conv): Conv2d(73.73 k, 0.660% Params, 471.86 MMac, 3.280% MACs, 64, 128, kernel_size=(3, 3), stride=(2, 2), padding=(1, 1), bias=False)
        (bn): BatchNorm2d(256, 0.002% Params, 1.64 MMac, 0.011% MACs, 128, eps=0.001, momentum=0.03, affine=True, track_running_stats=True)
        (act): SiLU(0, 0.000% Params, 0.0 Mac, 0.000% MACs, inplace=True)
      )
      (4): C2f(
        197.63 k, 1.770% Params, 1.26 GMac, 8.792% MACs, 
        (cv1): Conv(
          16.64 k, 0.149% Params, 106.5 MMac, 0.740% MACs, 
          (conv): Conv2d(16.38 k, 0.147% Params, 104.86 MMac, 0.729% MACs, 128, 128, kernel_size=(1, 1), stride=(1, 1), bias=False)
          (bn): BatchNorm2d(256, 0.002% Params, 1.64 MMac, 0.011% MACs, 128, eps=0.001, momentum=0.03, affine=True, track_running_stats=True)
          (act): SiLU(0, 0.000% Params, 0.0 Mac, 0.000% MACs, inplace=True)
        )
        (cv2): Conv(
          33.02 k, 0.296% Params, 211.35 MMac, 1.469% MACs, 
          (conv): Conv2d(32.77 k, 0.293% Params, 209.72 MMac, 1.458% MACs, 256, 128, kernel_size=(1, 1), stride=(1, 1), bias=False)
          (bn): BatchNorm2d(256, 0.002% Params, 1.64 MMac, 0.011% MACs, 128, eps=0.001, momentum=0.03, affine=True, track_running_stats=True)
          (act): SiLU(0, 0.000% Params, 0.0 Mac, 0.000% MACs, inplace=True)
        )
        (m): ModuleList(
          (0-1): 2 x Bottleneck(
            73.98 k, 0.663% Params, 473.5 MMac, 3.291% MACs, 
            (cv1): Conv(
              36.99 k, 0.331% Params, 236.75 MMac, 1.646% MACs, 
              (conv): Conv2d(36.86 k, 0.330% Params, 235.93 MMac, 1.640% MACs, 64, 64, kernel_size=(3, 3), stride=(1, 1), padding=(1, 1), bias=False)
              (bn): BatchNorm2d(128, 0.001% Params, 819.2 KMac, 0.006% MACs, 64, eps=0.001, momentum=0.03, affine=True, track_running_stats=True)
              (act): SiLU(0, 0.000% Params, 0.0 Mac, 0.000% MACs, inplace=True)
            )
            (cv2): Conv(
              36.99 k, 0.331% Params, 236.75 MMac, 1.646% MACs, 
              (conv): Conv2d(36.86 k, 0.330% Params, 235.93 MMac, 1.640% MACs, 64, 64, kernel_size=(3, 3), stride=(1, 1), padding=(1, 1), bias=False)
              (bn): BatchNorm2d(128, 0.001% Params, 819.2 KMac, 0.006% MACs, 64, eps=0.001, momentum=0.03, affine=True, track_running_stats=True)
              (act): SiLU(0, 0.000% Params, 0.0 Mac, 0.000% MACs, inplace=True)
            )
          )
        )
      )
      (5): Conv(
        295.42 k, 2.646% Params, 472.68 MMac, 3.286% MACs, 
        (conv): Conv2d(294.91 k, 2.641% Params, 471.86 MMac, 3.280% MACs, 128, 256, kernel_size=(3, 3), stride=(2, 2), padding=(1, 1), bias=False)
        (bn): BatchNorm2d(512, 0.005% Params, 819.2 KMac, 0.006% MACs, 256, eps=0.001, momentum=0.03, affine=True, track_running_stats=True)
        (act): SiLU(0, 0.000% Params, 0.0 Mac, 0.000% MACs, inplace=True)
      )
      (6): C2f(
        788.48 k, 7.061% Params, 1.26 GMac, 8.769% MACs, 
        (cv1): Conv(
          66.05 k, 0.591% Params, 105.68 MMac, 0.735% MACs, 
          (conv): Conv2d(65.54 k, 0.587% Params, 104.86 MMac, 0.729% MACs, 256, 256, kernel_size=(1, 1), stride=(1, 1), bias=False)
          (bn): BatchNorm2d(512, 0.005% Params, 819.2 KMac, 0.006% MACs, 256, eps=0.001, momentum=0.03, affine=True, track_running_stats=True)
          (act): SiLU(0, 0.000% Params, 0.0 Mac, 0.000% MACs, inplace=True)
        )
        (cv2): Conv(
          131.58 k, 1.178% Params, 210.53 MMac, 1.463% MACs, 
          (conv): Conv2d(131.07 k, 1.174% Params, 209.72 MMac, 1.458% MACs, 512, 256, kernel_size=(1, 1), stride=(1, 1), bias=False)
          (bn): BatchNorm2d(512, 0.005% Params, 819.2 KMac, 0.006% MACs, 256, eps=0.001, momentum=0.03, affine=True, track_running_stats=True)
          (act): SiLU(0, 0.000% Params, 0.0 Mac, 0.000% MACs, inplace=True)
        )
        (m): ModuleList(
          (0-1): 2 x Bottleneck(
            295.42 k, 2.646% Params, 472.68 MMac, 3.286% MACs, 
            (cv1): Conv(
              147.71 k, 1.323% Params, 236.34 MMac, 1.643% MACs, 
              (conv): Conv2d(147.46 k, 1.321% Params, 235.93 MMac, 1.640% MACs, 128, 128, kernel_size=(3, 3), stride=(1, 1), padding=(1, 1), bias=False)
              (bn): BatchNorm2d(256, 0.002% Params, 409.6 KMac, 0.003% MACs, 128, eps=0.001, momentum=0.03, affine=True, track_running_stats=True)
              (act): SiLU(0, 0.000% Params, 0.0 Mac, 0.000% MACs, inplace=True)
            )
            (cv2): Conv(
              147.71 k, 1.323% Params, 236.34 MMac, 1.643% MACs, 
              (conv): Conv2d(147.46 k, 1.321% Params, 235.93 MMac, 1.640% MACs, 128, 128, kernel_size=(3, 3), stride=(1, 1), padding=(1, 1), bias=False)
              (bn): BatchNorm2d(256, 0.002% Params, 409.6 KMac, 0.003% MACs, 128, eps=0.001, momentum=0.03, affine=True, track_running_stats=True)
              (act): SiLU(0, 0.000% Params, 0.0 Mac, 0.000% MACs, inplace=True)
            )
          )
        )
      )
      (7): Conv(
        1.18 M, 10.573% Params, 472.27 MMac, 3.283% MACs, 
        (conv): Conv2d(1.18 M, 10.564% Params, 471.86 MMac, 3.280% MACs, 256, 512, kernel_size=(3, 3), stride=(2, 2), padding=(1, 1), bias=False)
        (bn): BatchNorm2d(1.02 k, 0.009% Params, 409.6 KMac, 0.003% MACs, 512, eps=0.001, momentum=0.03, affine=True, track_running_stats=True)
        (act): SiLU(0, 0.000% Params, 0.0 Mac, 0.000% MACs, inplace=True)
      )
      (8): C2f(
        1.84 M, 16.461% Params, 735.23 MMac, 5.111% MACs, 
        (cv1): Conv(
          263.17 k, 2.357% Params, 105.27 MMac, 0.732% MACs, 
          (conv): Conv2d(262.14 k, 2.348% Params, 104.86 MMac, 0.729% MACs, 512, 512, kernel_size=(1, 1), stride=(1, 1), bias=False)
          (bn): BatchNorm2d(1.02 k, 0.009% Params, 409.6 KMac, 0.003% MACs, 512, eps=0.001, momentum=0.03, affine=True, track_running_stats=True)
          (act): SiLU(0, 0.000% Params, 0.0 Mac, 0.000% MACs, inplace=True)
        )
        (cv2): Conv(
          394.24 k, 3.531% Params, 157.7 MMac, 1.096% MACs, 
          (conv): Conv2d(393.22 k, 3.521% Params, 157.29 MMac, 1.093% MACs, 768, 512, kernel_size=(1, 1), stride=(1, 1), bias=False)
          (bn): BatchNorm2d(1.02 k, 0.009% Params, 409.6 KMac, 0.003% MACs, 512, eps=0.001, momentum=0.03, affine=True, track_running_stats=True)
          (act): SiLU(0, 0.000% Params, 0.0 Mac, 0.000% MACs, inplace=True)
        )
        (m): ModuleList(
          (0): Bottleneck(
            1.18 M, 10.573% Params, 472.27 MMac, 3.283% MACs, 
            (cv1): Conv(
              590.34 k, 5.287% Params, 236.13 MMac, 1.641% MACs, 
              (conv): Conv2d(589.82 k, 5.282% Params, 235.93 MMac, 1.640% MACs, 256, 256, kernel_size=(3, 3), stride=(1, 1), padding=(1, 1), bias=False)
              (bn): BatchNorm2d(512, 0.005% Params, 204.8 KMac, 0.001% MACs, 256, eps=0.001, momentum=0.03, affine=True, track_running_stats=True)
              (act): SiLU(0, 0.000% Params, 0.0 Mac, 0.000% MACs, inplace=True)
            )
            (cv2): Conv(
              590.34 k, 5.287% Params, 236.13 MMac, 1.641% MACs, 
              (conv): Conv2d(589.82 k, 5.282% Params, 235.93 MMac, 1.640% MACs, 256, 256, kernel_size=(3, 3), stride=(1, 1), padding=(1, 1), bias=False)
              (bn): BatchNorm2d(512, 0.005% Params, 204.8 KMac, 0.001% MACs, 256, eps=0.001, momentum=0.03, affine=True, track_running_stats=True)
              (act): SiLU(0, 0.000% Params, 0.0 Mac, 0.000% MACs, inplace=True)
            )
          )
        )
      )
      (9): SPPF(
        656.9 k, 5.883% Params, 263.07 MMac, 1.829% MACs, 
        (cv1): Conv(
          131.58 k, 1.178% Params, 52.63 MMac, 0.366% MACs, 
          (conv): Conv2d(131.07 k, 1.174% Params, 52.43 MMac, 0.364% MACs, 512, 256, kernel_size=(1, 1), stride=(1, 1), bias=False)
          (bn): BatchNorm2d(512, 0.005% Params, 204.8 KMac, 0.001% MACs, 256, eps=0.001, momentum=0.03, affine=True, track_running_stats=True)
          (act): SiLU(0, 0.000% Params, 0.0 Mac, 0.000% MACs, inplace=True)
        )
        (cv2): Conv(
          525.31 k, 4.704% Params, 210.12 MMac, 1.461% MACs, 
          (conv): Conv2d(524.29 k, 4.695% Params, 209.72 MMac, 1.458% MACs, 1024, 512, kernel_size=(1, 1), stride=(1, 1), bias=False)
          (bn): BatchNorm2d(1.02 k, 0.009% Params, 409.6 KMac, 0.003% MACs, 512, eps=0.001, momentum=0.03, affine=True, track_running_stats=True)
          (act): SiLU(0, 0.000% Params, 0.0 Mac, 0.000% MACs, inplace=True)
        )
        (m): MaxPool2d(0, 0.000% Params, 307.2 KMac, 0.002% MACs, kernel_size=5, stride=1, padding=2, dilation=1, ceil_mode=False)
      )
      (10): Upsample(0, 0.000% Params, 819.2 KMac, 0.006% MACs, scale_factor=2.0, mode='nearest')
      (11): Concat(0, 0.000% Params, 0.0 Mac, 0.000% MACs, )
      (12): C2f(
        591.36 k, 5.296% Params, 946.18 MMac, 6.577% MACs, 
        (cv1): Conv(
          197.12 k, 1.765% Params, 315.39 MMac, 2.192% MACs, 
          (conv): Conv2d(196.61 k, 1.761% Params, 314.57 MMac, 2.187% MACs, 768, 256, kernel_size=(1, 1), stride=(1, 1), bias=False)
          (bn): BatchNorm2d(512, 0.005% Params, 819.2 KMac, 0.006% MACs, 256, eps=0.001, momentum=0.03, affine=True, track_running_stats=True)
          (act): SiLU(0, 0.000% Params, 0.0 Mac, 0.000% MACs, inplace=True)
        )
        (cv2): Conv(
          98.82 k, 0.885% Params, 158.11 MMac, 1.099% MACs, 
          (conv): Conv2d(98.3 k, 0.880% Params, 157.29 MMac, 1.093% MACs, 384, 256, kernel_size=(1, 1), stride=(1, 1), bias=False)
          (bn): BatchNorm2d(512, 0.005% Params, 819.2 KMac, 0.006% MACs, 256, eps=0.001, momentum=0.03, affine=True, track_running_stats=True)
          (act): SiLU(0, 0.000% Params, 0.0 Mac, 0.000% MACs, inplace=True)
        )
        (m): ModuleList(
          (0): Bottleneck(
            295.42 k, 2.646% Params, 472.68 MMac, 3.286% MACs, 
            (cv1): Conv(
              147.71 k, 1.323% Params, 236.34 MMac, 1.643% MACs, 
              (conv): Conv2d(147.46 k, 1.321% Params, 235.93 MMac, 1.640% MACs, 128, 128, kernel_size=(3, 3), stride=(1, 1), padding=(1, 1), bias=False)
              (bn): BatchNorm2d(256, 0.002% Params, 409.6 KMac, 0.003% MACs, 128, eps=0.001, momentum=0.03, affine=True, track_running_stats=True)
              (act): SiLU(0, 0.000% Params, 0.0 Mac, 0.000% MACs, inplace=True)
            )
            (cv2): Conv(
              147.71 k, 1.323% Params, 236.34 MMac, 1.643% MACs, 
              (conv): Conv2d(147.46 k, 1.321% Params, 235.93 MMac, 1.640% MACs, 128, 128, kernel_size=(3, 3), stride=(1, 1), padding=(1, 1), bias=False)
              (bn): BatchNorm2d(256, 0.002% Params, 409.6 KMac, 0.003% MACs, 128, eps=0.001, momentum=0.03, affine=True, track_running_stats=True)
              (act): SiLU(0, 0.000% Params, 0.0 Mac, 0.000% MACs, inplace=True)
            )
          )
        )
      )
      (13): Upsample(0, 0.000% Params, 1.64 MMac, 0.011% MACs, scale_factor=2.0, mode='nearest')
      (14): Concat(0, 0.000% Params, 0.0 Mac, 0.000% MACs, )
      (15): C2f(
        148.22 k, 1.327% Params, 948.63 MMac, 6.594% MACs, 
        (cv1): Conv(
          49.41 k, 0.442% Params, 316.21 MMac, 2.198% MACs, 
          (conv): Conv2d(49.15 k, 0.440% Params, 314.57 MMac, 2.187% MACs, 384, 128, kernel_size=(1, 1), stride=(1, 1), bias=False)
          (bn): BatchNorm2d(256, 0.002% Params, 1.64 MMac, 0.011% MACs, 128, eps=0.001, momentum=0.03, affine=True, track_running_stats=True)
          (act): SiLU(0, 0.000% Params, 0.0 Mac, 0.000% MACs, inplace=True)
        )
        (cv2): Conv(
          24.83 k, 0.222% Params, 158.92 MMac, 1.105% MACs, 
          (conv): Conv2d(24.58 k, 0.220% Params, 157.29 MMac, 1.093% MACs, 192, 128, kernel_size=(1, 1), stride=(1, 1), bias=False)
          (bn): BatchNorm2d(256, 0.002% Params, 1.64 MMac, 0.011% MACs, 128, eps=0.001, momentum=0.03, affine=True, track_running_stats=True)
          (act): SiLU(0, 0.000% Params, 0.0 Mac, 0.000% MACs, inplace=True)
        )
        (m): ModuleList(
          (0): Bottleneck(
            73.98 k, 0.663% Params, 473.5 MMac, 3.291% MACs, 
            (cv1): Conv(
              36.99 k, 0.331% Params, 236.75 MMac, 1.646% MACs, 
              (conv): Conv2d(36.86 k, 0.330% Params, 235.93 MMac, 1.640% MACs, 64, 64, kernel_size=(3, 3), stride=(1, 1), padding=(1, 1), bias=False)
              (bn): BatchNorm2d(128, 0.001% Params, 819.2 KMac, 0.006% MACs, 64, eps=0.001, momentum=0.03, affine=True, track_running_stats=True)
              (act): SiLU(0, 0.000% Params, 0.0 Mac, 0.000% MACs, inplace=True)
            )
            (cv2): Conv(
              36.99 k, 0.331% Params, 236.75 MMac, 1.646% MACs, 
              (conv): Conv2d(36.86 k, 0.330% Params, 235.93 MMac, 1.640% MACs, 64, 64, kernel_size=(3, 3), stride=(1, 1), padding=(1, 1), bias=False)
              (bn): BatchNorm2d(128, 0.001% Params, 819.2 KMac, 0.006% MACs, 64, eps=0.001, momentum=0.03, affine=True, track_running_stats=True)
              (act): SiLU(0, 0.000% Params, 0.0 Mac, 0.000% MACs, inplace=True)
            )
          )
        )
      )
      (16): Conv(
        147.71 k, 1.323% Params, 236.34 MMac, 1.643% MACs, 
        (conv): Conv2d(147.46 k, 1.321% Params, 235.93 MMac, 1.640% MACs, 128, 128, kernel_size=(3, 3), stride=(2, 2), padding=(1, 1), bias=False)
        (bn): BatchNorm2d(256, 0.002% Params, 409.6 KMac, 0.003% MACs, 128, eps=0.001, momentum=0.03, affine=True, track_running_stats=True)
        (act): SiLU(0, 0.000% Params, 0.0 Mac, 0.000% MACs, inplace=True)
      )
      (17): Concat(0, 0.000% Params, 0.0 Mac, 0.000% MACs, )
      (18): C2f(
        493.06 k, 4.415% Params, 788.89 MMac, 5.484% MACs, 
        (cv1): Conv(
          98.82 k, 0.885% Params, 158.11 MMac, 1.099% MACs, 
          (conv): Conv2d(98.3 k, 0.880% Params, 157.29 MMac, 1.093% MACs, 384, 256, kernel_size=(1, 1), stride=(1, 1), bias=False)
          (bn): BatchNorm2d(512, 0.005% Params, 819.2 KMac, 0.006% MACs, 256, eps=0.001, momentum=0.03, affine=True, track_running_stats=True)
          (act): SiLU(0, 0.000% Params, 0.0 Mac, 0.000% MACs, inplace=True)
        )
        (cv2): Conv(
          98.82 k, 0.885% Params, 158.11 MMac, 1.099% MACs, 
          (conv): Conv2d(98.3 k, 0.880% Params, 157.29 MMac, 1.093% MACs, 384, 256, kernel_size=(1, 1), stride=(1, 1), bias=False)
          (bn): BatchNorm2d(512, 0.005% Params, 819.2 KMac, 0.006% MACs, 256, eps=0.001, momentum=0.03, affine=True, track_running_stats=True)
          (act): SiLU(0, 0.000% Params, 0.0 Mac, 0.000% MACs, inplace=True)
        )
        (m): ModuleList(
          (0): Bottleneck(
            295.42 k, 2.646% Params, 472.68 MMac, 3.286% MACs, 
            (cv1): Conv(
              147.71 k, 1.323% Params, 236.34 MMac, 1.643% MACs, 
              (conv): Conv2d(147.46 k, 1.321% Params, 235.93 MMac, 1.640% MACs, 128, 128, kernel_size=(3, 3), stride=(1, 1), padding=(1, 1), bias=False)
              (bn): BatchNorm2d(256, 0.002% Params, 409.6 KMac, 0.003% MACs, 128, eps=0.001, momentum=0.03, affine=True, track_running_stats=True)
              (act): SiLU(0, 0.000% Params, 0.0 Mac, 0.000% MACs, inplace=True)
            )
            (cv2): Conv(
              147.71 k, 1.323% Params, 236.34 MMac, 1.643% MACs, 
              (conv): Conv2d(147.46 k, 1.321% Params, 235.93 MMac, 1.640% MACs, 128, 128, kernel_size=(3, 3), stride=(1, 1), padding=(1, 1), bias=False)
              (bn): BatchNorm2d(256, 0.002% Params, 409.6 KMac, 0.003% MACs, 128, eps=0.001, momentum=0.03, affine=True, track_running_stats=True)
              (act): SiLU(0, 0.000% Params, 0.0 Mac, 0.000% MACs, inplace=True)
            )
          )
        )
      )
      (19): Conv(
        590.34 k, 5.287% Params, 236.13 MMac, 1.641% MACs, 
        (conv): Conv2d(589.82 k, 5.282% Params, 235.93 MMac, 1.640% MACs, 256, 256, kernel_size=(3, 3), stride=(2, 2), padding=(1, 1), bias=False)
        (bn): BatchNorm2d(512, 0.005% Params, 204.8 KMac, 0.001% MACs, 256, eps=0.001, momentum=0.03, affine=True, track_running_stats=True)
        (act): SiLU(0, 0.000% Params, 0.0 Mac, 0.000% MACs, inplace=True)
      )
      (20): Concat(0, 0.000% Params, 0.0 Mac, 0.000% MACs, )
      (21): C2f(
        1.97 M, 17.634% Params, 787.66 MMac, 5.475% MACs, 
        (cv1): Conv(
          394.24 k, 3.531% Params, 157.7 MMac, 1.096% MACs, 
          (conv): Conv2d(393.22 k, 3.521% Params, 157.29 MMac, 1.093% MACs, 768, 512, kernel_size=(1, 1), stride=(1, 1), bias=False)
          (bn): BatchNorm2d(1.02 k, 0.009% Params, 409.6 KMac, 0.003% MACs, 512, eps=0.001, momentum=0.03, affine=True, track_running_stats=True)
          (act): SiLU(0, 0.000% Params, 0.0 Mac, 0.000% MACs, inplace=True)
        )
        (cv2): Conv(
          394.24 k, 3.531% Params, 157.7 MMac, 1.096% MACs, 
          (conv): Conv2d(393.22 k, 3.521% Params, 157.29 MMac, 1.093% MACs, 768, 512, kernel_size=(1, 1), stride=(1, 1), bias=False)
          (bn): BatchNorm2d(1.02 k, 0.009% Params, 409.6 KMac, 0.003% MACs, 512, eps=0.001, momentum=0.03, affine=True, track_running_stats=True)
          (act): SiLU(0, 0.000% Params, 0.0 Mac, 0.000% MACs, inplace=True)
        )
        (m): ModuleList(
          (0): Bottleneck(
            1.18 M, 10.573% Params, 472.27 MMac, 3.283% MACs, 
            (cv1): Conv(
              590.34 k, 5.287% Params, 236.13 MMac, 1.641% MACs, 
              (conv): Conv2d(589.82 k, 5.282% Params, 235.93 MMac, 1.640% MACs, 256, 256, kernel_size=(3, 3), stride=(1, 1), padding=(1, 1), bias=False)
              (bn): BatchNorm2d(512, 0.005% Params, 204.8 KMac, 0.001% MACs, 256, eps=0.001, momentum=0.03, affine=True, track_running_stats=True)
              (act): SiLU(0, 0.000% Params, 0.0 Mac, 0.000% MACs, inplace=True)
            )
            (cv2): Conv(
              590.34 k, 5.287% Params, 236.13 MMac, 1.641% MACs, 
              (conv): Conv2d(589.82 k, 5.282% Params, 235.93 MMac, 1.640% MACs, 256, 256, kernel_size=(3, 3), stride=(1, 1), padding=(1, 1), bias=False)
              (bn): BatchNorm2d(512, 0.005% Params, 204.8 KMac, 0.001% MACs, 256, eps=0.001, momentum=0.03, affine=True, track_running_stats=True)
              (act): SiLU(0, 0.000% Params, 0.0 Mac, 0.000% MACs, inplace=True)
            )
          )
        )
      )
      (22): Detect(
        2.15 M, 19.227% Params, 4.15 GMac, 28.875% MACs, 
        (cv2): ModuleList(
          (0): Sequential(
            115.01 k, 1.030% Params, 736.05 MMac, 5.116% MACs, 
            (0): Conv(
              73.86 k, 0.661% Params, 472.68 MMac, 3.286% MACs, 
              (conv): Conv2d(73.73 k, 0.660% Params, 471.86 MMac, 3.280% MACs, 128, 64, kernel_size=(3, 3), stride=(1, 1), padding=(1, 1), bias=False)
              (bn): BatchNorm2d(128, 0.001% Params, 819.2 KMac, 0.006% MACs, 64, eps=0.001, momentum=0.03, affine=True, track_running_stats=True)
              (act): SiLU(0, 0.000% Params, 0.0 Mac, 0.000% MACs, inplace=True)
            )
            (1): Conv(
              36.99 k, 0.331% Params, 236.75 MMac, 1.646% MACs, 
              (conv): Conv2d(36.86 k, 0.330% Params, 235.93 MMac, 1.640% MACs, 64, 64, kernel_size=(3, 3), stride=(1, 1), padding=(1, 1), bias=False)
              (bn): BatchNorm2d(128, 0.001% Params, 819.2 KMac, 0.006% MACs, 64, eps=0.001, momentum=0.03, affine=True, track_running_stats=True)
              (act): SiLU(0, 0.000% Params, 0.0 Mac, 0.000% MACs, inplace=True)
            )
            (2): Conv2d(4.16 k, 0.037% Params, 26.62 MMac, 0.185% MACs, 64, 64, kernel_size=(1, 1), stride=(1, 1))
          )
          (1): Sequential(
            188.74 k, 1.690% Params, 301.98 MMac, 2.099% MACs, 
            (0): Conv(
              147.58 k, 1.322% Params, 236.13 MMac, 1.641% MACs, 
              (conv): Conv2d(147.46 k, 1.321% Params, 235.93 MMac, 1.640% MACs, 256, 64, kernel_size=(3, 3), stride=(1, 1), padding=(1, 1), bias=False)
              (bn): BatchNorm2d(128, 0.001% Params, 204.8 KMac, 0.001% MACs, 64, eps=0.001, momentum=0.03, affine=True, track_running_stats=True)
              (act): SiLU(0, 0.000% Params, 0.0 Mac, 0.000% MACs, inplace=True)
            )
            (1): Conv(
              36.99 k, 0.331% Params, 59.19 MMac, 0.411% MACs, 
              (conv): Conv2d(36.86 k, 0.330% Params, 58.98 MMac, 0.410% MACs, 64, 64, kernel_size=(3, 3), stride=(1, 1), padding=(1, 1), bias=False)
              (bn): BatchNorm2d(128, 0.001% Params, 204.8 KMac, 0.001% MACs, 64, eps=0.001, momentum=0.03, affine=True, track_running_stats=True)
              (act): SiLU(0, 0.000% Params, 0.0 Mac, 0.000% MACs, inplace=True)
            )
            (2): Conv2d(4.16 k, 0.037% Params, 6.66 MMac, 0.046% MACs, 64, 64, kernel_size=(1, 1), stride=(1, 1))
          )
          (2): Sequential(
            336.19 k, 3.011% Params, 134.48 MMac, 0.935% MACs, 
            (0): Conv(
              295.04 k, 2.642% Params, 118.02 MMac, 0.820% MACs, 
              (conv): Conv2d(294.91 k, 2.641% Params, 117.96 MMac, 0.820% MACs, 512, 64, kernel_size=(3, 3), stride=(1, 1), padding=(1, 1), bias=False)
              (bn): BatchNorm2d(128, 0.001% Params, 51.2 KMac, 0.000% MACs, 64, eps=0.001, momentum=0.03, affine=True, track_running_stats=True)
              (act): SiLU(0, 0.000% Params, 0.0 Mac, 0.000% MACs, inplace=True)
            )
            (1): Conv(
              36.99 k, 0.331% Params, 14.8 MMac, 0.103% MACs, 
              (conv): Conv2d(36.86 k, 0.330% Params, 14.75 MMac, 0.102% MACs, 64, 64, kernel_size=(3, 3), stride=(1, 1), padding=(1, 1), bias=False)
              (bn): BatchNorm2d(128, 0.001% Params, 51.2 KMac, 0.000% MACs, 64, eps=0.001, momentum=0.03, affine=True, track_running_stats=True)
              (act): SiLU(0, 0.000% Params, 0.0 Mac, 0.000% MACs, inplace=True)
            )
            (2): Conv2d(4.16 k, 0.037% Params, 1.66 MMac, 0.012% MACs, 64, 64, kernel_size=(1, 1), stride=(1, 1))
          )
        )
        (cv3): ModuleList(
          (0): Sequential(
            305.74 k, 2.738% Params, 1.96 GMac, 13.601% MACs, 
            (0): Conv(
              147.71 k, 1.323% Params, 945.36 MMac, 6.571% MACs, 
              (conv): Conv2d(147.46 k, 1.321% Params, 943.72 MMac, 6.560% MACs, 128, 128, kernel_size=(3, 3), stride=(1, 1), padding=(1, 1), bias=False)
              (bn): BatchNorm2d(256, 0.002% Params, 1.64 MMac, 0.011% MACs, 128, eps=0.001, momentum=0.03, affine=True, track_running_stats=True)
              (act): SiLU(0, 0.000% Params, 0.0 Mac, 0.000% MACs, inplace=True)
            )
            (1): Conv(
              147.71 k, 1.323% Params, 945.36 MMac, 6.571% MACs, 
              (conv): Conv2d(147.46 k, 1.321% Params, 943.72 MMac, 6.560% MACs, 128, 128, kernel_size=(3, 3), stride=(1, 1), padding=(1, 1), bias=False)
              (bn): BatchNorm2d(256, 0.002% Params, 1.64 MMac, 0.011% MACs, 128, eps=0.001, momentum=0.03, affine=True, track_running_stats=True)
              (act): SiLU(0, 0.000% Params, 0.0 Mac, 0.000% MACs, inplace=True)
            )
            (2): Conv2d(10.32 k, 0.092% Params, 66.05 MMac, 0.459% MACs, 128, 80, kernel_size=(1, 1), stride=(1, 1))
          )
          (1): Sequential(
            453.2 k, 4.059% Params, 725.12 MMac, 5.040% MACs, 
            (0): Conv(
              295.17 k, 2.643% Params, 472.27 MMac, 3.283% MACs, 
              (conv): Conv2d(294.91 k, 2.641% Params, 471.86 MMac, 3.280% MACs, 256, 128, kernel_size=(3, 3), stride=(1, 1), padding=(1, 1), bias=False)
              (bn): BatchNorm2d(256, 0.002% Params, 409.6 KMac, 0.003% MACs, 128, eps=0.001, momentum=0.03, affine=True, track_running_stats=True)
              (act): SiLU(0, 0.000% Params, 0.0 Mac, 0.000% MACs, inplace=True)
            )
            (1): Conv(
              147.71 k, 1.323% Params, 236.34 MMac, 1.643% MACs, 
              (conv): Conv2d(147.46 k, 1.321% Params, 235.93 MMac, 1.640% MACs, 128, 128, kernel_size=(3, 3), stride=(1, 1), padding=(1, 1), bias=False)
              (bn): BatchNorm2d(256, 0.002% Params, 409.6 KMac, 0.003% MACs, 128, eps=0.001, momentum=0.03, affine=True, track_running_stats=True)
              (act): SiLU(0, 0.000% Params, 0.0 Mac, 0.000% MACs, inplace=True)
            )
            (2): Conv2d(10.32 k, 0.092% Params, 16.51 MMac, 0.115% MACs, 128, 80, kernel_size=(1, 1), stride=(1, 1))
          )
          (2): Sequential(
            748.11 k, 6.700% Params, 299.24 MMac, 2.080% MACs, 
            (0): Conv(
              590.08 k, 5.284% Params, 236.03 MMac, 1.641% MACs, 
              (conv): Conv2d(589.82 k, 5.282% Params, 235.93 MMac, 1.640% MACs, 512, 128, kernel_size=(3, 3), stride=(1, 1), padding=(1, 1), bias=False)
              (bn): BatchNorm2d(256, 0.002% Params, 102.4 KMac, 0.001% MACs, 128, eps=0.001, momentum=0.03, affine=True, track_running_stats=True)
              (act): SiLU(0, 0.000% Params, 0.0 Mac, 0.000% MACs, inplace=True)
            )
            (1): Conv(
              147.71 k, 1.323% Params, 59.08 MMac, 0.411% MACs, 
              (conv): Conv2d(147.46 k, 1.321% Params, 58.98 MMac, 0.410% MACs, 128, 128, kernel_size=(3, 3), stride=(1, 1), padding=(1, 1), bias=False)
              (bn): BatchNorm2d(256, 0.002% Params, 102.4 KMac, 0.001% MACs, 128, eps=0.001, momentum=0.03, affine=True, track_running_stats=True)
              (act): SiLU(0, 0.000% Params, 0.0 Mac, 0.000% MACs, inplace=True)
            )
            (2): Conv2d(10.32 k, 0.092% Params, 4.13 MMac, 0.029% MACs, 128, 80, kernel_size=(1, 1), stride=(1, 1))
          )
        )
        (dfl): DFL(
          0, 0.000% Params, 537.6 KMac, 0.004% MACs, 
          (conv): Conv2d(0, 0.000% Params, 537.6 KMac, 0.004% MACs, 16, 1, kernel_size=(1, 1), stride=(1, 1), bias=False)
        )
      )
    )
  )
)
FLOPs: 14.39 GMac, Params: 11.17 M
[rank0]:[W630 00:38:26.204213901 reducer.cpp:1430] Warning: find_unused_parameters=True was specified in DDP constructor, but did not find any unused parameters in the forward pass. This flag results in an extra traversal of the autograd 
…
