…
Warning: module SpatialAlignTransnormer is treated as a zero-op.
Warning: module Concat is treated as a zero-op.
Warning: module DFL is treated as a zero-op.
Warning: module Detect is treated as a zero-op.
Warning: module DetectionModel is treated as a zero-op.
Warning: module DistributedDataParallel is treated as a zero-op.
DistributedDataParallel(
  10.23 M, 100.000% Params, 12.5 GMac, 95.984% MACs, 
  (module): DetectionModel(
    10.23 M, 100.000% Params, 12.5 GMac, 95.984% MACs, 
    (model): Sequential(
      10.23 M, 100.000% Params, 12.5 GMac, 95.984% MACs, 
      (0): Conv(
        3.52 k, 0.034% Params, 360.45 MMac, 2.767% MACs, 
        (conv): Conv2d(3.46 k, 0.034% Params, 353.89 MMac, 2.716% MACs, 3, 32, kernel_size=(6, 6), stride=(2, 2), padding=(2, 2), bias=False)
        (bn): BatchNorm2d(64, 0.001% Params, 6.55 MMac, 0.050% MACs, 32, eps=0.001, momentum=0.03, affine=True, track_running_stats=True)
        (act): SiLU(0, 0.000% Params, 0.0 Mac, 0.000% MACs, inplace=True)
      )
      (1): Conv(
        18.56 k, 0.182% Params, 475.14 MMac, 3.647% MACs, 
        (conv): Conv2d(18.43 k, 0.180% Params, 471.86 MMac, 3.622% MACs, 32, 64, kernel_size=(3, 3), stride=(2, 2), padding=(1, 1), bias=False)
        (bn): BatchNorm2d(128, 0.001% Params, 3.28 MMac, 0.025% MACs, 64, eps=0.001, momentum=0.03, affine=True, track_running_stats=True)
        (act): SiLU(0, 0.000% Params, 0.0 Mac, 0.000% MACs, inplace=True)
      )
      (2): C3(
        18.82 k, 0.184% Params, 481.69 MMac, 3.697% MACs, 
        (cv1): Conv(
          2.11 k, 0.021% Params, 54.07 MMac, 0.415% MACs, 
          (conv): Conv2d(2.05 k, 0.020% Params, 52.43 MMac, 0.402% MACs, 64, 32, kernel_size=(1, 1), stride=(1, 1), bias=False)
          (bn): BatchNorm2d(64, 0.001% Params, 1.64 MMac, 0.013% MACs, 32, eps=0.001, momentum=0.03, affine=True, track_running_stats=True)
          (act): SiLU(0, 0.000% Params, 0.0 Mac, 0.000% MACs, inplace=True)
        )
        (cv2): Conv(
          2.11 k, 0.021% Params, 54.07 MMac, 0.415% MACs, 
          (conv): Conv2d(2.05 k, 0.020% Params, 52.43 MMac, 0.402% MACs, 64, 32, kernel_size=(1, 1), stride=(1, 1), bias=False)
          (bn): BatchNorm2d(64, 0.001% Params, 1.64 MMac, 0.013% MACs, 32, eps=0.001, momentum=0.03, affine=True, track_running_stats=True)
          (act): SiLU(0, 0.000% Params, 0.0 Mac, 0.000% MACs, inplace=True)
        )
        (cv3): Conv(
          4.22 k, 0.041% Params, 108.13 MMac, 0.830% MACs, 
          (conv): Conv2d(4.1 k, 0.040% Params, 104.86 MMac, 0.805% MACs, 64, 64, kernel_size=(1, 1), stride=(1, 1), bias=False)
          (bn): BatchNorm2d(128, 0.001% Params, 3.28 MMac, 0.025% MACs, 64, eps=0.001, momentum=0.03, affine=True, track_running_stats=True)
          (act): SiLU(0, 0.000% Params, 0.0 Mac, 0.000% MACs, inplace=True)
        )
        (m): Sequential(
          10.37 k, 0.101% Params, 265.42 MMac, 2.037% MACs, 
          (0): Bottleneck(
            10.37 k, 0.101% Params, 265.42 MMac, 2.037% MACs, 
            (cv1): Conv(
              1.09 k, 0.011% Params, 27.85 MMac, 0.214% MACs, 
              (conv): Conv2d(1.02 k, 0.010% Params, 26.21 MMac, 0.201% MACs, 32, 32, kernel_size=(1, 1), stride=(1, 1), bias=False)
              (bn): BatchNorm2d(64, 0.001% Params, 1.64 MMac, 0.013% MACs, 32, eps=0.001, momentum=0.03, affine=True, track_running_stats=True)
              (act): SiLU(0, 0.000% Params, 0.0 Mac, 0.000% MACs, inplace=True)
            )
            (cv2): Conv(
              9.28 k, 0.091% Params, 237.57 MMac, 1.824% MACs, 
              (conv): Conv2d(9.22 k, 0.090% Params, 235.93 MMac, 1.811% MACs, 32, 32, kernel_size=(3, 3), stride=(1, 1), padding=(1, 1), bias=False)
              (bn): BatchNorm2d(64, 0.001% Params, 1.64 MMac, 0.013% MACs, 32, eps=0.001, momentum=0.03, affine=True, track_running_stats=True)
              (act): SiLU(0, 0.000% Params, 0.0 Mac, 0.000% MACs, inplace=True)
            )
          )
        )
      )
      (3): Conv(
        73.98 k, 0.724% Params, 473.5 MMac, 3.634% MACs, 
        (conv): Conv2d(73.73 k, 0.721% Params, 471.86 MMac, 3.622% MACs, 64, 128, kernel_size=(3, 3), stride=(2, 2), padding=(1, 1), bias=False)
        (bn): BatchNorm2d(256, 0.003% Params, 1.64 MMac, 0.013% MACs, 128, eps=0.001, momentum=0.03, affine=True, track_running_stats=True)
        (act): SiLU(0, 0.000% Params, 0.0 Mac, 0.000% MACs, inplace=True)
      )
      (4): C3(
        115.71 k, 1.132% Params, 740.56 MMac, 5.684% MACs, 
        (cv1): Conv(
          8.32 k, 0.081% Params, 53.25 MMac, 0.409% MACs, 
          (conv): Conv2d(8.19 k, 0.080% Params, 52.43 MMac, 0.402% MACs, 128, 64, kernel_size=(1, 1), stride=(1, 1), bias=False)
          (bn): BatchNorm2d(128, 0.001% Params, 819.2 KMac, 0.006% MACs, 64, eps=0.001, momentum=0.03, affine=True, track_running_stats=True)
          (act): SiLU(0, 0.000% Params, 0.0 Mac, 0.000% MACs, inplace=True)
        )
        (cv2): Conv(
          8.32 k, 0.081% Params, 53.25 MMac, 0.409% MACs, 
          (conv): Conv2d(8.19 k, 0.080% Params, 52.43 MMac, 0.402% MACs, 128, 64, kernel_size=(1, 1), stride=(1, 1), bias=False)
          (bn): BatchNorm2d(128, 0.001% Params, 819.2 KMac, 0.006% MACs, 64, eps=0.001, momentum=0.03, affine=True, track_running_stats=True)
          (act): SiLU(0, 0.000% Params, 0.0 Mac, 0.000% MACs, inplace=True)
        )
        (cv3): Conv(
          16.64 k, 0.163% Params, 106.5 MMac, 0.817% MACs, 
          (conv): Conv2d(16.38 k, 0.160% Params, 104.86 MMac, 0.805% MACs, 128, 128, kernel_size=(1, 1), stride=(1, 1), bias=False)
          (bn): BatchNorm2d(256, 0.003% Params, 1.64 MMac, 0.013% MACs, 128, eps=0.001, momentum=0.03, affine=True, track_running_stats=True)
          (act): SiLU(0, 0.000% Params, 0.0 Mac, 0.000% MACs, inplace=True)
        )
        (m): Sequential(
          82.43 k, 0.806% Params, 527.56 MMac, 4.049% MACs, 
          (0): Bottleneck(
            41.22 k, 0.403% Params, 263.78 MMac, 2.025% MACs, 
            (cv1): Conv(
              4.22 k, 0.041% Params, 27.03 MMac, 0.208% MACs, 
              (conv): Conv2d(4.1 k, 0.040% Params, 26.21 MMac, 0.201% MACs, 64, 64, kernel_size=(1, 1), stride=(1, 1), bias=False)
              (bn): BatchNorm2d(128, 0.001% Params, 819.2 KMac, 0.006% MACs, 64, eps=0.001, momentum=0.03, affine=True, track_running_stats=True)
              (act): SiLU(0, 0.000% Params, 0.0 Mac, 0.000% MACs, inplace=True)
            )
            (cv2): Conv(
              36.99 k, 0.362% Params, 236.75 MMac, 1.817% MACs, 
              (conv): Conv2d(36.86 k, 0.360% Params, 235.93 MMac, 1.811% MACs, 64, 64, kernel_size=(3, 3), stride=(1, 1), padding=(1, 1), bias=False)
              (bn): BatchNorm2d(128, 0.001% Params, 819.2 KMac, 0.006% MACs, 64, eps=0.001, momentum=0.03, affine=True, track_running_stats=True)
              (act): SiLU(0, 0.000% Params, 0.0 Mac, 0.000% MACs, inplace=True)
            )
          )
          (1): Bottleneck(
            41.22 k, 0.403% Params, 263.78 MMac, 2.025% MACs, 
            (cv1): Conv(
              4.22 k, 0.041% Params, 27.03 MMac, 0.208% MACs, 
              (conv): Conv2d(4.1 k, 0.040% Params, 26.21 MMac, 0.201% MACs, 64, 64, kernel_size=(1, 1), stride=(1, 1), bias=False)
              (bn): BatchNorm2d(128, 0.001% Params, 819.2 KMac, 0.006% MACs, 64, eps=0.001, momentum=0.03, affine=True, track_running_stats=True)
              (act): SiLU(0, 0.000% Params, 0.0 Mac, 0.000% MACs, inplace=True)
            )
            (cv2): Conv(
              36.99 k, 0.362% Params, 236.75 MMac, 1.817% MACs, 
              (conv): Conv2d(36.86 k, 0.360% Params, 235.93 MMac, 1.811% MACs, 64, 64, kernel_size=(3, 3), stride=(1, 1), padding=(1, 1), bias=False)
              (bn): BatchNorm2d(128, 0.001% Params, 819.2 KMac, 0.006% MACs, 64, eps=0.001, momentum=0.03, affine=True, track_running_stats=True)
              (act): SiLU(0, 0.000% Params, 0.0 Mac, 0.000% MACs, inplace=True)
            )
          )
        )
      )
      (5): Conv(
        295.42 k, 2.889% Params, 472.68 MMac, 3.628% MACs, 
        (conv): Conv2d(294.91 k, 2.884% Params, 471.86 MMac, 3.622% MACs, 128, 256, kernel_size=(3, 3), stride=(2, 2), padding=(1, 1), bias=False)
        (bn): BatchNorm2d(512, 0.005% Params, 819.2 KMac, 0.006% MACs, 256, eps=0.001, momentum=0.03, affine=True, track_running_stats=True)
        (act): SiLU(0, 0.000% Params, 0.0 Mac, 0.000% MACs, inplace=True)
      )
      (6): C3(
        625.15 k, 6.113% Params, 1.0 GMac, 7.678% MACs, 
        (cv1): Conv(
          33.02 k, 0.323% Params, 52.84 MMac, 0.406% MACs, 
          (conv): Conv2d(32.77 k, 0.320% Params, 52.43 MMac, 0.402% MACs, 256, 128, kernel_size=(1, 1), stride=(1, 1), bias=False)
          (bn): BatchNorm2d(256, 0.003% Params, 409.6 KMac, 0.003% MACs, 128, eps=0.001, momentum=0.03, affine=True, track_running_stats=True)
          (act): SiLU(0, 0.000% Params, 0.0 Mac, 0.000% MACs, inplace=True)
        )
        (cv2): Conv(
          33.02 k, 0.323% Params, 52.84 MMac, 0.406% MACs, 
          (conv): Conv2d(32.77 k, 0.320% Params, 52.43 MMac, 0.402% MACs, 256, 128, kernel_size=(1, 1), stride=(1, 1), bias=False)
          (bn): BatchNorm2d(256, 0.003% Params, 409.6 KMac, 0.003% MACs, 128, eps=0.001, momentum=0.03, affine=True, track_running_stats=True)
          (act): SiLU(0, 0.000% Params, 0.0 Mac, 0.000% MACs, inplace=True)
        )
        (cv3): Conv(
          66.05 k, 0.646% Params, 105.68 MMac, 0.811% MACs, 
          (conv): Conv2d(65.54 k, 0.641% Params, 104.86 MMac, 0.805% MACs, 256, 256, kernel_size=(1, 1), stride=(1, 1), bias=False)
          (bn): BatchNorm2d(512, 0.005% Params, 819.2 KMac, 0.006% MACs, 256, eps=0.001, momentum=0.03, affine=True, track_running_stats=True)
          (act): SiLU(0, 0.000% Params, 0.0 Mac, 0.000% MACs, inplace=True)
        )
        (m): Sequential(
          493.06 k, 4.822% Params, 788.89 MMac, 6.055% MACs, 
          (0): Bottleneck(
            164.35 k, 1.607% Params, 262.96 MMac, 2.018% MACs, 
            (cv1): Conv(
              16.64 k, 0.163% Params, 26.62 MMac, 0.204% MACs, 
              (conv): Conv2d(16.38 k, 0.160% Params, 26.21 MMac, 0.201% MACs, 128, 128, kernel_size=(1, 1), stride=(1, 1), bias=False)
              (bn): BatchNorm2d(256, 0.003% Params, 409.6 KMac, 0.003% MACs, 128, eps=0.001, momentum=0.03, affine=True, track_running_stats=True)
              (act): SiLU(0, 0.000% Params, 0.0 Mac, 0.000% MACs, inplace=True)
            )
            (cv2): Conv(
              147.71 k, 1.445% Params, 236.34 MMac, 1.814% MACs, 
              (conv): Conv2d(147.46 k, 1.442% Params, 235.93 MMac, 1.811% MACs, 128, 128, kernel_size=(3, 3), stride=(1, 1), padding=(1, 1), bias=False)
              (bn): BatchNorm2d(256, 0.003% Params, 409.6 KMac, 0.003% MACs, 128, eps=0.001, momentum=0.03, affine=True, track_running_stats=True)
              (act): SiLU(0, 0.000% Params, 0.0 Mac, 0.000% MACs, inplace=True)
            )
          )
          (1): Bottleneck(
            164.35 k, 1.607% Params, 262.96 MMac, 2.018% MACs, 
            (cv1): Conv(
              16.64 k, 0.163% Params, 26.62 MMac, 0.204% MACs, 
              (conv): Conv2d(16.38 k, 0.160% Params, 26.21 MMac, 0.201% MACs, 128, 128, kernel_size=(1, 1), stride=(1, 1), bias=False)
              (bn): BatchNorm2d(256, 0.003% Params, 409.6 KMac, 0.003% MACs, 128, eps=0.001, momentum=0.03, affine=True, track_running_stats=True)
              (act): SiLU(0, 0.000% Params, 0.0 Mac, 0.000% MACs, inplace=True)
            )
            (cv2): Conv(
              147.71 k, 1.445% Params, 236.34 MMac, 1.814% MACs, 
              (conv): Conv2d(147.46 k, 1.442% Params, 235.93 MMac, 1.811% MACs, 128, 128, kernel_size=(3, 3), stride=(1, 1), padding=(1, 1), bias=False)
              (bn): BatchNorm2d(256, 0.003% Params, 409.6 KMac, 0.003% MACs, 128, eps=0.001, momentum=0.03, affine=True, track_running_stats=True)
              (act): SiLU(0, 0.000% Params, 0.0 Mac, 0.000% MACs, inplace=True)
            )
          )
          (2): Bottleneck(
            164.35 k, 1.607% Params, 262.96 MMac, 2.018% MACs, 
            (cv1): Conv(
              16.64 k, 0.163% Params, 26.62 MMac, 0.204% MACs, 
              (conv): Conv2d(16.38 k, 0.160% Params, 26.21 MMac, 0.201% MACs, 128, 128, kernel_size=(1, 1), stride=(1, 1), bias=False)
              (bn): BatchNorm2d(256, 0.003% Params, 409.6 KMac, 0.003% MACs, 128, eps=0.001, momentum=0.03, affine=True, track_running_stats=True)
              (act): SiLU(0, 0.000% Params, 0.0 Mac, 0.000% MACs, inplace=True)
            )
            (cv2): Conv(
              147.71 k, 1.445% Params, 236.34 MMac, 1.814% MACs, 
              (conv): Conv2d(147.46 k, 1.442% Params, 235.93 MMac, 1.811% MACs, 128, 128, kernel_size=(3, 3), stride=(1, 1), padding=(1, 1), bias=False)
              (bn): BatchNorm2d(256, 0.003% Params, 409.6 KMac, 0.003% MACs, 128, eps=0.001, momentum=0.03, affine=True, track_running_stats=True)
              (act): SiLU(0, 0.000% Params, 0.0 Mac, 0.000% MACs, inplace=True)
            )
          )
        )
      )
      (7): Conv(
        1.18 M, 11.546% Params, 472.27 MMac, 3.625% MACs, 
        (conv): Conv2d(1.18 M, 11.536% Params, 471.86 MMac, 3.622% MACs, 256, 512, kernel_size=(3, 3), stride=(2, 2), padding=(1, 1), bias=False)
        (bn): BatchNorm2d(1.02 k, 0.010% Params, 409.6 KMac, 0.003% MACs, 512, eps=0.001, momentum=0.03, affine=True, track_running_stats=True)
        (act): SiLU(0, 0.000% Params, 0.0 Mac, 0.000% MACs, inplace=True)
      )
      (8): C3(
        1.18 M, 11.566% Params, 473.09 MMac, 3.631% MACs, 
        (cv1): Conv(
          131.58 k, 1.287% Params, 52.63 MMac, 0.404% MACs, 
          (conv): Conv2d(131.07 k, 1.282% Params, 52.43 MMac, 0.402% MACs, 512, 256, kernel_size=(1, 1), stride=(1, 1), bias=False)
          (bn): BatchNorm2d(512, 0.005% Params, 204.8 KMac, 0.002% MACs, 256, eps=0.001, momentum=0.03, affine=True, track_running_stats=True)
          (act): SiLU(0, 0.000% Params, 0.0 Mac, 0.000% MACs, inplace=True)
        )
        (cv2): Conv(
          131.58 k, 1.287% Params, 52.63 MMac, 0.404% MACs, 
          (conv): Conv2d(131.07 k, 1.282% Params, 52.43 MMac, 0.402% MACs, 512, 256, kernel_size=(1, 1), stride=(1, 1), bias=False)
          (bn): BatchNorm2d(512, 0.005% Params, 204.8 KMac, 0.002% MACs, 256, eps=0.001, momentum=0.03, affine=True, track_running_stats=True)
          (act): SiLU(0, 0.000% Params, 0.0 Mac, 0.000% MACs, inplace=True)
        )
        (cv3): Conv(
          263.17 k, 2.574% Params, 105.27 MMac, 0.808% MACs, 
          (conv): Conv2d(262.14 k, 2.564% Params, 104.86 MMac, 0.805% MACs, 512, 512, kernel_size=(1, 1), stride=(1, 1), bias=False)
          (bn): BatchNorm2d(1.02 k, 0.010% Params, 409.6 KMac, 0.003% MACs, 512, eps=0.001, momentum=0.03, affine=True, track_running_stats=True)
          (act): SiLU(0, 0.000% Params, 0.0 Mac, 0.000% MACs, inplace=True)
        )
        (m): Sequential(
          656.38 k, 6.419% Params, 262.55 MMac, 2.015% MACs, 
          (0): Bottleneck(
            656.38 k, 6.419% Params, 262.55 MMac, 2.015% MACs, 
            (cv1): Conv(
              66.05 k, 0.646% Params, 26.42 MMac, 0.203% MACs, 
              (conv): Conv2d(65.54 k, 0.641% Params, 26.21 MMac, 0.201% MACs, 256, 256, kernel_size=(1, 1), stride=(1, 1), bias=False)
              (bn): BatchNorm2d(512, 0.005% Params, 204.8 KMac, 0.002% MACs, 256, eps=0.001, momentum=0.03, affine=True, track_running_stats=True)
              (act): SiLU(0, 0.000% Params, 0.0 Mac, 0.000% MACs, inplace=True)
            )
            (cv2): Conv(
              590.34 k, 5.773% Params, 236.13 MMac, 1.813% MACs, 
              (conv): Conv2d(589.82 k, 5.768% Params, 235.93 MMac, 1.811% MACs, 256, 256, kernel_size=(3, 3), stride=(1, 1), padding=(1, 1), bias=False)
              (bn): BatchNorm2d(512, 0.005% Params, 204.8 KMac, 0.002% MACs, 256, eps=0.001, momentum=0.03, affine=True, track_running_stats=True)
              (act): SiLU(0, 0.000% Params, 0.0 Mac, 0.000% MACs, inplace=True)
            )
          )
        )
      )
      (9): SPPF(
        656.9 k, 6.424% Params, 263.07 MMac, 2.019% MACs, 
        (cv1): Conv(
          131.58 k, 1.287% Params, 52.63 MMac, 0.404% MACs, 
          (conv): Conv2d(131.07 k, 1.282% Params, 52.43 MMac, 0.402% MACs, 512, 256, kernel_size=(1, 1), stride=(1, 1), bias=False)
          (bn): BatchNorm2d(512, 0.005% Params, 204.8 KMac, 0.002% MACs, 256, eps=0.001, momentum=0.03, affine=True, track_running_stats=True)
          (act): SiLU(0, 0.000% Params, 0.0 Mac, 0.000% MACs, inplace=True)
        )
        (cv2): Conv(
          525.31 k, 5.137% Params, 210.12 MMac, 1.613% MACs, 
          (conv): Conv2d(524.29 k, 5.127% Params, 209.72 MMac, 1.610% MACs, 1024, 512, kernel_size=(1, 1), stride=(1, 1), bias=False)
          (bn): BatchNorm2d(1.02 k, 0.010% Params, 409.6 KMac, 0.003% MACs, 512, eps=0.001, momentum=0.03, affine=True, track_running_stats=True)
          (act): SiLU(0, 0.000% Params, 0.0 Mac, 0.000% MACs, inplace=True)
        )
        (m): MaxPool2d(0, 0.000% Params, 307.2 KMac, 0.002% MACs, kernel_size=5, stride=1, padding=2, dilation=1, ceil_mode=False)
      )
      (10): Conv(
        131.58 k, 1.287% Params, 52.63 MMac, 0.404% MACs, 
        (conv): Conv2d(131.07 k, 1.282% Params, 52.43 MMac, 0.402% MACs, 512, 256, kernel_size=(1, 1), stride=(1, 1), bias=False)
        (bn): BatchNorm2d(512, 0.005% Params, 204.8 KMac, 0.002% MACs, 256, eps=0.001, momentum=0.03, affine=True, track_running_stats=True)
        (act): SiLU(0, 0.000% Params, 0.0 Mac, 0.000% MACs, inplace=True)
      )
      (11): SpatialAlignTransnormer(
        857.09 k, 8.382% Params, 343.65 MMac, 2.638% MACs, 
        (upsample): Upsample(0, 0.000% Params, 409.6 KMac, 0.003% MACs, scale_factor=2.0, mode='bilinear')
        (high_to_low_embed): Sequential(
          66.3 k, 0.648% Params, 26.52 MMac, 0.204% MACs, 
          (0): Conv2d(65.79 k, 0.643% Params, 26.32 MMac, 0.202% MACs, 256, 256, kernel_size=(1, 1), stride=(1, 1))
          (1): BatchNorm2d(512, 0.005% Params, 204.8 KMac, 0.002% MACs, 256, eps=0.001, momentum=0.03, affine=True, track_running_stats=True)
        )
        (q_proj): Sequential(
          66.3 k, 0.648% Params, 26.42 MMac, 0.203% MACs, 
          (0): Linear(65.79 k, 0.643% Params, 26.32 MMac, 0.202% MACs, in_features=256, out_features=256, bias=True)
          (1): LayerNorm(512, 0.005% Params, 102.4 KMac, 0.001% MACs, (256,), eps=1e-05, elementwise_affine=True)
        )
        (k_proj): Sequential(
          66.3 k, 0.648% Params, 26.42 MMac, 0.203% MACs, 
          (0): Linear(65.79 k, 0.643% Params, 26.32 MMac, 0.202% MACs, in_features=256, out_features=256, bias=True)
          (1): LayerNorm(512, 0.005% Params, 102.4 KMac, 0.001% MACs, (256,), eps=1e-05, elementwise_affine=True)
        )
        (v_proj): Linear(65.79 k, 0.643% Params, 26.32 MMac, 0.202% MACs, in_features=256, out_features=256, bias=True)
        (out_proj): Linear(65.79 k, 0.643% Params, 26.32 MMac, 0.202% MACs, in_features=256, out_features=256, bias=True)
        (attn_norm): RMSNorm(0, 0.000% Params, 0.0 Mac, 0.000% MACs, (16,), eps=None, elementwise_affine=True)
        (linear1): Linear(263.17 k, 2.574% Params, 105.27 MMac, 0.808% MACs, in_features=256, out_features=1024, bias=True)
        (dropout): Dropout(0, 0.000% Params, 0.0 Mac, 0.000% MACs, p=0.0, inplace=False)
        (linear2): Linear(262.4 k, 2.566% Params, 104.96 MMac, 0.806% MACs, in_features=1024, out_features=256, bias=True)
        (activation): GELU(0, 0.000% Params, 409.6 KMac, 0.003% MACs, approximate='none')
        (norm1): LayerNorm(512, 0.005% Params, 102.4 KMac, 0.001% MACs, (256,), eps=1e-05, elementwise_affine=True)
        (norm2): LayerNorm(512, 0.005% Params, 102.4 KMac, 0.001% MACs, (256,), eps=1e-05, elementwise_affine=True)
        (dropout1): Dropout(0, 0.000% Params, 0.0 Mac, 0.000% MACs, p=0.0, inplace=False)
        (dropout2): Dropout(0, 0.000% Params, 0.0 Mac, 0.000% MACs, p=0.0, inplace=False)
        (avg_pool_high): Identity(0, 0.000% Params, 0.0 Mac, 0.000% MACs, )
        (avg_pool_low): AvgPool2d(0, 0.000% Params, 409.6 KMac, 0.003% MACs, kernel_size=2, stride=2, padding=0)
      )
      (12): C3(
        361.98 k, 3.540% Params, 579.17 MMac, 4.446% MACs, 
        (cv1): Conv(
          65.79 k, 0.643% Params, 105.27 MMac, 0.808% MACs, 
          (conv): Conv2d(65.54 k, 0.641% Params, 104.86 MMac, 0.805% MACs, 512, 128, kernel_size=(1, 1), stride=(1, 1), bias=False)
          (bn): BatchNorm2d(256, 0.003% Params, 409.6 KMac, 0.003% MACs, 128, eps=0.001, momentum=0.03, affine=True, track_running_stats=True)
          (act): SiLU(0, 0.000% Params, 0.0 Mac, 0.000% MACs, inplace=True)
        )
        (cv2): Conv(
          65.79 k, 0.643% Params, 105.27 MMac, 0.808% MACs, 
          (conv): Conv2d(65.54 k, 0.641% Params, 104.86 MMac, 0.805% MACs, 512, 128, kernel_size=(1, 1), stride=(1, 1), bias=False)
          (bn): BatchNorm2d(256, 0.003% Params, 409.6 KMac, 0.003% MACs, 128, eps=0.001, momentum=0.03, affine=True, track_running_stats=True)
          (act): SiLU(0, 0.000% Params, 0.0 Mac, 0.000% MACs, inplace=True)
        )
        (cv3): Conv(
          66.05 k, 0.646% Params, 105.68 MMac, 0.811% MACs, 
          (conv): Conv2d(65.54 k, 0.641% Params, 104.86 MMac, 0.805% MACs, 256, 256, kernel_size=(1, 1), stride=(1, 1), bias=False)
          (bn): BatchNorm2d(512, 0.005% Params, 819.2 KMac, 0.006% MACs, 256, eps=0.001, momentum=0.03, affine=True, track_running_stats=True)
          (act): SiLU(0, 0.000% Params, 0.0 Mac, 0.000% MACs, inplace=True)
        )
        (m): Sequential(
          164.35 k, 1.607% Params, 262.96 MMac, 2.018% MACs, 
          (0): Bottleneck(
            164.35 k, 1.607% Params, 262.96 MMac, 2.018% MACs, 
            (cv1): Conv(
              16.64 k, 0.163% Params, 26.62 MMac, 0.204% MACs, 
              (conv): Conv2d(16.38 k, 0.160% Params, 26.21 MMac, 0.201% MACs, 128, 128, kernel_size=(1, 1), stride=(1, 1), bias=False)
              (bn): BatchNorm2d(256, 0.003% Params, 409.6 KMac, 0.003% MACs, 128, eps=0.001, momentum=0.03, affine=True, track_running_stats=True)
              (act): SiLU(0, 0.000% Params, 0.0 Mac, 0.000% MACs, inplace=True)
            )
            (cv2): Conv(
              147.71 k, 1.445% Params, 236.34 MMac, 1.814% MACs, 
              (conv): Conv2d(147.46 k, 1.442% Params, 235.93 MMac, 1.811% MACs, 128, 128, kernel_size=(3, 3), stride=(1, 1), padding=(1, 1), bias=False)
              (bn): BatchNorm2d(256, 0.003% Params, 409.6 KMac, 0.003% MACs, 128, eps=0.001, momentum=0.03, affine=True, track_running_stats=True)
              (act): SiLU(0, 0.000% Params, 0.0 Mac, 0.000% MACs, inplace=True)
            )
          )
        )
      )
      (13): Conv(
        33.02 k, 0.323% Params, 52.84 MMac, 0.406% MACs, 
        (conv): Conv2d(32.77 k, 0.320% Params, 52.43 MMac, 0.402% MACs, 256, 128, kernel_size=(1, 1), stride=(1, 1), bias=False)
        (bn): BatchNorm2d(256, 0.003% Params, 409.6 KMac, 0.003% MACs, 128, eps=0.001, momentum=0.03, affine=True, track_running_stats=True)
        (act): SiLU(0, 0.000% Params, 0.0 Mac, 0.000% MACs, inplace=True)
      )
      (14): SpatialAlignTransnormer(
        215.55 k, 2.108% Params, 108.19 MMac, 0.830% MACs, 
        (upsample): Upsample(0, 0.000% Params, 819.2 KMac, 0.006% MACs, scale_factor=2.0, mode='bilinear')
        (high_to_low_embed): Sequential(
          16.77 k, 0.164% Params, 26.83 MMac, 0.206% MACs, 
          (0): Conv2d(16.51 k, 0.161% Params, 26.42 MMac, 0.203% MACs, 128, 128, kernel_size=(1, 1), stride=(1, 1))
          (1): BatchNorm2d(256, 0.003% Params, 409.6 KMac, 0.003% MACs, 128, eps=0.001, momentum=0.03, affine=True, track_running_stats=True)
        )
        (q_proj): Sequential(
          16.77 k, 0.164% Params, 6.66 MMac, 0.051% MACs, 
          (0): Linear(16.51 k, 0.161% Params, 6.6 MMac, 0.051% MACs, in_features=128, out_features=128, bias=True)
          (1): LayerNorm(256, 0.003% Params, 51.2 KMac, 0.000% MACs, (128,), eps=1e-05, elementwise_affine=True)
        )
        (k_proj): Sequential(
          16.77 k, 0.164% Params, 6.66 MMac, 0.051% MACs, 
          (0): Linear(16.51 k, 0.161% Params, 6.6 MMac, 0.051% MACs, in_features=128, out_features=128, bias=True)
          (1): LayerNorm(256, 0.003% Params, 51.2 KMac, 0.000% MACs, (128,), eps=1e-05, elementwise_affine=True)
        )
        (v_proj): Linear(16.51 k, 0.161% Params, 6.6 MMac, 0.051% MACs, in_features=128, out_features=128, bias=True)
        (out_proj): Linear(16.51 k, 0.161% Params, 6.6 MMac, 0.051% MACs, in_features=128, out_features=128, bias=True)
        (attn_norm): RMSNorm(0, 0.000% Params, 0.0 Mac, 0.000% MACs, (16,), eps=None, elementwise_affine=True)
        (linear1): Linear(66.05 k, 0.646% Params, 26.42 MMac, 0.203% MACs, in_features=128, out_features=512, bias=True)
        (dropout): Dropout(0, 0.000% Params, 0.0 Mac, 0.000% MACs, p=0.0, inplace=False)
        (linear2): Linear(65.66 k, 0.642% Params, 26.27 MMac, 0.202% MACs, in_features=512, out_features=128, bias=True)
        (activation): GELU(0, 0.000% Params, 204.8 KMac, 0.002% MACs, approximate='none')
        (norm1): LayerNorm(256, 0.003% Params, 51.2 KMac, 0.000% MACs, (128,), eps=1e-05, elementwise_affine=True)
        (norm2): LayerNorm(256, 0.003% Params, 51.2 KMac, 0.000% MACs, (128,), eps=1e-05, elementwise_affine=True)
        (dropout1): Dropout(0, 0.000% Params, 0.0 Mac, 0.000% MACs, p=0.0, inplace=False)
        (dropout2): Dropout(0, 0.000% Params, 0.0 Mac, 0.000% MACs, p=0.0, inplace=False)
        (avg_pool_high): AvgPool2d(0, 0.000% Params, 204.8 KMac, 0.002% MACs, kernel_size=2, stride=2, padding=0)
        (avg_pool_low): AvgPool2d(0, 0.000% Params, 819.2 KMac, 0.006% MACs, kernel_size=4, stride=4, padding=0)
      )
      (15): C3(
        90.88 k, 0.889% Params, 581.63 MMac, 4.464% MACs, 
        (cv1): Conv(
          16.51 k, 0.161% Params, 105.68 MMac, 0.811% MACs, 
          (conv): Conv2d(16.38 k, 0.160% Params, 104.86 MMac, 0.805% MACs, 256, 64, kernel_size=(1, 1), stride=(1, 1), bias=False)
          (bn): BatchNorm2d(128, 0.001% Params, 819.2 KMac, 0.006% MACs, 64, eps=0.001, momentum=0.03, affine=True, track_running_stats=True)
          (act): SiLU(0, 0.000% Params, 0.0 Mac, 0.000% MACs, inplace=True)
        )
        (cv2): Conv(
          16.51 k, 0.161% Params, 105.68 MMac, 0.811% MACs, 
          (conv): Conv2d(16.38 k, 0.160% Params, 104.86 MMac, 0.805% MACs, 256, 64, kernel_size=(1, 1), stride=(1, 1), bias=False)
          (bn): BatchNorm2d(128, 0.001% Params, 819.2 KMac, 0.006% MACs, 64, eps=0.001, momentum=0.03, affine=True, track_running_stats=True)
          (act): SiLU(0, 0.000% Params, 0.0 Mac, 0.000% MACs, inplace=True)
        )
        (cv3): Conv(
          16.64 k, 0.163% Params, 106.5 MMac, 0.817% MACs, 
          (conv): Conv2d(16.38 k, 0.160% Params, 104.86 MMac, 0.805% MACs, 128, 128, kernel_size=(1, 1), stride=(1, 1), bias=False)
          (bn): BatchNorm2d(256, 0.003% Params, 1.64 MMac, 0.013% MACs, 128, eps=0.001, momentum=0.03, affine=True, track_running_stats=True)
          (act): SiLU(0, 0.000% Params, 0.0 Mac, 0.000% MACs, inplace=True)
        )
        (m): Sequential(
          41.22 k, 0.403% Params, 263.78 MMac, 2.025% MACs, 
          (0): Bottleneck(
            41.22 k, 0.403% Params, 263.78 MMac, 2.025% MACs, 
            (cv1): Conv(
              4.22 k, 0.041% Params, 27.03 MMac, 0.208% MACs, 
              (conv): Conv2d(4.1 k, 0.040% Params, 26.21 MMac, 0.201% MACs, 64, 64, kernel_size=(1, 1), stride=(1, 1), bias=False)
              (bn): BatchNorm2d(128, 0.001% Params, 819.2 KMac, 0.006% MACs, 64, eps=0.001, momentum=0.03, affine=True, track_running_stats=True)
              (act): SiLU(0, 0.000% Params, 0.0 Mac, 0.000% MACs, inplace=True)
            )
            (cv2): Conv(
              36.99 k, 0.362% Params, 236.75 MMac, 1.817% MACs, 
              (conv): Conv2d(36.86 k, 0.360% Params, 235.93 MMac, 1.811% MACs, 64, 64, kernel_size=(3, 3), stride=(1, 1), padding=(1, 1), bias=False)
              (bn): BatchNorm2d(128, 0.001% Params, 819.2 KMac, 0.006% MACs, 64, eps=0.001, momentum=0.03, affine=True, track_running_stats=True)
              (act): SiLU(0, 0.000% Params, 0.0 Mac, 0.000% MACs, inplace=True)
            )
          )
        )
      )
      (16): Conv(
        147.71 k, 1.445% Params, 236.34 MMac, 1.814% MACs, 
        (conv): Conv2d(147.46 k, 1.442% Params, 235.93 MMac, 1.811% MACs, 128, 128, kernel_size=(3, 3), stride=(2, 2), padding=(1, 1), bias=False)
        (bn): BatchNorm2d(256, 0.003% Params, 409.6 KMac, 0.003% MACs, 128, eps=0.001, momentum=0.03, affine=True, track_running_stats=True)
        (act): SiLU(0, 0.000% Params, 0.0 Mac, 0.000% MACs, inplace=True)
      )
      (17): Concat(0, 0.000% Params, 0.0 Mac, 0.000% MACs, )
      (18): C3(
        296.45 k, 2.899% Params, 474.32 MMac, 3.641% MACs, 
        (cv1): Conv(
          33.02 k, 0.323% Params, 52.84 MMac, 0.406% MACs, 
          (conv): Conv2d(32.77 k, 0.320% Params, 52.43 MMac, 0.402% MACs, 256, 128, kernel_size=(1, 1), stride=(1, 1), bias=False)
          (bn): BatchNorm2d(256, 0.003% Params, 409.6 KMac, 0.003% MACs, 128, eps=0.001, momentum=0.03, affine=True, track_running_stats=True)
          (act): SiLU(0, 0.000% Params, 0.0 Mac, 0.000% MACs, inplace=True)
        )
        (cv2): Conv(
          33.02 k, 0.323% Params, 52.84 MMac, 0.406% MACs, 
          (conv): Conv2d(32.77 k, 0.320% Params, 52.43 MMac, 0.402% MACs, 256, 128, kernel_size=(1, 1), stride=(1, 1), bias=False)
          (bn): BatchNorm2d(256, 0.003% Params, 409.6 KMac, 0.003% MACs, 128, eps=0.001, momentum=0.03, affine=True, track_running_stats=True)
          (act): SiLU(0, 0.000% Params, 0.0 Mac, 0.000% MACs, inplace=True)
        )
        (cv3): Conv(
          66.05 k, 0.646% Params, 105.68 MMac, 0.811% MACs, 
          (conv): Conv2d(65.54 k, 0.641% Params, 104.86 MMac, 0.805% MACs, 256, 256, kernel_size=(1, 1), stride=(1, 1), bias=False)
          (bn): BatchNorm2d(512, 0.005% Params, 819.2 KMac, 0.006% MACs, 256, eps=0.001, momentum=0.03, affine=True, track_running_stats=True)
          (act): SiLU(0, 0.000% Params, 0.0 Mac, 0.000% MACs, inplace=True)
        )
        (m): Sequential(
          164.35 k, 1.607% Params, 262.96 MMac, 2.018% MACs, 
          (0): Bottleneck(
            164.35 k, 1.607% Params, 262.96 MMac, 2.018% MACs, 
            (cv1): Conv(
              16.64 k, 0.163% Params, 26.62 MMac, 0.204% MACs, 
              (conv): Conv2d(16.38 k, 0.160% Params, 26.21 MMac, 0.201% MACs, 128, 128, kernel_size=(1, 1), stride=(1, 1), bias=False)
              (bn): BatchNorm2d(256, 0.003% Params, 409.6 KMac, 0.003% MACs, 128, eps=0.001, momentum=0.03, affine=True, track_running_stats=True)
              (act): SiLU(0, 0.000% Params, 0.0 Mac, 0.000% MACs, inplace=True)
            )
            (cv2): Conv(
              147.71 k, 1.445% Params, 236.34 MMac, 1.814% MACs, 
              (conv): Conv2d(147.46 k, 1.442% Params, 235.93 MMac, 1.811% MACs, 128, 128, kernel_size=(3, 3), stride=(1, 1), padding=(1, 1), bias=False)
              (bn): BatchNorm2d(256, 0.003% Params, 409.6 KMac, 0.003% MACs, 128, eps=0.001, momentum=0.03, affine=True, track_running_stats=True)
              (act): SiLU(0, 0.000% Params, 0.0 Mac, 0.000% MACs, inplace=True)
            )
          )
        )
      )
      (19): Conv(
        590.34 k, 5.773% Params, 236.13 MMac, 1.813% MACs, 
        (conv): Conv2d(589.82 k, 5.768% Params, 235.93 MMac, 1.811% MACs, 256, 256, kernel_size=(3, 3), stride=(2, 2), padding=(1, 1), bias=False)
        (bn): BatchNorm2d(512, 0.005% Params, 204.8 KMac, 0.002% MACs, 256, eps=0.001, momentum=0.03, affine=True, track_running_stats=True)
        (act): SiLU(0, 0.000% Params, 0.0 Mac, 0.000% MACs, inplace=True)
      )
      (20): Concat(0, 0.000% Params, 0.0 Mac, 0.000% MACs, )
      (21): C3(
        1.18 M, 11.566% Params, 473.09 MMac, 3.631% MACs, 
        (cv1): Conv(
          131.58 k, 1.287% Params, 52.63 MMac, 0.404% MACs, 
          (conv): Conv2d(131.07 k, 1.282% Params, 52.43 MMac, 0.402% MACs, 512, 256, kernel_size=(1, 1), stride=(1, 1), bias=False)
          (bn): BatchNorm2d(512, 0.005% Params, 204.8 KMac, 0.002% MACs, 256, eps=0.001, momentum=0.03, affine=True, track_running_stats=True)
          (act): SiLU(0, 0.000% Params, 0.0 Mac, 0.000% MACs, inplace=True)
        )
        (cv2): Conv(
          131.58 k, 1.287% Params, 52.63 MMac, 0.404% MACs, 
          (conv): Conv2d(131.07 k, 1.282% Params, 52.43 MMac, 0.402% MACs, 512, 256, kernel_size=(1, 1), stride=(1, 1), bias=False)
          (bn): BatchNorm2d(512, 0.005% Params, 204.8 KMac, 0.002% MACs, 256, eps=0.001, momentum=0.03, affine=True, track_running_stats=True)
          (act): SiLU(0, 0.000% Params, 0.0 Mac, 0.000% MACs, inplace=True)
        )
        (cv3): Conv(
          263.17 k, 2.574% Params, 105.27 MMac, 0.808% MACs, 
          (conv): Conv2d(262.14 k, 2.564% Params, 104.86 MMac, 0.805% MACs, 512, 512, kernel_size=(1, 1), stride=(1, 1), bias=False)
          (bn): BatchNorm2d(1.02 k, 0.010% Params, 409.6 KMac, 0.003% MACs, 512, eps=0.001, momentum=0.03, affine=True, track_running_stats=True)
          (act): SiLU(0, 0.000% Params, 0.0 Mac, 0.000% MACs, inplace=True)
        )
        (m): Sequential(
          656.38 k, 6.419% Params, 262.55 MMac, 2.015% MACs, 
          (0): Bottleneck(
            656.38 k, 6.419% Params, 262.55 MMac, 2.015% MACs, 
            (cv1): Conv(
              66.05 k, 0.646% Params, 26.42 MMac, 0.203% MACs, 
              (conv): Conv2d(65.54 k, 0.641% Params, 26.21 MMac, 0.201% MACs, 256, 256, kernel_size=(1, 1), stride=(1, 1), bias=False)
              (bn): BatchNorm2d(512, 0.005% Params, 204.8 KMac, 0.002% MACs, 256, eps=0.001, momentum=0.03, affine=True, track_running_stats=True)
              (act): SiLU(0, 0.000% Params, 0.0 Mac, 0.000% MACs, inplace=True)
            )
            (cv2): Conv(
              590.34 k, 5.773% Params, 236.13 MMac, 1.813% MACs, 
              (conv): Conv2d(589.82 k, 5.768% Params, 235.93 MMac, 1.811% MACs, 256, 256, kernel_size=(3, 3), stride=(1, 1), padding=(1, 1), bias=False)
              (bn): BatchNorm2d(512, 0.005% Params, 204.8 KMac, 0.002% MACs, 256, eps=0.001, momentum=0.03, affine=True, track_running_stats=True)
              (act): SiLU(0, 0.000% Params, 0.0 Mac, 0.000% MACs, inplace=True)
            )
          )
        )
      )
      (22): Detect(
        2.15 M, 20.996% Params, 4.15 GMac, 31.886% MACs, 
        (cv2): ModuleList(
          (0): Sequential(
            115.01 k, 1.125% Params, 736.05 MMac, 5.650% MACs, 
            (0): Conv(
              73.86 k, 0.722% Params, 472.68 MMac, 3.628% MACs, 
              (conv): Conv2d(73.73 k, 0.721% Params, 471.86 MMac, 3.622% MACs, 128, 64, kernel_size=(3, 3), stride=(1, 1), padding=(1, 1), bias=False)
              (bn): BatchNorm2d(128, 0.001% Params, 819.2 KMac, 0.006% MACs, 64, eps=0.001, momentum=0.03, affine=True, track_running_stats=True)
              (act): SiLU(0, 0.000% Params, 0.0 Mac, 0.000% MACs, inplace=True)
            )
            (1): Conv(
              36.99 k, 0.362% Params, 236.75 MMac, 1.817% MACs, 
              (conv): Conv2d(36.86 k, 0.360% Params, 235.93 MMac, 1.811% MACs, 64, 64, kernel_size=(3, 3), stride=(1, 1), padding=(1, 1), bias=False)
              (bn): BatchNorm2d(128, 0.001% Params, 819.2 KMac, 0.006% MACs, 64, eps=0.001, momentum=0.03, affine=True, track_running_stats=True)
              (act): SiLU(0, 0.000% Params, 0.0 Mac, 0.000% MACs, inplace=True)
            )
            (2): Conv2d(4.16 k, 0.041% Params, 26.62 MMac, 0.204% MACs, 64, 64, kernel_size=(1, 1), stride=(1, 1))
          )
          (1): Sequential(
            188.74 k, 1.846% Params, 301.98 MMac, 2.318% MACs, 
            (0): Conv(
              147.58 k, 1.443% Params, 236.13 MMac, 1.813% MACs, 
              (conv): Conv2d(147.46 k, 1.442% Params, 235.93 MMac, 1.811% MACs, 256, 64, kernel_size=(3, 3), stride=(1, 1), padding=(1, 1), bias=False)
              (bn): BatchNorm2d(128, 0.001% Params, 204.8 KMac, 0.002% MACs, 64, eps=0.001, momentum=0.03, affine=True, track_running_stats=True)
              (act): SiLU(0, 0.000% Params, 0.0 Mac, 0.000% MACs, inplace=True)
            )
            (1): Conv(
              36.99 k, 0.362% Params, 59.19 MMac, 0.454% MACs, 
              (conv): Conv2d(36.86 k, 0.360% Params, 58.98 MMac, 0.453% MACs, 64, 64, kernel_size=(3, 3), stride=(1, 1), padding=(1, 1), bias=False)
              (bn): BatchNorm2d(128, 0.001% Params, 204.8 KMac, 0.002% MACs, 64, eps=0.001, momentum=0.03, affine=True, track_running_stats=True)
              (act): SiLU(0, 0.000% Params, 0.0 Mac, 0.000% MACs, inplace=True)
            )
            (2): Conv2d(4.16 k, 0.041% Params, 6.66 MMac, 0.051% MACs, 64, 64, kernel_size=(1, 1), stride=(1, 1))
          )
          (2): Sequential(
            336.19 k, 3.288% Params, 134.48 MMac, 1.032% MACs, 
            (0): Conv(
              295.04 k, 2.885% Params, 118.02 MMac, 0.906% MACs, 
              (conv): Conv2d(294.91 k, 2.884% Params, 117.96 MMac, 0.905% MACs, 512, 64, kernel_size=(3, 3), stride=(1, 1), padding=(1, 1), bias=False)
              (bn): BatchNorm2d(128, 0.001% Params, 51.2 KMac, 0.000% MACs, 64, eps=0.001, momentum=0.03, affine=True, track_running_stats=True)
              (act): SiLU(0, 0.000% Params, 0.0 Mac, 0.000% MACs, inplace=True)
            )
            (1): Conv(
              36.99 k, 0.362% Params, 14.8 MMac, 0.114% MACs, 
              (conv): Conv2d(36.86 k, 0.360% Params, 14.75 MMac, 0.113% MACs, 64, 64, kernel_size=(3, 3), stride=(1, 1), padding=(1, 1), bias=False)
              (bn): BatchNorm2d(128, 0.001% Params, 51.2 KMac, 0.000% MACs, 64, eps=0.001, momentum=0.03, affine=True, track_running_stats=True)
              (act): SiLU(0, 0.000% Params, 0.0 Mac, 0.000% MACs, inplace=True)
            )
            (2): Conv2d(4.16 k, 0.041% Params, 1.66 MMac, 0.013% MACs, 64, 64, kernel_size=(1, 1), stride=(1, 1))
          )
        )
        (cv3): ModuleList(
          (0): Sequential(
            305.74 k, 2.990% Params, 1.96 GMac, 15.020% MACs, 
            (0): Conv(
              147.71 k, 1.445% Params, 945.36 MMac, 7.256% MACs, 
              (conv): Conv2d(147.46 k, 1.442% Params, 943.72 MMac, 7.244% MACs, 128, 128, kernel_size=(3, 3), stride=(1, 1), padding=(1, 1), bias=False)
              (bn): BatchNorm2d(256, 0.003% Params, 1.64 MMac, 0.013% MACs, 128, eps=0.001, momentum=0.03, affine=True, track_running_stats=True)
              (act): SiLU(0, 0.000% Params, 0.0 Mac, 0.000% MACs, inplace=True)
            )
            (1): Conv(
              147.71 k, 1.445% Params, 945.36 MMac, 7.256% MACs, 
              (conv): Conv2d(147.46 k, 1.442% Params, 943.72 MMac, 7.244% MACs, 128, 128, kernel_size=(3, 3), stride=(1, 1), padding=(1, 1), bias=False)
              (bn): BatchNorm2d(256, 0.003% Params, 1.64 MMac, 0.013% MACs, 128, eps=0.001, momentum=0.03, affine=True, track_running_stats=True)
              (act): SiLU(0, 0.000% Params, 0.0 Mac, 0.000% MACs, inplace=True)
            )
            (2): Conv2d(10.32 k, 0.101% Params, 66.05 MMac, 0.507% MACs, 128, 80, kernel_size=(1, 1), stride=(1, 1))
          )
          (1): Sequential(
            453.2 k, 4.432% Params, 725.12 MMac, 5.566% MACs, 
            (0): Conv(
              295.17 k, 2.887% Params, 472.27 MMac, 3.625% MACs, 
              (conv): Conv2d(294.91 k, 2.884% Params, 471.86 MMac, 3.622% MACs, 256, 128, kernel_size=(3, 3), stride=(1, 1), padding=(1, 1), bias=False)
              (bn): BatchNorm2d(256, 0.003% Params, 409.6 KMac, 0.003% MACs, 128, eps=0.001, momentum=0.03, affine=True, track_running_stats=True)
              (act): SiLU(0, 0.000% Params, 0.0 Mac, 0.000% MACs, inplace=True)
            )
            (1): Conv(
              147.71 k, 1.445% Params, 236.34 MMac, 1.814% MACs, 
              (conv): Conv2d(147.46 k, 1.442% Params, 235.93 MMac, 1.811% MACs, 128, 128, kernel_size=(3, 3), stride=(1, 1), padding=(1, 1), bias=False)
              (bn): BatchNorm2d(256, 0.003% Params, 409.6 KMac, 0.003% MACs, 128, eps=0.001, momentum=0.03, affine=True, track_running_stats=True)
              (act): SiLU(0, 0.000% Params, 0.0 Mac, 0.000% MACs, inplace=True)
            )
            (2): Conv2d(10.32 k, 0.101% Params, 16.51 MMac, 0.127% MACs, 128, 80, kernel_size=(1, 1), stride=(1, 1))
          )
          (2): Sequential(
            748.11 k, 7.316% Params, 299.24 MMac, 2.297% MACs, 
            (0): Conv(
              590.08 k, 5.770% Params, 236.03 MMac, 1.812% MACs, 
              (conv): Conv2d(589.82 k, 5.768% Params, 235.93 MMac, 1.811% MACs, 512, 128, kernel_size=(3, 3), stride=(1, 1), padding=(1, 1), bias=False)
              (bn): BatchNorm2d(256, 0.003% Params, 102.4 KMac, 0.001% MACs, 128, eps=0.001, momentum=0.03, affine=True, track_running_stats=True)
              (act): SiLU(0, 0.000% Params, 0.0 Mac, 0.000% MACs, inplace=True)
            )
            (1): Conv(
              147.71 k, 1.445% Params, 59.08 MMac, 0.454% MACs, 
              (conv): Conv2d(147.46 k, 1.442% Params, 58.98 MMac, 0.453% MACs, 128, 128, kernel_size=(3, 3), stride=(1, 1), padding=(1, 1), bias=False)
              (bn): BatchNorm2d(256, 0.003% Params, 102.4 KMac, 0.001% MACs, 128, eps=0.001, momentum=0.03, affine=True, track_running_stats=True)
              (act): SiLU(0, 0.000% Params, 0.0 Mac, 0.000% MACs, inplace=True)
            )
            (2): Conv2d(10.32 k, 0.101% Params, 4.13 MMac, 0.032% MACs, 128, 80, kernel_size=(1, 1), stride=(1, 1))
          )
        )
        (dfl): DFL(
          0, 0.000% Params, 537.6 KMac, 0.004% MACs, 
          (conv): Conv2d(0, 0.000% Params, 537.6 KMac, 0.004% MACs, 16, 1, kernel_size=(1, 1), stride=(1, 1), bias=False)
        )
      )
    )
  )
)
FLOPs: 13.03 GMac, Params: 10.23 M
self.args.nbs: 64
[rank0]:[W720 13:33:17.481488807 reducer.cpp:1430] Warning: find_unused_parameters=True was specified in DDP constructor, but did not find any unused parameters in the forward pass. This flag results in an extra traversa
…
