…
tum=0.8, warmup_bias_lr=0.1, box=7.5, cls=0.5, dfl=1.5, pose=12.0, kobj=1.0, nbs=64, hsv_h=0.015, hsv_s=0.7, hsv_v=0.4, degrees=0.0, translate=0.1, scale=0.5, shear=0.0, perspective=0.0, flipud=0.0, fliplr=0.5, bgr=0.0, mosaic=1.0, mixup=0.0, copy_paste=0.0, copy_paste_mode=flip, auto_augment=randaugment, erasing=0.4, crop_fraction=1.0, cfg=None, tracker=botsort.yaml, save_dir=runs/detect/coco/yolov8s_100e_SemanticCosFormer/train2

                   from  n    params  module                                       arguments                     
  0                  -1  1       928  ultralytics.nn.modules.conv.Conv             [3, 32, 3, 2]                 
  1                  -1  1     18560  ultralytics.nn.modules.conv.Conv             [32, 64, 3, 2]                
  2                  -1  1     29056  ultralytics.nn.modules.block.C2f             [64, 64, 1, True]             
  3                  -1  1     73984  ultralytics.nn.modules.conv.Conv             [64, 128, 3, 2]               
  4                  -1  2    197632  ultralytics.nn.modules.block.C2f             [128, 128, 2, True]           
  5                  -1  1    295424  ultralytics.nn.modules.conv.Conv             [128, 256, 3, 2]              
  6                  -1  2    788480  ultralytics.nn.modules.block.C2f             [256, 256, 2, True]           
  7                  -1  1   1180672  ultralytics.nn.modules.conv.Conv             [256, 512, 3, 2]              
  8                  -1  1   1838080  ultralytics.nn.modules.block.C2f             [512, 512, 1, True]           
  9                  -1  1    656896  ultralytics.nn.modules.block.SPPF            [512, 512, 5]                 
 10             [-1, 6]  1    922624  ultralytics.nn.modules.transformer.SpatialAlignCrossAttentionCosFormer[256, 512, 8]                 
 11                  -1  1    591360  ultralytics.nn.modules.block.C2f             [768, 256, 1]                 
 12             [-1, 4]  1    231936  ultralytics.nn.modules.transformer.SpatialAlignCrossAttentionCosFormer[128, 256, 8]                 
 13                  -1  1    148224  ultralytics.nn.modules.block.C2f             [384, 128, 1]                 
 14                  -1  1    147712  ultralytics.nn.modules.conv.Conv             [128, 128, 3, 2]              
 15            [-1, 11]  1         0  ultralytics.nn.modules.conv.Concat           [1]                           
 16                  -1  1    493056  ultralytics.nn.modules.block.C2f             [384, 256, 1]                 
 17                  -1  1    590336  ultralytics.nn.modules.conv.Conv             [256, 256, 3, 2]              
 18             [-1, 9]  1         0  ultralytics.nn.modules.conv.Concat           [1]                           
 19                  -1  1   1969152  ultralytics.nn.modules.block.C2f             [768, 512, 1]                 
 20        [13, 16, 19]  1   2147008  ultralytics.nn.modules.head.Detect           [80, [128, 256, 512]]         
YOLOv8s_SAFusion summary: 161 layers, 12,321,120 parameters, 12,321,104 gradients, 29.8 GFLOPs

[34m[1mTensorBoard: [0mStart with 'tensorboard --logdir runs/detect/coco/yolov8s_100e_SemanticCosFormer/train2', view at http://localhost:6006/
Freezing layer 'model.20.dfl.conv.weight'
[34m[1mAMP: [0mrunning Automatic Mixed Precision (AMP) checks...
PRO TIP ðŸ’¡ Replace 'model=yolov5n.pt' with new 'model=yolov5nu.pt'.
…
