…
s=0.5, dfl=1.5, pose=12.0, kobj=1.0, nbs=64, hsv_h=0.015, hsv_s=0.7, hsv_v=0.4, degrees=0.0, translate=0.1, scale=0.5, shear=0.0, perspective=0.0, flipud=0.0, fliplr=0.5, bgr=0.0, mosaic=1.0, mixup=0.0, copy_paste=0.0, copy_paste_mode=flip, auto_augment=randaugment, erasing=0.4, crop_fraction=1.0, cfg=None, tracker=botsort.yaml, save_dir=runs/detect/coco/yolov6s_100e_SemanticCosFormer/train
[34m[1mactivation:[0m torch.nn.ReLU()

                   from  n    params  module                                       arguments                     
  0                  -1  1       928  ultralytics.nn.modules.conv.Conv             [3, 32, 3, 2]                 
  1                  -1  1     18560  ultralytics.nn.modules.conv.Conv             [32, 64, 3, 2]                
  2                  -1  2     73984  ultralytics.nn.modules.conv.Conv             [64, 64, 3, 1]                
  3                  -1  1     73984  ultralytics.nn.modules.conv.Conv             [64, 128, 3, 2]               
  4                  -1  4    590848  ultralytics.nn.modules.conv.Conv             [128, 128, 3, 1]              
  5                  -1  1    295424  ultralytics.nn.modules.conv.Conv             [128, 256, 3, 2]              
  6                  -1  6   3542016  ultralytics.nn.modules.conv.Conv             [256, 256, 3, 1]              
  7                  -1  1   1180672  ultralytics.nn.modules.conv.Conv             [256, 512, 3, 2]              
  8                  -1  2   4720640  ultralytics.nn.modules.conv.Conv             [512, 512, 3, 1]              
  9                  -1  1    656896  ultralytics.nn.modules.block.SPPF            [512, 512, 5]                 
 10                  -1  1     65792  ultralytics.nn.modules.conv.Conv             [512, 128, 1, 1]              
 11             [-1, 6]  1    889984  ultralytics.nn.modules.transformer.SpatialAlignCrossAttentionCosFormer[256, 128, 8, True]           
 12                  -1  1    442624  ultralytics.nn.modules.conv.Conv             [384, 128, 3, 1]              
 13                  -1  3    443136  ultralytics.nn.modules.conv.Conv             [128, 128, 3, 1]              
 14                  -1  1      8320  ultralytics.nn.modules.conv.Conv             [128, 64, 1, 1]               
 15             [-1, 4]  1    223808  ultralytics.nn.modules.transformer.SpatialAlignCrossAttentionCosFormer[128, 64, 8, True]            
 16                  -1  1    110720  ultralytics.nn.modules.conv.Conv             [192, 64, 3, 1]               
 17                  -1  3    110976  ultralytics.nn.modules.conv.Conv             [64, 64, 3, 1]                
 18                  -1  1     36992  ultralytics.nn.modules.conv.Conv             [64, 64, 3, 2]                
 19            [-1, 14]  1         0  ultralytics.nn.modules.conv.Concat           [1]                           
 20                  -1  1    147712  ultralytics.nn.modules.conv.Conv             [128, 128, 3, 1]              
 21                  -1  3    443136  ultralytics.nn.modules.conv.Conv             [128, 128, 3, 1]              
 22                  -1  1    147712  ultralytics.nn.modules.conv.Conv             [128, 128, 3, 2]              
 23            [-1, 10]  1         0  ultralytics.nn.modules.conv.Concat           [1]                           
 24                  -1  1    590336  ultralytics.nn.modules.conv.Conv             [256, 256, 3, 1]              
 25                  -1  3   1771008  ultralytics.nn.modules.conv.Conv             [256, 256, 3, 1]              
 26        [17, 21, 25]  1    897664  ultralytics.nn.modules.head.Detect           [80, [64, 128, 256]]          
YOLOv6s_SAFusion summary: 155 layers, 17,483,872 parameters, 17,483,856 gradients, 45.2 GFLOPs

[34m[1mTensorBoard: [0mStart with 'tensorboard --logdir runs/detect/coco/yolov6s_100e_SemanticCosFormer/train', view at http://localhost:6006/
Freezing layer 'model.26.dfl.conv.weight'
[34m[1mAMP: [0mrunning Automatic Mixed Precision (AMP) checks...
PRO TIP ðŸ’¡ Replace 'model=yolov5n.pt' with new 'model=yolov5nu.pt'.
…
