…
        (norm): BatchNorm2D(num_features=256, momentum=0.9, epsilon=1e-05)
      )
      (1): Sequential(
        (conv): Conv2D(256, 256, kernel_size=[1, 1], data_format=NCHW)
        (norm): BatchNorm2D(num_features=256, momentum=0.9, epsilon=1e-05)
      )
      (2): Sequential(
        (conv): Conv2D(256, 256, kernel_size=[1, 1], data_format=NCHW)
        (norm): BatchNorm2D(num_features=256, momentum=0.9, epsilon=1e-05)
      )
    )
    (decoder): TransformerDecoder(
      (layers): LayerList(
        (0): TransformerDecoderLayer(
          (self_attn): MultiHeadAttention(
            (out_proj): Linear(in_features=256, out_features=256, dtype=float32)
          )
          (dropout1): Dropout(p=0.0, axis=None, mode=upscale_in_train)
          (norm1): LayerNorm(normalized_shape=[256], epsilon=1e-05)
          (cross_attn): PPMSDeformableAttention(
            (sampling_offsets): Linear(in_features=256, out_features=192, dtype=float32)
            (attention_weights): Linear(in_features=256, out_features=96, dtype=float32)
            (value_proj): Linear(in_features=256, out_features=256, dtype=float32)
            (output_proj): Linear(in_features=256, out_features=256, dtype=float32)
          )
          (dropout2): Dropout(p=0.0, axis=None, mode=upscale_in_train)
          (norm2): LayerNorm(normalized_shape=[256], epsilon=1e-05)
          (linear1): Linear(in_features=256, out_features=1024, dtype=float32)
          (dropout3): Dropout(p=0.0, axis=None, mode=upscale_in_train)
          (linear2): Linear(in_features=1024, out_features=256, dtype=float32)
          (dropout4): Dropout(p=0.0, axis=None, mode=upscale_in_train)
          (norm3): LayerNorm(normalized_shape=[256], epsilon=1e-05)
        )
        (1): TransformerDecoderLayer(
          (self_attn): MultiHeadAttention(
            (out_proj): Linear(in_features=256, out_features=256, dtype=float32)
          )
          (dropout1): Dropout(p=0.0, axis=None, mode=upscale_in_train)
          (norm1): LayerNorm(normalized_shape=[256], epsilon=1e-05)
          (cross_attn): PPMSDeformableAttention(
            (sampling_offsets): Linear(in_features=256, out_features=192, dtype=float32)
            (attention_weights): Linear(in_features=256, out_features=96, dtype=float32)
            (value_proj): Linear(in_features=256, out_features=256, dtype=float32)
            (output_proj): Linear(in_features=256, out_features=256, dtype=float32)
          )
          (dropout2): Dropout(p=0.0, axis=None, mode=upscale_in_train)
          (norm2): LayerNorm(normalized_shape=[256], epsilon=1e-05)
          (linear1): Linear(in_features=256, out_features=1024, dtype=float32)
          (dropout3): Dropout(p=0.0, axis=None, mode=upscale_in_train)
          (linear2): Linear(in_features=1024, out_features=256, dtype=float32)
          (dropout4): Dropout(p=0.0, axis=None, mode=upscale_in_train)
          (norm3): LayerNorm(normalized_shape=[256], epsilon=1e-05)
        )
        (2): TransformerDecoderLayer(
          (self_attn): MultiHeadAttention(
            (out_proj): Linear(in_features=256, out_features=256, dtype=float32)
          )
          (dropout1): Dropout(p=0.0, axis=None, mode=upscale_in_train)
          (norm1): LayerNorm(normalized_shape=[256], epsilon=1e-05)
          (cross_attn): PPMSDeformableAttention(
            (sampling_offsets): Linear(in_features=256, out_features=192, dtype=float32)
            (attention_weights): Linear(in_features=256, out_features=96, dtype=float32)
            (value_proj): Linear(in_features=256, out_features=256, dtype=float32)
            (output_proj): Linear(in_features=256, out_features=256, dtype=float32)
          )
          (dropout2): Dropout(p=0.0, axis=None, mode=upscale_in_train)
          (norm2): LayerNorm(normalized_shape=[256], epsilon=1e-05)
          (linear1): Linear(in_features=256, out_features=1024, dtype=float32)
          (dropout3): Dropout(p=0.0, axis=None, mode=upscale_in_train)
          (linear2): Linear(in_features=1024, out_features=256, dtype=float32)
          (dropout4): Dropout(p=0.0, axis=None, mode=upscale_in_train)
          (norm3): LayerNorm(normalized_shape=[256], epsilon=1e-05)
        )
        (3): TransformerDecoderLayer(
          (self_attn): MultiHeadAttention(
            (out_proj): Linear(in_features=256, out_features=256, dtype=float32)
          )
          (dropout1): Dropout(p=0.0, axis=None, mode=upscale_in_train)
          (norm1): LayerNorm(normalized_shape=[256], epsilon=1e-05)
          (cross_attn): PPMSDeformableAttention(
            (sampling_offsets): Linear(in_features=256, out_features=192, dtype=float32)
            (attention_weights): Linear(in_features=256, out_features=96, dtype=float32)
            (value_proj): Linear(in_features=256, out_features=256, dtype=float32)
            (output_proj): Linear(in_features=256, out_features=256, dtype=float32)
          )
          (dropout2): Dropout(p=0.0, axis=None, mode=upscale_in_train)
          (norm2): LayerNorm(normalized_shape=[256], epsilon=1e-05)
          (linear1): Linear(in_features=256, out_features=1024, dtype=float32)
          (dropout3): Dropout(p=0.0, axis=None, mode=upscale_in_train)
          (linear2): Linear(in_features=1024, out_features=256, dtype=float32)
          (dropout4): Dropout(p=0.0, axis=None, mode=upscale_in_train)
          (norm3): LayerNorm(normalized_shape=[256], epsilon=1e-05)
        )
        (4): TransformerDecoderLayer(
          (self_attn): MultiHeadAttention(
            (out_proj): Linear(in_features=256, out_features=256, dtype=float32)
          )
          (dropout1): Dropout(p=0.0, axis=None, mode=upscale_in_train)
          (norm1): LayerNorm(normalized_shape=[256], epsilon=1e-05)
          (cross_attn): PPMSDeformableAttention(
            (sampling_offsets): Linear(in_features=256, out_features=192, dtype=float32)
            (attention_weights): Linear(in_features=256, out_features=96, dtype=float32)
            (value_proj): Linear(in_features=256, out_features=256, dtype=float32)
            (output_proj): Linear(in_features=256, out_features=256, dtype=float32)
          )
          (dropout2): Dropout(p=0.0, axis=None, mode=upscale_in_train)
          (norm2): LayerNorm(normalized_shape=[256], epsilon=1e-05)
          (linear1): Linear(in_features=256, out_features=1024, dtype=float32)
          (dropout3): Dropout(p=0.0, axis=None, mode=upscale_in_train)
          (linear2): Linear(in_features=1024, out_features=256, dtype=float32)
          (dropout4): Dropout(p=0.0, axis=None, mode=upscale_in_train)
          (norm3): LayerNorm(normalized_shape=[256], epsilon=1e-05)
        )
        (5): TransformerDecoderLayer(
          (self_attn): MultiHeadAttention(
            (out_proj): Linear(in_features=256, out_features=256, dtype=float32)
          )
          (dropout1): Dropout(p=0.0, axis=None, mode=upscale_in_train)
          (norm1): LayerNorm(normalized_shape=[256], epsilon=1e-05)
          (cross_attn): PPMSDeformableAttention(
            (sampling_offsets): Linear(in_features=256, out_features=192, dtype=float32)
            (attention_weights): Linear(in_features=256, out_features=96, dtype=float32)
            (value_proj): Linear(in_features=256, out_features=256, dtype=float32)
            (output_proj): Linear(in_features=256, out_features=256, dtype=float32)
          )
          (dropout2): Dropout(p=0.0, axis=None, mode=upscale_in_train)
          (norm2): LayerNorm(normalized_shape=[256], epsilon=1e-05)
          (linear1): Linear(in_features=256, out_features=1024, dtype=float32)
          (dropout3): Dropout(p=0.0, axis=None, mode=upscale_in_train)
          (linear2): Linear(in_features=1024, out_features=256, dtype=float32)
          (dropout4): Dropout(p=0.0, axis=None, mode=upscale_in_train)
          (norm3): LayerNorm(normalized_shape=[256], epsilon=1e-05)
        )
      )
    )
    (denoising_class_embed): Embedding(80, 256, sparse=False, scale_grad_by_freq=False)
    (query_pos_head): MLP(
      (layers): LayerList(
        (0): Linear(in_features=4, out_features=512, dtype=float32)
        (1): Linear(in_features=512, out_features=256, dtype=float32)
      )
    )
    (enc_output): Sequential(
      (0): Linear(in_features=256, out_features=256, dtype=float32)
      (1): LayerNorm(normalized_shape=[256], epsilon=1e-05)
    )
    (enc_score_head): Linear(in_features=256, out_features=80, dtype=float32)
    (enc_bbox_head): MLP(
      (layers): LayerList(
        (0): Linear(in_features=256, out_features=256, dtype=float32)
        (1): Linear(in_features=256, out_features=256, dtype=float32)
        (2): Linear(in_features=256, out_features=4, dtype=float32)
      )
    )
    (dec_score_head): LayerList(
      (0): Linear(in_features=256, out_features=80, dtype=float32)
      (1): Linear(in_features=256, out_features=80, dtype=float32)
      (2): Linear(in_features=256, out_features=80, dtype=float32)
      (3): Linear(in_features=256, out_features=80, dtype=float32)
      (4): Linear(in_features=256, out_features=80, dtype=float32)
      (5): Linear(in_features=256, out_features=80, dtype=float32)
    )
    (dec_bbox_head): LayerList(
      (0): MLP(
        (layers): LayerList(
          (0): Linear(in_features=256, out_features=256, dtype=float32)
          (1): Linear(in_features=256, out_features=256, dtype=float32)
          (2): Linear(in_features=256, out_features=4, dtype=float32)
        )
      )
      (1): MLP(
        (layers): LayerList(
          (0): Linear(in_features=256, out_features=256, dtype=float32)
          (1): Linear(in_features=256, out_features=256, dtype=float32)
          (2): Linear(in_features=256, out_features=4, dtype=float32)
        )
      )
      (2): MLP(
        (layers): LayerList(
          (0): Linear(in_features=256, out_features=256, dtype=float32)
          (1): Linear(in_features=256, out_features=256, dtype=float32)
          (2): Linear(in_features=256, out_features=4, dtype=float32)
        )
      )
      (3): MLP(
        (layers): LayerList(
          (0): Linear(in_features=256, out_features=256, dtype=float32)
          (1): Linear(in_features=256, out_features=256, dtype=float32)
          (2): Linear(in_features=256, out_features=4, dtype=float32)
        )
      )
      (4): MLP(
        (layers): LayerList(
          (0): Linear(in_features=256, out_features=256, dtype=float32)
          (1): Linear(in_features=256, out_features=256, dtype=float32)
          (2): Linear(in_features=256, out_features=4, dtype=float32)
        )
      )
      (5): MLP(
        (layers): LayerList(
          (0): Linear(in_features=256, out_features=256, dtype=float32)
          (1): Linear(in_features=256, out_features=256, dtype=float32)
          (2): Linear(in_features=256, out_features=4, dtype=float32)
        )
      )
    )
  )
  (detr_head): DINOHead(
    (loss): DINOLoss(
      (matcher): HungarianMatcher()
    )
  )
  (neck): HybridEncoder(
    (input_proj): LayerList(
      (0): Sequential(
        (0): Conv2D(512, 256, kernel_size=[1, 1], data_format=NCHW)
        (1): BatchNorm2D(num_features=256, momentum=0.9, epsilon=1e-05)
      )
      (1): Sequential(
        (0): Conv2D(1024, 256, kernel_size=[1, 1], data_format=NCHW)
        (1): BatchNorm2D(num_features=256, momentum=0.9, epsilon=1e-05)
      )
      (2): Sequential(
        (0): Conv2D(2048, 256, kernel_size=[1, 1], data_format=NCHW)
        (1): BatchNorm2D(num_features=256, momentum=0.9, epsilon=1e-05)
      )
    )
    (encoder): LayerList(
      (0): TransformerEncoder(
        (layers): LayerList(
          (0): TransformerLayer(
            (self_attn): MultiHeadAttention(
              (out_proj): Linear(in_features=256, out_features=256, dtype=float32)
            )
            (linear1): Linear(in_features=256, out_features=1024, dtype=float32)
            (dropout): Dropout(p=0.0, axis=None, mode=upscale_in_train)
            (linear2): Linear(in_features=1024, out_features=256, dtype=float32)
            (norm1): LayerNorm(normalized_shape=[256], epsilon=1e-05)
            (norm2): LayerNorm(normalized_shape=[256], epsilon=1e-05)
            (dropout1): Dropout(p=0.0, axis=None, mode=upscale_in_train)
            (dropout2): Dropout(p=0.0, axis=None, mode=upscale_in_train)
          )
        )
      )
    )
    (lateral_convs): LayerList(
      (0): BaseConv(
        (conv): Conv2D(256, 256, kernel_size=[1, 1], data_format=NCHW)
        (bn): BatchNorm2D(num_features=256, momentum=0.9, epsilon=1e-05)
…
          )
          (2): RepVggBlock(
            (conv1): ConvBNLayer(
              (conv): Conv2D(256, 256, kernel_size=[3, 3], padding=1, data_format=NCHW)
              (bn): BatchNorm2D(num_features=256, momentum=0.9, epsilon=1e-05)
            )
            (conv2): ConvBNLayer(
              (conv): Conv2D(256, 256, kernel_size=[1, 1], data_format=NCHW)
              (bn): BatchNorm2D(num_features=256, momentum=0.9, epsilon=1e-05)
            )
          )
        )
        (conv3): Identity()
      )
    )
    (sa_cross_attn): LayerList(
      (0): SpatialAlignTransNormer(
        (q_proj): Linear(in_features=256, out_features=256, dtype=float32)
        (k_proj): Linear(in_features=256, out_features=256, dtype=float32)
        (v_proj): Linear(in_features=256, out_features=256, dtype=float32)
        (out_proj): Linear(in_features=256, out_features=256, dtype=float32)
        (attn_norm): LayerNorm(normalized_shape=[16], epsilon=1e-06)
        (linear1): Linear(in_features=256, out_features=1024, dtype=float32)
        (dropout): Dropout(p=0.0, axis=None, mode=upscale_in_train)
        (linear2): Linear(in_features=1024, out_features=256, dtype=float32)
        (activation): GELU(approximate=False)
        (norm1): LayerNorm(normalized_shape=[256], epsilon=1e-05)
        (norm2): LayerNorm(normalized_shape=[256], epsilon=1e-05)
        (dropout1): Dropout(p=0.0, axis=None, mode=upscale_in_train)
        (dropout2): Dropout(p=0.0, axis=None, mode=upscale_in_train)
        (avg_pool_high): Identity()
        (avg_pool_low): AvgPool2D(kernel_size=2, stride=2, padding=0)
      )
      (1): SpatialAlignTransNormer(
        (q_proj): Linear(in_features=256, out_features=256, dtype=float32)
        (k_proj): Linear(in_features=256, out_features=256, dtype=float32)
        (v_proj): Linear(in_features=256, out_features=256, dtype=float32)
        (out_proj): Linear(in_features=256, out_features=256, dtype=float32)
        (attn_norm): LayerNorm(normalized_shape=[16], epsilon=1e-06)
        (linear1): Linear(in_features=256, out_features=1024, dtype=float32)
        (dropout): Dropout(p=0.0, axis=None, mode=upscale_in_train)
        (linear2): Linear(in_features=1024, out_features=256, dtype=float32)
        (activation): GELU(approximate=False)
        (norm1): LayerNorm(normalized_shape=[256], epsilon=1e-05)
        (norm2): LayerNorm(normalized_shape=[256], epsilon=1e-05)
        (dropout1): Dropout(p=0.0, axis=None, mode=upscale_in_train)
        (dropout2): Dropout(p=0.0, axis=None, mode=upscale_in_train)
        (avg_pool_high): AvgPool2D(kernel_size=2, stride=2, padding=0)
        (avg_pool_low): AvgPool2D(kernel_size=4, stride=4, padding=0)
      )
    )
  )
)
Traceback (most recent call last):
  File "/home2/hslee/EXP/rtdetr_paddle/tools/train.py", line 183, in <module>
…
