…
Warning: module SpatialAlignCrossAttentionCosFormer is treated as a zero-op.
Warning: module Concat is treated as a zero-op.
Warning: module DFL is treated as a zero-op.
Warning: module Detect is treated as a zero-op.
Warning: module DetectionModel is treated as a zero-op.
Warning: module DistributedDataParallel is treated as a zero-op.
DistributedDataParallel(
  28.42 M, 100.000% Params, 40.66 GMac, 97.308% MACs, 
  (module): DetectionModel(
    28.42 M, 100.000% Params, 40.66 GMac, 97.308% MACs, 
    (model): Sequential(
      28.42 M, 100.000% Params, 40.66 GMac, 97.308% MACs, 
      (0): Conv(
        1.39 k, 0.005% Params, 142.54 MMac, 0.341% MACs, 
        (conv): Conv2d(1.3 k, 0.005% Params, 132.71 MMac, 0.318% MACs, 3, 48, kernel_size=(3, 3), stride=(2, 2), padding=(1, 1), bias=False)
        (bn): BatchNorm2d(96, 0.000% Params, 9.83 MMac, 0.024% MACs, 48, eps=0.001, momentum=0.03, affine=True, track_running_stats=True)
        (act): SiLU(0, 0.000% Params, 0.0 Mac, 0.000% MACs, inplace=True)
      )
      (1): Conv(
        41.66 k, 0.147% Params, 1.07 GMac, 2.552% MACs, 
        (conv): Conv2d(41.47 k, 0.146% Params, 1.06 GMac, 2.541% MACs, 48, 96, kernel_size=(3, 3), stride=(2, 2), padding=(1, 1), bias=False)
        (bn): BatchNorm2d(192, 0.001% Params, 4.92 MMac, 0.012% MACs, 96, eps=0.001, momentum=0.03, affine=True, track_running_stats=True)
        (act): SiLU(0, 0.000% Params, 0.0 Mac, 0.000% MACs, inplace=True)
      )
      (2): C2f(
        111.36 k, 0.392% Params, 2.85 GMac, 6.822% MACs, 
        (cv1): Conv(
          9.41 k, 0.033% Params, 240.84 MMac, 0.576% MACs, 
          (conv): Conv2d(9.22 k, 0.032% Params, 235.93 MMac, 0.565% MACs, 96, 96, kernel_size=(1, 1), stride=(1, 1), bias=False)
          (bn): BatchNorm2d(192, 0.001% Params, 4.92 MMac, 0.012% MACs, 96, eps=0.001, momentum=0.03, affine=True, track_running_stats=True)
          (act): SiLU(0, 0.000% Params, 0.0 Mac, 0.000% MACs, inplace=True)
        )
        (cv2): Conv(
          18.62 k, 0.066% Params, 476.77 MMac, 1.141% MACs, 
          (conv): Conv2d(18.43 k, 0.065% Params, 471.86 MMac, 1.129% MACs, 192, 96, kernel_size=(1, 1), stride=(1, 1), bias=False)
          (bn): BatchNorm2d(192, 0.001% Params, 4.92 MMac, 0.012% MACs, 96, eps=0.001, momentum=0.03, affine=True, track_running_stats=True)
          (act): SiLU(0, 0.000% Params, 0.0 Mac, 0.000% MACs, inplace=True)
        )
        (m): ModuleList(
          (0-1): 2 x Bottleneck(
            41.66 k, 0.147% Params, 1.07 GMac, 2.552% MACs, 
            (cv1): Conv(
              20.83 k, 0.073% Params, 533.3 MMac, 1.276% MACs, 
              (conv): Conv2d(20.74 k, 0.073% Params, 530.84 MMac, 1.270% MACs, 48, 48, kernel_size=(3, 3), stride=(1, 1), padding=(1, 1), bias=False)
              (bn): BatchNorm2d(96, 0.000% Params, 2.46 MMac, 0.006% MACs, 48, eps=0.001, momentum=0.03, affine=True, track_running_stats=True)
              (act): SiLU(0, 0.000% Params, 0.0 Mac, 0.000% MACs, inplace=True)
            )
            (cv2): Conv(
              20.83 k, 0.073% Params, 533.3 MMac, 1.276% MACs, 
              (conv): Conv2d(20.74 k, 0.073% Params, 530.84 MMac, 1.270% MACs, 48, 48, kernel_size=(3, 3), stride=(1, 1), padding=(1, 1), bias=False)
              (bn): BatchNorm2d(96, 0.000% Params, 2.46 MMac, 0.006% MACs, 48, eps=0.001, momentum=0.03, affine=True, track_running_stats=True)
              (act): SiLU(0, 0.000% Params, 0.0 Mac, 0.000% MACs, inplace=True)
            )
          )
        )
      )
      (3): Conv(
        166.27 k, 0.585% Params, 1.06 GMac, 2.547% MACs, 
        (conv): Conv2d(165.89 k, 0.584% Params, 1.06 GMac, 2.541% MACs, 96, 192, kernel_size=(3, 3), stride=(2, 2), padding=(1, 1), bias=False)
        (bn): BatchNorm2d(384, 0.001% Params, 2.46 MMac, 0.006% MACs, 192, eps=0.001, momentum=0.03, affine=True, track_running_stats=True)
        (act): SiLU(0, 0.000% Params, 0.0 Mac, 0.000% MACs, inplace=True)
      )
      (4): C2f(
        813.31 k, 2.862% Params, 5.21 GMac, 12.456% MACs, 
        (cv1): Conv(
          37.25 k, 0.131% Params, 238.39 MMac, 0.570% MACs, 
          (conv): Conv2d(36.86 k, 0.130% Params, 235.93 MMac, 0.565% MACs, 192, 192, kernel_size=(1, 1), stride=(1, 1), bias=False)
          (bn): BatchNorm2d(384, 0.001% Params, 2.46 MMac, 0.006% MACs, 192, eps=0.001, momentum=0.03, affine=True, track_running_stats=True)
          (act): SiLU(0, 0.000% Params, 0.0 Mac, 0.000% MACs, inplace=True)
        )
        (cv2): Conv(
          110.98 k, 0.390% Params, 710.25 MMac, 1.700% MACs, 
          (conv): Conv2d(110.59 k, 0.389% Params, 707.79 MMac, 1.694% MACs, 576, 192, kernel_size=(1, 1), stride=(1, 1), bias=False)
          (bn): BatchNorm2d(384, 0.001% Params, 2.46 MMac, 0.006% MACs, 192, eps=0.001, momentum=0.03, affine=True, track_running_stats=True)
          (act): SiLU(0, 0.000% Params, 0.0 Mac, 0.000% MACs, inplace=True)
        )
        (m): ModuleList(
          (0-3): 4 x Bottleneck(
            166.27 k, 0.585% Params, 1.06 GMac, 2.547% MACs, 
            (cv1): Conv(
              83.14 k, 0.293% Params, 532.07 MMac, 1.273% MACs, 
              (conv): Conv2d(82.94 k, 0.292% Params, 530.84 MMac, 1.270% MACs, 96, 96, kernel_size=(3, 3), stride=(1, 1), padding=(1, 1), bias=False)
              (bn): BatchNorm2d(192, 0.001% Params, 1.23 MMac, 0.003% MACs, 96, eps=0.001, momentum=0.03, affine=True, track_running_stats=True)
              (act): SiLU(0, 0.000% Params, 0.0 Mac, 0.000% MACs, inplace=True)
            )
            (cv2): Conv(
              83.14 k, 0.293% Params, 532.07 MMac, 1.273% MACs, 
              (conv): Conv2d(82.94 k, 0.292% Params, 530.84 MMac, 1.270% MACs, 96, 96, kernel_size=(3, 3), stride=(1, 1), padding=(1, 1), bias=False)
              (bn): BatchNorm2d(192, 0.001% Params, 1.23 MMac, 0.003% MACs, 96, eps=0.001, momentum=0.03, affine=True, track_running_stats=True)
              (act): SiLU(0, 0.000% Params, 0.0 Mac, 0.000% MACs, inplace=True)
            )
          )
        )
      )
      (5): Conv(
        664.32 k, 2.337% Params, 1.06 GMac, 2.544% MACs, 
        (conv): Conv2d(663.55 k, 2.335% Params, 1.06 GMac, 2.541% MACs, 192, 384, kernel_size=(3, 3), stride=(2, 2), padding=(1, 1), bias=False)
        (bn): BatchNorm2d(768, 0.003% Params, 1.23 MMac, 0.003% MACs, 384, eps=0.001, momentum=0.03, affine=True, track_running_stats=True)
        (act): SiLU(0, 0.000% Params, 0.0 Mac, 0.000% MACs, inplace=True)
      )
      (6): C2f(
        3.25 M, 11.430% Params, 5.2 GMac, 12.439% MACs, 
        (cv1): Conv(
          148.22 k, 0.522% Params, 237.16 MMac, 0.568% MACs, 
          (conv): Conv2d(147.46 k, 0.519% Params, 235.93 MMac, 0.565% MACs, 384, 384, kernel_size=(1, 1), stride=(1, 1), bias=False)
          (bn): BatchNorm2d(768, 0.003% Params, 1.23 MMac, 0.003% MACs, 384, eps=0.001, momentum=0.03, affine=True, track_running_stats=True)
          (act): SiLU(0, 0.000% Params, 0.0 Mac, 0.000% MACs, inplace=True)
        )
        (cv2): Conv(
          443.14 k, 1.559% Params, 709.02 MMac, 1.697% MACs, 
          (conv): Conv2d(442.37 k, 1.556% Params, 707.79 MMac, 1.694% MACs, 1152, 384, kernel_size=(1, 1), stride=(1, 1), bias=False)
          (bn): BatchNorm2d(768, 0.003% Params, 1.23 MMac, 0.003% MACs, 384, eps=0.001, momentum=0.03, affine=True, track_running_stats=True)
          (act): SiLU(0, 0.000% Params, 0.0 Mac, 0.000% MACs, inplace=True)
        )
        (m): ModuleList(
          (0-3): 4 x Bottleneck(
            664.32 k, 2.337% Params, 1.06 GMac, 2.544% MACs, 
            (cv1): Conv(
              332.16 k, 1.169% Params, 531.46 MMac, 1.272% MACs, 
              (conv): Conv2d(331.78 k, 1.167% Params, 530.84 MMac, 1.270% MACs, 192, 192, kernel_size=(3, 3), stride=(1, 1), padding=(1, 1), bias=False)
              (bn): BatchNorm2d(384, 0.001% Params, 614.4 KMac, 0.001% MACs, 192, eps=0.001, momentum=0.03, affine=True, track_running_stats=True)
              (act): SiLU(0, 0.000% Params, 0.0 Mac, 0.000% MACs, inplace=True)
            )
            (cv2): Conv(
              332.16 k, 1.169% Params, 531.46 MMac, 1.272% MACs, 
              (conv): Conv2d(331.78 k, 1.167% Params, 530.84 MMac, 1.270% MACs, 192, 192, kernel_size=(3, 3), stride=(1, 1), padding=(1, 1), bias=False)
              (bn): BatchNorm2d(384, 0.001% Params, 614.4 KMac, 0.001% MACs, 192, eps=0.001, momentum=0.03, affine=True, track_running_stats=True)
              (act): SiLU(0, 0.000% Params, 0.0 Mac, 0.000% MACs, inplace=True)
            )
          )
        )
      )
      (7): Conv(
        1.99 M, 7.008% Params, 796.72 MMac, 1.907% MACs, 
        (conv): Conv2d(1.99 M, 7.004% Params, 796.26 MMac, 1.905% MACs, 384, 576, kernel_size=(3, 3), stride=(2, 2), padding=(1, 1), bias=False)
        (bn): BatchNorm2d(1.15 k, 0.004% Params, 460.8 KMac, 0.001% MACs, 576, eps=0.001, momentum=0.03, affine=True, track_running_stats=True)
        (act): SiLU(0, 0.000% Params, 0.0 Mac, 0.000% MACs, inplace=True)
      )
      (8): C2f(
        3.99 M, 14.025% Params, 1.59 GMac, 3.815% MACs, 
        (cv1): Conv(
          332.93 k, 1.171% Params, 133.17 MMac, 0.319% MACs, 
          (conv): Conv2d(331.78 k, 1.167% Params, 132.71 MMac, 0.318% MACs, 576, 576, kernel_size=(1, 1), stride=(1, 1), bias=False)
          (bn): BatchNorm2d(1.15 k, 0.004% Params, 460.8 KMac, 0.001% MACs, 576, eps=0.001, momentum=0.03, affine=True, track_running_stats=True)
          (act): SiLU(0, 0.000% Params, 0.0 Mac, 0.000% MACs, inplace=True)
        )
        (cv2): Conv(
          664.7 k, 2.339% Params, 265.88 MMac, 0.636% MACs, 
          (conv): Conv2d(663.55 k, 2.335% Params, 265.42 MMac, 0.635% MACs, 1152, 576, kernel_size=(1, 1), stride=(1, 1), bias=False)
          (bn): BatchNorm2d(1.15 k, 0.004% Params, 460.8 KMac, 0.001% MACs, 576, eps=0.001, momentum=0.03, affine=True, track_running_stats=True)
          (act): SiLU(0, 0.000% Params, 0.0 Mac, 0.000% MACs, inplace=True)
        )
        (m): ModuleList(
          (0-1): 2 x Bottleneck(
            1.49 M, 5.257% Params, 597.66 MMac, 1.430% MACs, 
            (cv1): Conv(
              747.07 k, 2.629% Params, 298.83 MMac, 0.715% MACs, 
              (conv): Conv2d(746.5 k, 2.627% Params, 298.6 MMac, 0.715% MACs, 288, 288, kernel_size=(3, 3), stride=(1, 1), padding=(1, 1), bias=False)
              (bn): BatchNorm2d(576, 0.002% Params, 230.4 KMac, 0.001% MACs, 288, eps=0.001, momentum=0.03, affine=True, track_running_stats=True)
              (act): SiLU(0, 0.000% Params, 0.0 Mac, 0.000% MACs, inplace=True)
            )
            (cv2): Conv(
              747.07 k, 2.629% Params, 298.83 MMac, 0.715% MACs, 
              (conv): Conv2d(746.5 k, 2.627% Params, 298.6 MMac, 0.715% MACs, 288, 288, kernel_size=(3, 3), stride=(1, 1), padding=(1, 1), bias=False)
              (bn): BatchNorm2d(576, 0.002% Params, 230.4 KMac, 0.001% MACs, 288, eps=0.001, momentum=0.03, affine=True, track_running_stats=True)
              (act): SiLU(0, 0.000% Params, 0.0 Mac, 0.000% MACs, inplace=True)
            )
          )
        )
      )
      (9): SPPF(
        831.17 k, 2.924% Params, 332.81 MMac, 0.796% MACs, 
        (cv1): Conv(
          166.46 k, 0.586% Params, 66.59 MMac, 0.159% MACs, 
          (conv): Conv2d(165.89 k, 0.584% Params, 66.36 MMac, 0.159% MACs, 576, 288, kernel_size=(1, 1), stride=(1, 1), bias=False)
          (bn): BatchNorm2d(576, 0.002% Params, 230.4 KMac, 0.001% MACs, 288, eps=0.001, momentum=0.03, affine=True, track_running_stats=True)
          (act): SiLU(0, 0.000% Params, 0.0 Mac, 0.000% MACs, inplace=True)
        )
        (cv2): Conv(
          664.7 k, 2.339% Params, 265.88 MMac, 0.636% MACs, 
          (conv): Conv2d(663.55 k, 2.335% Params, 265.42 MMac, 0.635% MACs, 1152, 576, kernel_size=(1, 1), stride=(1, 1), bias=False)
          (bn): BatchNorm2d(1.15 k, 0.004% Params, 460.8 KMac, 0.001% MACs, 576, eps=0.001, momentum=0.03, affine=True, track_running_stats=True)
          (act): SiLU(0, 0.000% Params, 0.0 Mac, 0.000% MACs, inplace=True)
        )
        (m): MaxPool2d(0, 0.000% Params, 345.6 KMac, 0.001% MACs, kernel_size=5, stride=1, padding=2, dilation=1, ceil_mode=False)
      )
      (10): SpatialAlignCrossAttentionCosFormer(
        2.0 M, 7.031% Params, 799.95 MMac, 1.914% MACs, 
        (upsample): Upsample(0, 0.000% Params, 0.0 Mac, 0.000% MACs, scale_factor=2.0, mode='bilinear')
        (high_to_low_embed): Sequential(
          222.34 k, 0.782% Params, 88.93 MMac, 0.213% MACs, 
          (0): Conv2d(221.57 k, 0.780% Params, 88.63 MMac, 0.212% MACs, 576, 384, kernel_size=(1, 1), stride=(1, 1))
          (1): BatchNorm2d(768, 0.003% Params, 307.2 KMac, 0.001% MACs, 384, eps=0.001, momentum=0.03, affine=True, track_running_stats=True)
        )
        (q_proj): Sequential(
          148.61 k, 0.523% Params, 59.29 MMac, 0.142% MACs, 
          (0): Linear(147.84 k, 0.520% Params, 59.14 MMac, 0.142% MACs, in_features=384, out_features=384, bias=True)
          (1): LayerNorm(768, 0.003% Params, 153.6 KMac, 0.000% MACs, (384,), eps=1e-05, elementwise_affine=True)
        )
        (k_proj): Sequential(
          148.61 k, 0.523% Params, 59.29 MMac, 0.142% MACs, 
          (0): Linear(147.84 k, 0.520% Params, 59.14 MMac, 0.142% MACs, in_features=384, out_features=384, bias=True)
          (1): LayerNorm(768, 0.003% Params, 153.6 KMac, 0.000% MACs, (384,), eps=1e-05, elementwise_affine=True)
        )
        (v_proj): Linear(147.84 k, 0.520% Params, 59.14 MMac, 0.142% MACs, in_features=384, out_features=384, bias=True)
        (out_proj): Linear(147.84 k, 0.520% Params, 59.14 MMac, 0.142% MACs, in_features=384, out_features=384, bias=True)
        (linear1): Linear(591.36 k, 2.081% Params, 236.54 MMac, 0.566% MACs, in_features=384, out_features=1536, bias=True)
        (dropout): Dropout(0, 0.000% Params, 0.0 Mac, 0.000% MACs, p=0.0, inplace=False)
        (linear2): Linear(590.21 k, 2.077% Params, 236.08 MMac, 0.565% MACs, in_features=1536, out_features=384, bias=True)
        (norm1): LayerNorm(768, 0.003% Params, 153.6 KMac, 0.000% MACs, (384,), eps=1e-05, elementwise_affine=True)
        (norm2): LayerNorm(768, 0.003% Params, 153.6 KMac, 0.000% MACs, (384,), eps=1e-05, elementwise_affine=True)
        (dropout1): Dropout(0, 0.000% Params, 0.0 Mac, 0.000% MACs, p=0.0, inplace=False)
        (dropout2): Dropout(0, 0.000% Params, 0.0 Mac, 0.000% MACs, p=0.0, inplace=False)
        (activation): GELU(0, 0.000% Params, 614.4 KMac, 0.001% MACs, approximate='none')
        (avg_pool_2x): AvgPool2d(0, 0.000% Params, 614.4 KMac, 0.001% MACs, kernel_size=2, stride=2, padding=0)
        (avg_pool_4x): AvgPool2d(0, 0.000% Params, 0.0 Mac, 0.000% MACs, kernel_size=4, stride=4, padding=0)
      )
      (11): C2f(
        1.99 M, 7.015% Params, 3.19 GMac, 7.634% MACs, 
        (cv1): Conv(
          369.41 k, 1.300% Params, 591.05 MMac, 1.414% MACs, 
          (conv): Conv2d(368.64 k, 1.297% Params, 589.82 MMac, 1.411% MACs, 960, 384, kernel_size=(1, 1), stride=(1, 1), bias=False)
          (bn): BatchNorm2d(768, 0.003% Params, 1.23 MMac, 0.003% MACs, 384, eps=0.001, momentum=0.03, affine=True, track_running_stats=True)
          (act): SiLU(0, 0.000% Params, 0.0 Mac, 0.000% MACs, inplace=True)
        )
        (cv2): Conv(
          295.68 k, 1.040% Params, 473.09 MMac, 1.132% MACs, 
          (conv): Conv2d(294.91 k, 1.038% Params, 471.86 MMac, 1.129% MACs, 768, 384, kernel_size=(1, 1), stride=(1, 1), bias=False)
          (bn): BatchNorm2d(768, 0.003% Params, 1.23 MMac, 0.003% MACs, 384, eps=0.001, momentum=0.03, affine=True, track_running_stats=True)
          (act): SiLU(0, 0.000% Params, 0.0 Mac, 0.000% MACs, inplace=True)
        )
        (m): ModuleList(
          (0-1): 2 x Bottleneck(
            664.32 k, 2.337% Params, 1.06 GMac, 2.544% MACs, 
            (cv1): Conv(
              332.16 k, 1.169% Params, 531.46 MMac, 1.272% MACs, 
              (conv): Conv2d(331.78 k, 1.167% Params, 530.84 MMac, 1.270% MACs, 192, 192, kernel_size=(3, 3), stride=(1, 1), padding=(1, 1), bias=False)
              (bn): BatchNorm2d(384, 0.001% Params, 614.4 KMac, 0.001% MACs, 192, eps=0.001, momentum=0.03, affine=True, track_running_stats=True)
              (act): SiLU(0, 0.000% Params, 0.0 Mac, 0.000% MACs, inplace=True)
            )
            (cv2): Conv(
              332.16 k, 1.169% Params, 531.46 MMac, 1.272% MACs, 
              (conv): Conv2d(331.78 k, 1.167% Params, 530.84 MMac, 1.270% MACs, 192, 192, kernel_size=(3, 3), stride=(1, 1), padding=(1, 1), bias=False)
              (bn): BatchNorm2d(384, 0.001% Params, 614.4 KMac, 0.001% MACs, 192, eps=0.001, momentum=0.03, affine=True, track_running_stats=True)
              (act): SiLU(0, 0.000% Params, 0.0 Mac, 0.000% MACs, inplace=True)
            )
          )
        )
      )
      (12): SpatialAlignCrossAttentionCosFormer(
        519.94 k, 1.829% Params, 298.68 MMac, 0.715% MACs, 
        (upsample): Upsample(0, 0.000% Params, 0.0 Mac, 0.000% MACs, scale_factor=2.0, mode='bilinear')
        (high_to_low_embed): Sequential(
          74.3 k, 0.261% Params, 118.89 MMac, 0.285% MACs, 
          (0): Conv2d(73.92 k, 0.260% Params, 118.27 MMac, 0.283% MACs, 384, 192, kernel_size=(1, 1), stride=(1, 1))
          (1): BatchNorm2d(384, 0.001% Params, 614.4 KMac, 0.001% MACs, 192, eps=0.001, momentum=0.03, affine=True, track_running_stats=True)
        )
        (q_proj): Sequential(
          37.44 k, 0.132% Params, 14.9 MMac, 0.036% MACs, 
          (0): Linear(37.06 k, 0.130% Params, 14.82 MMac, 0.035% MACs, in_features=192, out_features=192, bias=True)
          (1): LayerNorm(384, 0.001% Params, 76.8 KMac, 0.000% MACs, (192,), eps=1e-05, elementwise_affine=True)
        )
        (k_proj): Sequential(
          37.44 k, 0.132% Params, 14.9 MMac, 0.036% MACs, 
          (0): Linear(37.06 k, 0.130% Params, 14.82 MMac, 0.035% MACs, in_features=192, out_features=192, bias=True)
          (1): LayerNorm(384, 0.001% Params, 76.8 KMac, 0.000% MACs, (192,), eps=1e-05, elementwise_affine=True)
        )
        (v_proj): Linear(37.06 k, 0.130% Params, 14.82 MMac, 0.035% MACs, in_features=192, out_features=192, bias=True)
        (out_proj): Linear(37.06 k, 0.130% Params, 14.82 MMac, 0.035% MACs, in_features=192, out_features=192, bias=True)
        (linear1): Linear(148.22 k, 0.522% Params, 59.29 MMac, 0.142% MACs, in_features=192, out_features=768, bias=True)
        (dropout): Dropout(0, 0.000% Params, 0.0 Mac, 0.000% MACs, p=0.0, inplace=False)
        (linear2): Linear(147.65 k, 0.520% Params, 59.06 MMac, 0.141% MACs, in_features=768, out_features=192, bias=True)
        (norm1): LayerNorm(384, 0.001% Params, 76.8 KMac, 0.000% MACs, (192,), eps=1e-05, elementwise_affine=True)
        (norm2): LayerNorm(384, 0.001% Params, 76.8 KMac, 0.000% MACs, (192,), eps=1e-05, elementwise_affine=True)
        (dropout1): Dropout(0, 0.000% Params, 0.0 Mac, 0.000% MACs, p=0.0, inplace=False)
        (dropout2): Dropout(0, 0.000% Params, 0.0 Mac, 0.000% MACs, p=0.0, inplace=False)
        (activation): GELU(0, 0.000% Params, 307.2 KMac, 0.001% MACs, approximate='none')
        (avg_pool_2x): AvgPool2d(0, 0.000% Params, 307.2 KMac, 0.001% MACs, kernel_size=2, stride=2, padding=0)
        (avg_pool_4x): AvgPool2d(0, 0.000% Params, 1.23 MMac, 0.003% MACs, kernel_size=4, stride=4, padding=0)
      )
      (13): C2f(
        517.63 k, 1.821% Params, 3.31 GMac, 7.928% MACs, 
        (cv1): Conv(
          110.98 k, 0.390% Params, 710.25 MMac, 1.700% MACs, 
          (conv): Conv2d(110.59 k, 0.389% Params, 707.79 MMac, 1.694% MACs, 576, 192, kernel_size=(1, 1), stride=(1, 1), bias=False)
          (bn): BatchNorm2d(384, 0.001% Params, 2.46 MMac, 0.006% MACs, 192, eps=0.001, momentum=0.03, affine=True, track_running_stats=True)
          (act): SiLU(0, 0.000% Params, 0.0 Mac, 0.000% MACs, inplace=True)
        )
        (cv2): Conv(
          74.11 k, 0.261% Params, 474.32 MMac, 1.135% MACs, 
          (conv): Conv2d(73.73 k, 0.259% Params, 471.86 MMac, 1.129% MACs, 384, 192, kernel_size=(1, 1), stride=(1, 1), bias=False)
          (bn): BatchNorm2d(384, 0.001% Params, 2.46 MMac, 0.006% MACs, 192, eps=0.001, momentum=0.03, affine=True, track_running_stats=True)
          (act): SiLU(0, 0.000% Params, 0.0 Mac, 0.000% MACs, inplace=True)
        )
        (m): ModuleList(
          (0-1): 2 x Bottleneck(
            166.27 k, 0.585% Params, 1.06 GMac, 2.547% MACs, 
            (cv1): Conv(
              83.14 k, 0.293% Params, 532.07 MMac, 1.273% MACs, 
              (conv): Conv2d(82.94 k, 0.292% Params, 530.84 MMac, 1.270% MACs, 96, 96, kernel_size=(3, 3), stride=(1, 1), padding=(1, 1), bias=False)
              (bn): BatchNorm2d(192, 0.001% Params, 1.23 MMac, 0.003% MACs, 96, eps=0.001, momentum=0.03, affine=True, track_running_stats=True)
              (act): SiLU(0, 0.000% Params, 0.0 Mac, 0.000% MACs, inplace=True)
            )
            (cv2): Conv(
              83.14 k, 0.293% Params, 532.07 MMac, 1.273% MACs, 
              (conv): Conv2d(82.94 k, 0.292% Params, 530.84 MMac, 1.270% MACs, 96, 96, kernel_size=(3, 3), stride=(1, 1), padding=(1, 1), bias=False)
              (bn): BatchNorm2d(192, 0.001% Params, 1.23 MMac, 0.003% MACs, 96, eps=0.001, momentum=0.03, affine=True, track_running_stats=True)
              (act): SiLU(0, 0.000% Params, 0.0 Mac, 0.000% MACs, inplace=True)
            )
          )
        )
      )
      (14): Conv(
        332.16 k, 1.169% Params, 531.46 MMac, 1.272% MACs, 
        (conv): Conv2d(331.78 k, 1.167% Params, 530.84 MMac, 1.270% MACs, 192, 192, kernel_size=(3, 3), stride=(2, 2), padding=(1, 1), bias=False)
        (bn): BatchNorm2d(384, 0.001% Params, 614.4 KMac, 0.001% MACs, 192, eps=0.001, momentum=0.03, affine=True, track_running_stats=True)
        (act): SiLU(0, 0.000% Params, 0.0 Mac, 0.000% MACs, inplace=True)
      )
      (15): Concat(0, 0.000% Params, 0.0 Mac, 0.000% MACs, )
      (16): C2f(
        1.85 M, 6.496% Params, 2.95 GMac, 7.069% MACs, 
        (cv1): Conv(
          221.95 k, 0.781% Params, 355.12 MMac, 0.850% MACs, 
          (conv): Conv2d(221.18 k, 0.778% Params, 353.89 MMac, 0.847% MACs, 576, 384, kernel_size=(1, 1), stride=(1, 1), bias=False)
          (bn): BatchNorm2d(768, 0.003% Params, 1.23 MMac, 0.003% MACs, 384, eps=0.001, momentum=0.03, affine=True, track_running_stats=True)
          (act): SiLU(0, 0.000% Params, 0.0 Mac, 0.000% MACs, inplace=True)
        )
        (cv2): Conv(
          295.68 k, 1.040% Params, 473.09 MMac, 1.132% MACs, 
          (conv): Conv2d(294.91 k, 1.038% Params, 471.86 MMac, 1.129% MACs, 768, 384, kernel_size=(1, 1), stride=(1, 1), bias=False)
          (bn): BatchNorm2d(768, 0.003% Params, 1.23 MMac, 0.003% MACs, 384, eps=0.001, momentum=0.03, affine=True, track_running_stats=True)
          (act): SiLU(0, 0.000% Params, 0.0 Mac, 0.000% MACs, inplace=True)
        )
        (m): ModuleList(
          (0-1): 2 x Bottleneck(
            664.32 k, 2.337% Params, 1.06 GMac, 2.544% MACs, 
            (cv1): Conv(
              332.16 k, 1.169% Params, 531.46 MMac, 1.272% MACs, 
              (conv): Conv2d(331.78 k, 1.167% Params, 530.84 MMac, 1.270% MACs, 192, 192, kernel_size=(3, 3), stride=(1, 1), padding=(1, 1), bias=False)
              (bn): BatchNorm2d(384, 0.001% Params, 614.4 KMac, 0.001% MACs, 192, eps=0.001, momentum=0.03, affine=True, track_running_stats=True)
              (act): SiLU(0, 0.000% Params, 0.0 Mac, 0.000% MACs, inplace=True)
            )
            (cv2): Conv(
              332.16 k, 1.169% Params, 531.46 MMac, 1.272% MACs, 
              (conv): Conv2d(331.78 k, 1.167% Params, 530.84 MMac, 1.270% MACs, 192, 192, kernel_size=(3, 3), stride=(1, 1), padding=(1, 1), bias=False)
              (bn): BatchNorm2d(384, 0.001% Params, 614.4 KMac, 0.001% MACs, 192, eps=0.001, momentum=0.03, affine=True, track_running_stats=True)
              (act): SiLU(0, 0.000% Params, 0.0 Mac, 0.000% MACs, inplace=True)
            )
          )
        )
      )
      (17): Conv(
        1.33 M, 4.672% Params, 531.15 MMac, 1.271% MACs, 
        (conv): Conv2d(1.33 M, 4.669% Params, 530.84 MMac, 1.270% MACs, 384, 384, kernel_size=(3, 3), stride=(2, 2), padding=(1, 1), bias=False)
        (bn): BatchNorm2d(768, 0.003% Params, 307.2 KMac, 0.001% MACs, 384, eps=0.001, momentum=0.03, affine=True, track_running_stats=True)
        (act): SiLU(0, 0.000% Params, 0.0 Mac, 0.000% MACs, inplace=True)
      )
      (18): Concat(0, 0.000% Params, 0.0 Mac, 0.000% MACs, )
      (19): C2f(
        4.21 M, 14.803% Params, 1.68 GMac, 4.027% MACs, 
        (cv1): Conv(
          554.11 k, 1.950% Params, 221.64 MMac, 0.530% MACs, 
          (conv): Conv2d(552.96 k, 1.946% Params, 221.18 MMac, 0.529% MACs, 960, 576, kernel_size=(1, 1), stride=(1, 1), bias=False)
          (bn): BatchNorm2d(1.15 k, 0.004% Params, 460.8 KMac, 0.001% MACs, 576, eps=0.001, momentum=0.03, affine=True, track_running_stats=True)
          (act): SiLU(0, 0.000% Params, 0.0 Mac, 0.000% MACs, inplace=True)
        )
        (cv2): Conv(
          664.7 k, 2.339% Params, 265.88 MMac, 0.636% MACs, 
          (conv): Conv2d(663.55 k, 2.335% Params, 265.42 MMac, 0.635% MACs, 1152, 576, kernel_size=(1, 1), stride=(1, 1), bias=False)
          (bn): BatchNorm2d(1.15 k, 0.004% Params, 460.8 KMac, 0.001% MACs, 576, eps=0.001, momentum=0.03, affine=True, track_running_stats=True)
          (act): SiLU(0, 0.000% Params, 0.0 Mac, 0.000% MACs, inplace=True)
        )
        (m): ModuleList(
          (0-1): 2 x Bottleneck(
            1.49 M, 5.257% Params, 597.66 MMac, 1.430% MACs, 
            (cv1): Conv(
              747.07 k, 2.629% Params, 298.83 MMac, 0.715% MACs, 
              (conv): Conv2d(746.5 k, 2.627% Params, 298.6 MMac, 0.715% MACs, 288, 288, kernel_size=(3, 3), stride=(1, 1), padding=(1, 1), bias=False)
              (bn): BatchNorm2d(576, 0.002% Params, 230.4 KMac, 0.001% MACs, 288, eps=0.001, momentum=0.03, affine=True, track_running_stats=True)
              (act): SiLU(0, 0.000% Params, 0.0 Mac, 0.000% MACs, inplace=True)
            )
            (cv2): Conv(
              747.07 k, 2.629% Params, 298.83 MMac, 0.715% MACs, 
              (conv): Conv2d(746.5 k, 2.627% Params, 298.6 MMac, 0.715% MACs, 288, 288, kernel_size=(3, 3), stride=(1, 1), padding=(1, 1), bias=False)
              (bn): BatchNorm2d(576, 0.002% Params, 230.4 KMac, 0.001% MACs, 288, eps=0.001, momentum=0.03, affine=True, track_running_stats=True)
              (act): SiLU(0, 0.000% Params, 0.0 Mac, 0.000% MACs, inplace=True)
            )
          )
        )
      )
      (20): Detect(
        3.82 M, 13.448% Params, 8.05 GMac, 19.259% MACs, 
        (cv2): ModuleList(
          (0): Sequential(
            151.87 k, 0.534% Params, 971.98 MMac, 2.326% MACs, 
            (0): Conv(
              110.72 k, 0.390% Params, 708.61 MMac, 1.696% MACs, 
              (conv): Conv2d(110.59 k, 0.389% Params, 707.79 MMac, 1.694% MACs, 192, 64, kernel_size=(3, 3), stride=(1, 1), padding=(1, 1), bias=False)
              (bn): BatchNorm2d(128, 0.000% Params, 819.2 KMac, 0.002% MACs, 64, eps=0.001, momentum=0.03, affine=True, track_running_stats=True)
              (act): SiLU(0, 0.000% Params, 0.0 Mac, 0.000% MACs, inplace=True)
            )
            (1): Conv(
              36.99 k, 0.130% Params, 236.75 MMac, 0.567% MACs, 
              (conv): Conv2d(36.86 k, 0.130% Params, 235.93 MMac, 0.565% MACs, 64, 64, kernel_size=(3, 3), stride=(1, 1), padding=(1, 1), bias=False)
              (bn): BatchNorm2d(128, 0.000% Params, 819.2 KMac, 0.002% MACs, 64, eps=0.001, momentum=0.03, affine=True, track_running_stats=True)
              (act): SiLU(0, 0.000% Params, 0.0 Mac, 0.000% MACs, inplace=True)
            )
            (2): Conv2d(4.16 k, 0.015% Params, 26.62 MMac, 0.064% MACs, 64, 64, kernel_size=(1, 1), stride=(1, 1))
          )
          (1): Sequential(
            262.46 k, 0.923% Params, 419.94 MMac, 1.005% MACs, 
            (0): Conv(
              221.31 k, 0.779% Params, 354.1 MMac, 0.847% MACs, 
              (conv): Conv2d(221.18 k, 0.778% Params, 353.89 MMac, 0.847% MACs, 384, 64, kernel_size=(3, 3), stride=(1, 1), padding=(1, 1), bias=False)
              (bn): BatchNorm2d(128, 0.000% Params, 204.8 KMac, 0.000% MACs, 64, eps=0.001, momentum=0.03, affine=True, track_running_stats=True)
              (act): SiLU(0, 0.000% Params, 0.0 Mac, 0.000% MACs, inplace=True)
            )
            (1): Conv(
              36.99 k, 0.130% Params, 59.19 MMac, 0.142% MACs, 
              (conv): Conv2d(36.86 k, 0.130% Params, 58.98 MMac, 0.141% MACs, 64, 64, kernel_size=(3, 3), stride=(1, 1), padding=(1, 1), bias=False)
              (bn): BatchNorm2d(128, 0.000% Params, 204.8 KMac, 0.000% MACs, 64, eps=0.001, momentum=0.03, affine=True, track_running_stats=True)
              (act): SiLU(0, 0.000% Params, 0.0 Mac, 0.000% MACs, inplace=True)
            )
            (2): Conv2d(4.16 k, 0.015% Params, 6.66 MMac, 0.016% MACs, 64, 64, kernel_size=(1, 1), stride=(1, 1))
          )
          (2): Sequential(
            373.06 k, 1.313% Params, 149.22 MMac, 0.357% MACs, 
            (0): Conv(
              331.9 k, 1.168% Params, 132.76 MMac, 0.318% MACs, 
              (conv): Conv2d(331.78 k, 1.167% Params, 132.71 MMac, 0.318% MACs, 576, 64, kernel_size=(3, 3), stride=(1, 1), padding=(1, 1), bias=False)
              (bn): BatchNorm2d(128, 0.000% Params, 51.2 KMac, 0.000% MACs, 64, eps=0.001, momentum=0.03, affine=True, track_running_stats=True)
              (act): SiLU(0, 0.000% Params, 0.0 Mac, 0.000% MACs, inplace=True)
            )
            (1): Conv(
              36.99 k, 0.130% Params, 14.8 MMac, 0.035% MACs, 
              (conv): Conv2d(36.86 k, 0.130% Params, 14.75 MMac, 0.035% MACs, 64, 64, kernel_size=(3, 3), stride=(1, 1), padding=(1, 1), bias=False)
              (bn): BatchNorm2d(128, 0.000% Params, 51.2 KMac, 0.000% MACs, 64, eps=0.001, momentum=0.03, affine=True, track_running_stats=True)
              (act): SiLU(0, 0.000% Params, 0.0 Mac, 0.000% MACs, inplace=True)
            )
            (2): Conv2d(4.16 k, 0.015% Params, 1.66 MMac, 0.004% MACs, 64, 64, kernel_size=(1, 1), stride=(1, 1))
          )
        )
        (cv3): ModuleList(
          (0): Sequential(
            679.76 k, 2.392% Params, 4.35 GMac, 10.411% MACs, 
            (0): Conv(
              332.16 k, 1.169% Params, 2.13 GMac, 5.087% MACs, 
              (conv): Conv2d(331.78 k, 1.167% Params, 2.12 GMac, 5.081% MACs, 192, 192, kernel_size=(3, 3), stride=(1, 1), padding=(1, 1), bias=False)
              (bn): BatchNorm2d(384, 0.001% Params, 2.46 MMac, 0.006% MACs, 192, eps=0.001, momentum=0.03, affine=True, track_running_stats=True)
              (act): SiLU(0, 0.000% Params, 0.0 Mac, 0.000% MACs, inplace=True)
            )
            (1): Conv(
              332.16 k, 1.169% Params, 2.13 GMac, 5.087% MACs, 
              (conv): Conv2d(331.78 k, 1.167% Params, 2.12 GMac, 5.081% MACs, 192, 192, kernel_size=(3, 3), stride=(1, 1), padding=(1, 1), bias=False)
              (bn): BatchNorm2d(384, 0.001% Params, 2.46 MMac, 0.006% MACs, 192, eps=0.001, momentum=0.03, affine=True, track_running_stats=True)
              (act): SiLU(0, 0.000% Params, 0.0 Mac, 0.000% MACs, inplace=True)
            )
            (2): Conv2d(15.44 k, 0.054% Params, 98.82 MMac, 0.236% MACs, 192, 80, kernel_size=(1, 1), stride=(1, 1))
          )
          (1): Sequential(
            1.01 M, 3.559% Params, 1.62 GMac, 3.873% MACs, 
            (0): Conv(
              663.94 k, 2.336% Params, 1.06 GMac, 2.542% MACs, 
              (conv): Conv2d(663.55 k, 2.335% Params, 1.06 GMac, 2.541% MACs, 384, 192, kernel_size=(3, 3), stride=(1, 1), padding=(1, 1), bias=False)
              (bn): BatchNorm2d(384, 0.001% Params, 614.4 KMac, 0.001% MACs, 192, eps=0.001, momentum=0.03, affine=True, track_running_stats=True)
              (act): SiLU(0, 0.000% Params, 0.0 Mac, 0.000% MACs, inplace=True)
            )
            (1): Conv(
              332.16 k, 1.169% Params, 531.46 MMac, 1.272% MACs, 
              (conv): Conv2d(331.78 k, 1.167% Params, 530.84 MMac, 1.270% MACs, 192, 192, kernel_size=(3, 3), stride=(1, 1), padding=(1, 1), bias=False)
              (bn): BatchNorm2d(384, 0.001% Params, 614.4 KMac, 0.001% MACs, 192, eps=0.001, momentum=0.03, affine=True, track_running_stats=True)
              (act): SiLU(0, 0.000% Params, 0.0 Mac, 0.000% MACs, inplace=True)
            )
            (2): Conv2d(15.44 k, 0.054% Params, 24.7 MMac, 0.059% MACs, 192, 80, kernel_size=(1, 1), stride=(1, 1))
          )
          (2): Sequential(
            1.34 M, 4.726% Params, 537.32 MMac, 1.286% MACs, 
            (0): Conv(
              995.71 k, 3.503% Params, 398.28 MMac, 0.953% MACs, 
              (conv): Conv2d(995.33 k, 3.502% Params, 398.13 MMac, 0.953% MACs, 576, 192, kernel_size=(3, 3), stride=(1, 1), padding=(1, 1), bias=False)
              (bn): BatchNorm2d(384, 0.001% Params, 153.6 KMac, 0.000% MACs, 192, eps=0.001, momentum=0.03, affine=True, track_running_stats=True)
              (act): SiLU(0, 0.000% Params, 0.0 Mac, 0.000% MACs, inplace=True)
            )
            (1): Conv(
              332.16 k, 1.169% Params, 132.86 MMac, 0.318% MACs, 
              (conv): Conv2d(331.78 k, 1.167% Params, 132.71 MMac, 0.318% MACs, 192, 192, kernel_size=(3, 3), stride=(1, 1), padding=(1, 1), bias=False)
              (bn): BatchNorm2d(384, 0.001% Params, 153.6 KMac, 0.000% MACs, 192, eps=0.001, momentum=0.03, affine=True, track_running_stats=True)
              (act): SiLU(0, 0.000% Params, 0.0 Mac, 0.000% MACs, inplace=True)
            )
            (2): Conv2d(15.44 k, 0.054% Params, 6.18 MMac, 0.015% MACs, 192, 80, kernel_size=(1, 1), stride=(1, 1))
          )
        )
        (dfl): DFL(
          0, 0.000% Params, 537.6 KMac, 0.001% MACs, 
          (conv): Conv2d(0, 0.000% Params, 537.6 KMac, 0.001% MACs, 16, 1, kernel_size=(1, 1), stride=(1, 1), bias=False)
        )
      )
    )
  )
)
FLOPs: 41.79 GMac, Params: 28.42 M

      Epoch    GPU_mem   box_loss   cls_loss   dfl_loss  Instances       Size
self.start_epoch: 0
Warning: module SiLU is treated as a zero-op.
Warning: module Conv is treated as a zero-op.
Warning: module Bottleneck is treated as a zero-op.
…
