…
loading annotations into memory...
Done (t=0.24s)
creating index...
index created!
Creating data loaders
Using [0, 0.5, 0.6299605249474365, 0.7937005259840997, 1.0, 1.259921049894873, 1.5874010519681991, 2.0, inf] as bins for aspect ratio quantization
Count of instances per bin: [  104   982 24236  2332  8225 74466  5763  1158]
Creating model
model: FasterRCNN(
  (transform): GeneralizedRCNNTransform(
      Normalize(mean=[0.485, 0.456, 0.406], std=[0.229, 0.224, 0.225])
      Resize(min_size=(800,), max_size=1333, mode='bilinear')
  )
  (backbone): BackboneWithFPN(
    (body): IntermediateLayerGetter(
      (conv1): Conv2d(3, 64, kernel_size=(7, 7), stride=(2, 2), padding=(3, 3), bias=False)
      (bn1): FrozenBatchNorm2d(64, eps=1e-05)
      (relu): ReLU(inplace=True)
      (maxpool): MaxPool2d(kernel_size=3, stride=2, padding=1, dilation=1, ceil_mode=False)
      (layer1): Sequential(
        (0): Bottleneck(
          (conv1): Conv2d(64, 64, kernel_size=(1, 1), stride=(1, 1), bias=False)
          (bn1): FrozenBatchNorm2d(64, eps=1e-05)
          (conv2): Conv2d(64, 64, kernel_size=(3, 3), stride=(1, 1), padding=(1, 1), bias=False)
          (bn2): FrozenBatchNorm2d(64, eps=1e-05)
          (conv3): Conv2d(64, 256, kernel_size=(1, 1), stride=(1, 1), bias=False)
          (bn3): FrozenBatchNorm2d(256, eps=1e-05)
          (relu): ReLU(inplace=True)
          (downsample): Sequential(
            (0): Conv2d(64, 256, kernel_size=(1, 1), stride=(1, 1), bias=False)
            (1): FrozenBatchNorm2d(256, eps=1e-05)
          )
        )
        (1): Bottleneck(
          (conv1): Conv2d(256, 64, kernel_size=(1, 1), stride=(1, 1), bias=False)
          (bn1): FrozenBatchNorm2d(64, eps=1e-05)
          (conv2): Conv2d(64, 64, kernel_size=(3, 3), stride=(1, 1), padding=(1, 1), bias=False)
          (bn2): FrozenBatchNorm2d(64, eps=1e-05)
          (conv3): Conv2d(64, 256, kernel_size=(1, 1), stride=(1, 1), bias=False)
          (bn3): FrozenBatchNorm2d(256, eps=1e-05)
          (relu): ReLU(inplace=True)
        )
        (2): Bottleneck(
          (conv1): Conv2d(256, 64, kernel_size=(1, 1), stride=(1, 1), bias=False)
          (bn1): FrozenBatchNorm2d(64, eps=1e-05)
          (conv2): Conv2d(64, 64, kernel_size=(3, 3), stride=(1, 1), padding=(1, 1), bias=False)
          (bn2): FrozenBatchNorm2d(64, eps=1e-05)
          (conv3): Conv2d(64, 256, kernel_size=(1, 1), stride=(1, 1), bias=False)
          (bn3): FrozenBatchNorm2d(256, eps=1e-05)
          (relu): ReLU(inplace=True)
        )
      )
      (layer2): Sequential(
        (0): Bottleneck(
          (conv1): Conv2d(256, 128, kernel_size=(1, 1), stride=(1, 1), bias=False)
          (bn1): FrozenBatchNorm2d(128, eps=1e-05)
          (conv2): Conv2d(128, 128, kernel_size=(3, 3), stride=(2, 2), padding=(1, 1), bias=False)
          (bn2): FrozenBatchNorm2d(128, eps=1e-05)
          (conv3): Conv2d(128, 512, kernel_size=(1, 1), stride=(1, 1), bias=False)
          (bn3): FrozenBatchNorm2d(512, eps=1e-05)
          (relu): ReLU(inplace=True)
          (downsample): Sequential(
            (0): Conv2d(256, 512, kernel_size=(1, 1), stride=(2, 2), bias=False)
            (1): FrozenBatchNorm2d(512, eps=1e-05)
          )
        )
        (1): Bottleneck(
          (conv1): Conv2d(512, 128, kernel_size=(1, 1), stride=(1, 1), bias=False)
          (bn1): FrozenBatchNorm2d(128, eps=1e-05)
          (conv2): Conv2d(128, 128, kernel_size=(3, 3), stride=(1, 1), padding=(1, 1), bias=False)
          (bn2): FrozenBatchNorm2d(128, eps=1e-05)
          (conv3): Conv2d(128, 512, kernel_size=(1, 1), stride=(1, 1), bias=False)
          (bn3): FrozenBatchNorm2d(512, eps=1e-05)
          (relu): ReLU(inplace=True)
        )
        (2): Bottleneck(
          (conv1): Conv2d(512, 128, kernel_size=(1, 1), stride=(1, 1), bias=False)
          (bn1): FrozenBatchNorm2d(128, eps=1e-05)
          (conv2): Conv2d(128, 128, kernel_size=(3, 3), stride=(1, 1), padding=(1, 1), bias=False)
          (bn2): FrozenBatchNorm2d(128, eps=1e-05)
          (conv3): Conv2d(128, 512, kernel_size=(1, 1), stride=(1, 1), bias=False)
          (bn3): FrozenBatchNorm2d(512, eps=1e-05)
          (relu): ReLU(inplace=True)
        )
        (3): Bottleneck(
          (conv1): Conv2d(512, 128, kernel_size=(1, 1), stride=(1, 1), bias=False)
          (bn1): FrozenBatchNorm2d(128, eps=1e-05)
          (conv2): Conv2d(128, 128, kernel_size=(3, 3), stride=(1, 1), padding=(1, 1), bias=False)
          (bn2): FrozenBatchNorm2d(128, eps=1e-05)
          (conv3): Conv2d(128, 512, kernel_size=(1, 1), stride=(1, 1), bias=False)
          (bn3): FrozenBatchNorm2d(512, eps=1e-05)
          (relu): ReLU(inplace=True)
        )
      )
      (layer3): Sequential(
        (0): Bottleneck(
          (conv1): Conv2d(512, 256, kernel_size=(1, 1), stride=(1, 1), bias=False)
          (bn1): FrozenBatchNorm2d(256, eps=1e-05)
          (conv2): Conv2d(256, 256, kernel_size=(3, 3), stride=(2, 2), padding=(1, 1), bias=False)
          (bn2): FrozenBatchNorm2d(256, eps=1e-05)
          (conv3): Conv2d(256, 1024, kernel_size=(1, 1), stride=(1, 1), bias=False)
          (bn3): FrozenBatchNorm2d(1024, eps=1e-05)
          (relu): ReLU(inplace=True)
          (downsample): Sequential(
            (0): Conv2d(512, 1024, kernel_size=(1, 1), stride=(2, 2), bias=False)
            (1): FrozenBatchNorm2d(1024, eps=1e-05)
          )
        )
        (1): Bottleneck(
          (conv1): Conv2d(1024, 256, kernel_size=(1, 1), stride=(1, 1), bias=False)
          (bn1): FrozenBatchNorm2d(256, eps=1e-05)
          (conv2): Conv2d(256, 256, kernel_size=(3, 3), stride=(1, 1), padding=(1, 1), bias=False)
          (bn2): FrozenBatchNorm2d(256, eps=1e-05)
          (conv3): Conv2d(256, 1024, kernel_size=(1, 1), stride=(1, 1), bias=False)
          (bn3): FrozenBatchNorm2d(1024, eps=1e-05)
          (relu): ReLU(inplace=True)
        )
        (2): Bottleneck(
          (conv1): Conv2d(1024, 256, kernel_size=(1, 1), stride=(1, 1), bias=False)
          (bn1): FrozenBatchNorm2d(256, eps=1e-05)
          (conv2): Conv2d(256, 256, kernel_size=(3, 3), stride=(1, 1), padding=(1, 1), bias=False)
          (bn2): FrozenBatchNorm2d(256, eps=1e-05)
          (conv3): Conv2d(256, 1024, kernel_size=(1, 1), stride=(1, 1), bias=False)
          (bn3): FrozenBatchNorm2d(1024, eps=1e-05)
          (relu): ReLU(inplace=True)
        )
        (3): Bottleneck(
          (conv1): Conv2d(1024, 256, kernel_size=(1, 1), stride=(1, 1), bias=False)
          (bn1): FrozenBatchNorm2d(256, eps=1e-05)
          (conv2): Conv2d(256, 256, kernel_size=(3, 3), stride=(1, 1), padding=(1, 1), bias=False)
          (bn2): FrozenBatchNorm2d(256, eps=1e-05)
          (conv3): Conv2d(256, 1024, kernel_size=(1, 1), stride=(1, 1), bias=False)
          (bn3): FrozenBatchNorm2d(1024, eps=1e-05)
          (relu): ReLU(inplace=True)
        )
        (4): Bottleneck(
          (conv1): Conv2d(1024, 256, kernel_size=(1, 1), stride=(1, 1), bias=False)
          (bn1): FrozenBatchNorm2d(256, eps=1e-05)
          (conv2): Conv2d(256, 256, kernel_size=(3, 3), stride=(1, 1), padding=(1, 1), bias=False)
          (bn2): FrozenBatchNorm2d(256, eps=1e-05)
          (conv3): Conv2d(256, 1024, kernel_size=(1, 1), stride=(1, 1), bias=False)
          (bn3): FrozenBatchNorm2d(1024, eps=1e-05)
          (relu): ReLU(inplace=True)
        )
        (5): Bottleneck(
          (conv1): Conv2d(1024, 256, kernel_size=(1, 1), stride=(1, 1), bias=False)
          (bn1): FrozenBatchNorm2d(256, eps=1e-05)
          (conv2): Conv2d(256, 256, kernel_size=(3, 3), stride=(1, 1), padding=(1, 1), bias=False)
          (bn2): FrozenBatchNorm2d(256, eps=1e-05)
          (conv3): Conv2d(256, 1024, kernel_size=(1, 1), stride=(1, 1), bias=False)
          (bn3): FrozenBatchNorm2d(1024, eps=1e-05)
          (relu): ReLU(inplace=True)
        )
      )
      (layer4): Sequential(
        (0): Bottleneck(
          (conv1): Conv2d(1024, 512, kernel_size=(1, 1), stride=(1, 1), bias=False)
          (bn1): FrozenBatchNorm2d(512, eps=1e-05)
          (conv2): Conv2d(512, 512, kernel_size=(3, 3), stride=(2, 2), padding=(1, 1), bias=False)
          (bn2): FrozenBatchNorm2d(512, eps=1e-05)
          (conv3): Conv2d(512, 2048, kernel_size=(1, 1), stride=(1, 1), bias=False)
          (bn3): FrozenBatchNorm2d(2048, eps=1e-05)
          (relu): ReLU(inplace=True)
          (downsample): Sequential(
            (0): Conv2d(1024, 2048, kernel_size=(1, 1), stride=(2, 2), bias=False)
            (1): FrozenBatchNorm2d(2048, eps=1e-05)
          )
        )
        (1): Bottleneck(
          (conv1): Conv2d(2048, 512, kernel_size=(1, 1), stride=(1, 1), bias=False)
          (bn1): FrozenBatchNorm2d(512, eps=1e-05)
          (conv2): Conv2d(512, 512, kernel_size=(3, 3), stride=(1, 1), padding=(1, 1), bias=False)
          (bn2): FrozenBatchNorm2d(512, eps=1e-05)
          (conv3): Conv2d(512, 2048, kernel_size=(1, 1), stride=(1, 1), bias=False)
          (bn3): FrozenBatchNorm2d(2048, eps=1e-05)
          (relu): ReLU(inplace=True)
        )
        (2): Bottleneck(
          (conv1): Conv2d(2048, 512, kernel_size=(1, 1), stride=(1, 1), bias=False)
          (bn1): FrozenBatchNorm2d(512, eps=1e-05)
          (conv2): Conv2d(512, 512, kernel_size=(3, 3), stride=(1, 1), padding=(1, 1), bias=False)
          (bn2): FrozenBatchNorm2d(512, eps=1e-05)
          (conv3): Conv2d(512, 2048, kernel_size=(1, 1), stride=(1, 1), bias=False)
          (bn3): FrozenBatchNorm2d(2048, eps=1e-05)
          (relu): ReLU(inplace=True)
        )
      )
    )
    (fpn): FeaturePyramidNetwork(
      (layer_blocks): ModuleList(
        (0-3): 4 x Conv2dNormActivation(
          (0): Conv2d(256, 256, kernel_size=(3, 3), stride=(1, 1), padding=(1, 1))
        )
      )
      (feature_selection): ModuleList(
        (0): FeatureSelectionModule(
          (conv_atten): Conv2d(256, 256, kernel_size=(1, 1), stride=(1, 1), bias=False)
          (norm_atten): GroupNorm(32, 256, eps=1e-05, affine=True)
          (sigmoid): Sigmoid()
          (conv): Conv2d(256, 256, kernel_size=(1, 1), stride=(1, 1), bias=False)
        )
        (1): FeatureSelectionModule(
          (conv_atten): Conv2d(512, 512, kernel_size=(1, 1), stride=(1, 1), bias=False)
          (norm_atten): GroupNorm(32, 512, eps=1e-05, affine=True)
          (sigmoid): Sigmoid()
          (conv): Conv2d(512, 256, kernel_size=(1, 1), stride=(1, 1), bias=False)
        )
        (2): FeatureSelectionModule(
          (conv_atten): Conv2d(1024, 1024, kernel_size=(1, 1), stride=(1, 1), bias=False)
          (norm_atten): GroupNorm(32, 1024, eps=1e-05, affine=True)
          (sigmoid): Sigmoid()
          (conv): Conv2d(1024, 256, kernel_size=(1, 1), stride=(1, 1), bias=False)
        )
        (3): FeatureSelectionModule(
          (conv_atten): Conv2d(2048, 2048, kernel_size=(1, 1), stride=(1, 1), bias=False)
          (norm_atten): GroupNorm(32, 2048, eps=1e-05, affine=True)
          (sigmoid): Sigmoid()
          (conv): Conv2d(2048, 256, kernel_size=(1, 1), stride=(1, 1), bias=False)
        )
      )
      (feature_align): ModuleList(
        (0-1): 2 x DCN(
          (deform_conv): DCNv2(
            (deform_conv): DeformConv2d(256, 256, kernel_size=(3, 3), stride=(1, 1), padding=(1, 1), groups=8)
            (relu): ReLU(inplace=True)
          )
          (conv_offset_mask): Conv2d(256, 216, kernel_size=(3, 3), stride=(1, 1), padding=(1, 1))
        )
      )
      (offset): ModuleList(
        (0-1): 2 x Sequential(
          (0): Conv2d(512, 256, kernel_size=(1, 1), stride=(1, 1), bias=False)
          (1): BatchNorm2d(256, eps=1e-05, momentum=0.1, affine=True, track_running_stats=True)
        )
      )
      (extra_blocks): LastLevelMaxPool()
    )
  )
  (rpn): RegionProposalNetwork(
    (anchor_generator): AnchorGenerator()
    (head): RPNHead(
      (conv): Sequential(
        (0): Conv2dNormActivation(
          (0): Conv2d(256, 256, kernel_size=(3, 3), stride=(1, 1), padding=(1, 1))
          (1): ReLU(inplace=True)
        )
      )
      (cls_logits): Conv2d(256, 3, kernel_size=(1, 1), stride=(1, 1))
      (bbox_pred): Conv2d(256, 12, kernel_size=(1, 1), stride=(1, 1))
    )
  )
  (roi_heads): RoIHeads(
    (box_roi_pool): MultiScaleRoIAlign(featmap_names=['0', '1', '2', '3'], output_size=(7, 7), sampling_ratio=2)
    (box_head): TwoMLPHead(
      (fc6): Linear(in_features=12544, out_features=1024, bias=True)
      (fc7): Linear(in_features=1024, out_features=1024, bias=True)
    )
    (box_predictor): FastRCNNPredictor(
      (cls_score): Linear(in_features=1024, out_features=91, bias=True)
      (bbox_pred): Linear(in_features=1024, out_features=364, bias=True)
    )
  )
)
Warning: module GeneralizedRCNNTransform is treated as a zero-op.
Warning: module FrozenBatchNorm2d is treated as a zero-op.
Warning: module Bottleneck is treated as a zero-op.
Warning: module IntermediateLayerGetter is treated as a zero-op.
Warning: module Conv2dNormActivation is treated as a zero-op.
Warning: module Sigmoid is treated as a zero-op.
…
Warning: module FastRCNNPredictor is treated as a zero-op.
Warning: module RoIHeads is treated as a zero-op.
Warning: module FasterRCNN is treated as a zero-op.
FasterRCNN(
  48.52 M, 100.000% Params, 143.36 GMac, 99.857% MACs, 
  (transform): GeneralizedRCNNTransform(
      Normalize(mean=[0.485, 0.456, 0.406], std=[0.229, 0.224, 0.225])
      Resize(min_size=(800,), max_size=1333, mode='bilinear')
  )
  (backbone): BackboneWithFPN(
    33.56 M, 69.174% Params, 97.33 GMac, 67.796% MACs, 
    (body): IntermediateLayerGetter(
      23.23 M, 47.885% Params, 52.26 GMac, 36.404% MACs, 
      (conv1): Conv2d(0, 0.000% Params, 1.51 GMac, 1.048% MACs, 3, 64, kernel_size=(7, 7), stride=(2, 2), padding=(3, 3), bias=False)
      (bn1): FrozenBatchNorm2d(64, eps=1e-05)
      (relu): ReLU(0, 0.000% Params, 10.24 MMac, 0.007% MACs, inplace=True)
      (maxpool): MaxPool2d(0, 0.000% Params, 10.24 MMac, 0.007% MACs, kernel_size=3, stride=2, padding=1, dilation=1, ceil_mode=False)
      (layer1): Sequential(
        0, 0.000% Params, 8.57 GMac, 5.966% MACs, 
        (0): Bottleneck(
          0, 0.000% Params, 2.96 GMac, 2.065% MACs, 
          (conv1): Conv2d(0, 0.000% Params, 163.84 MMac, 0.114% MACs, 64, 64, kernel_size=(1, 1), stride=(1, 1), bias=False)
          (bn1): FrozenBatchNorm2d(64, eps=1e-05)
          (conv2): Conv2d(0, 0.000% Params, 1.47 GMac, 1.027% MACs, 64, 64, kernel_size=(3, 3), stride=(1, 1), padding=(1, 1), bias=False)
          (bn2): FrozenBatchNorm2d(64, eps=1e-05)
          (conv3): Conv2d(0, 0.000% Params, 655.36 MMac, 0.456% MACs, 64, 256, kernel_size=(1, 1), stride=(1, 1), bias=False)
          (bn3): FrozenBatchNorm2d(256, eps=1e-05)
          (relu): ReLU(0, 0.000% Params, 15.36 MMac, 0.011% MACs, inplace=True)
          (downsample): Sequential(
            0, 0.000% Params, 655.36 MMac, 0.456% MACs, 
            (0): Conv2d(0, 0.000% Params, 655.36 MMac, 0.456% MACs, 64, 256, kernel_size=(1, 1), stride=(1, 1), bias=False)
            (1): FrozenBatchNorm2d(256, eps=1e-05)
          )
        )
        (1): Bottleneck(
          0, 0.000% Params, 2.8 GMac, 1.951% MACs, 
          (conv1): Conv2d(0, 0.000% Params, 655.36 MMac, 0.456% MACs, 256, 64, kernel_size=(1, 1), stride=(1, 1), bias=False)
          (bn1): FrozenBatchNorm2d(64, eps=1e-05)
          (conv2): Conv2d(0, 0.000% Params, 1.47 GMac, 1.027% MACs, 64, 64, kernel_size=(3, 3), stride=(1, 1), padding=(1, 1), bias=False)
          (bn2): FrozenBatchNorm2d(64, eps=1e-05)
          (conv3): Conv2d(0, 0.000% Params, 655.36 MMac, 0.456% MACs, 64, 256, kernel_size=(1, 1), stride=(1, 1), bias=False)
          (bn3): FrozenBatchNorm2d(256, eps=1e-05)
          (relu): ReLU(0, 0.000% Params, 15.36 MMac, 0.011% MACs, inplace=True)
        )
        (2): Bottleneck(
          0, 0.000% Params, 2.8 GMac, 1.951% MACs, 
          (conv1): Conv2d(0, 0.000% Params, 655.36 MMac, 0.456% MACs, 256, 64, kernel_size=(1, 1), stride=(1, 1), bias=False)
          (bn1): FrozenBatchNorm2d(64, eps=1e-05)
          (conv2): Conv2d(0, 0.000% Params, 1.47 GMac, 1.027% MACs, 64, 64, kernel_size=(3, 3), stride=(1, 1), padding=(1, 1), bias=False)
          (bn2): FrozenBatchNorm2d(64, eps=1e-05)
          (conv3): Conv2d(0, 0.000% Params, 655.36 MMac, 0.456% MACs, 64, 256, kernel_size=(1, 1), stride=(1, 1), bias=False)
          (bn3): FrozenBatchNorm2d(256, eps=1e-05)
          (relu): ReLU(0, 0.000% Params, 15.36 MMac, 0.011% MACs, inplace=True)
        )
      )
      (layer2): Sequential(
        1.21 M, 2.499% Params, 13.14 GMac, 9.154% MACs, 
        (0): Bottleneck(
          376.83 k, 0.777% Params, 4.76 GMac, 3.318% MACs, 
          (conv1): Conv2d(32.77 k, 0.068% Params, 1.31 GMac, 0.913% MACs, 256, 128, kernel_size=(1, 1), stride=(1, 1), bias=False)
          (bn1): FrozenBatchNorm2d(128, eps=1e-05)
          (conv2): Conv2d(147.46 k, 0.304% Params, 1.47 GMac, 1.027% MACs, 128, 128, kernel_size=(3, 3), stride=(2, 2), padding=(1, 1), bias=False)
          (bn2): FrozenBatchNorm2d(128, eps=1e-05)
          (conv3): Conv2d(65.54 k, 0.135% Params, 655.36 MMac, 0.456% MACs, 128, 512, kernel_size=(1, 1), stride=(1, 1), bias=False)
          (bn3): FrozenBatchNorm2d(512, eps=1e-05)
          (relu): ReLU(0, 0.000% Params, 11.52 MMac, 0.008% MACs, inplace=True)
          (downsample): Sequential(
            131.07 k, 0.270% Params, 1.31 GMac, 0.913% MACs, 
            (0): Conv2d(131.07 k, 0.270% Params, 1.31 GMac, 0.913% MACs, 256, 512, kernel_size=(1, 1), stride=(2, 2), bias=False)
            (1): FrozenBatchNorm2d(512, eps=1e-05)
          )
        )
        (1): Bottleneck(
          278.53 k, 0.574% Params, 2.79 GMac, 1.945% MACs, 
          (conv1): Conv2d(65.54 k, 0.135% Params, 655.36 MMac, 0.456% MACs, 512, 128, kernel_size=(1, 1), stride=(1, 1), bias=False)
          (bn1): FrozenBatchNorm2d(128, eps=1e-05)
          (conv2): Conv2d(147.46 k, 0.304% Params, 1.47 GMac, 1.027% MACs, 128, 128, kernel_size=(3, 3), stride=(1, 1), padding=(1, 1), bias=False)
          (bn2): FrozenBatchNorm2d(128, eps=1e-05)
          (conv3): Conv2d(65.54 k, 0.135% Params, 655.36 MMac, 0.456% MACs, 128, 512, kernel_size=(1, 1), stride=(1, 1), bias=False)
          (bn3): FrozenBatchNorm2d(512, eps=1e-05)
          (relu): ReLU(0, 0.000% Params, 7.68 MMac, 0.005% MACs, inplace=True)
        )
        (2): Bottleneck(
          278.53 k, 0.574% Params, 2.79 GMac, 1.945% MACs, 
          (conv1): Conv2d(65.54 k, 0.135% Params, 655.36 MMac, 0.456% MACs, 512, 128, kernel_size=(1, 1), stride=(1, 1), bias=False)
          (bn1): FrozenBatchNorm2d(128, eps=1e-05)
          (conv2): Conv2d(147.46 k, 0.304% Params, 1.47 GMac, 1.027% MACs, 128, 128, kernel_size=(3, 3), stride=(1, 1), padding=(1, 1), bias=False)
          (bn2): FrozenBatchNorm2d(128, eps=1e-05)
          (conv3): Conv2d(65.54 k, 0.135% Params, 655.36 MMac, 0.456% MACs, 128, 512, kernel_size=(1, 1), stride=(1, 1), bias=False)
          (bn3): FrozenBatchNorm2d(512, eps=1e-05)
          (relu): ReLU(0, 0.000% Params, 7.68 MMac, 0.005% MACs, inplace=True)
        )
        (3): Bottleneck(
          278.53 k, 0.574% Params, 2.79 GMac, 1.945% MACs, 
          (conv1): Conv2d(65.54 k, 0.135% Params, 655.36 MMac, 0.456% MACs, 512, 128, kernel_size=(1, 1), stride=(1, 1), bias=False)
          (bn1): FrozenBatchNorm2d(128, eps=1e-05)
          (conv2): Conv2d(147.46 k, 0.304% Params, 1.47 GMac, 1.027% MACs, 128, 128, kernel_size=(3, 3), stride=(1, 1), padding=(1, 1), bias=False)
          (bn2): FrozenBatchNorm2d(128, eps=1e-05)
          (conv3): Conv2d(65.54 k, 0.135% Params, 655.36 MMac, 0.456% MACs, 128, 512, kernel_size=(1, 1), stride=(1, 1), bias=False)
          (bn3): FrozenBatchNorm2d(512, eps=1e-05)
          (relu): ReLU(0, 0.000% Params, 7.68 MMac, 0.005% MACs, inplace=True)
        )
      )
      (layer3): Sequential(
        7.08 M, 14.588% Params, 18.7 GMac, 13.027% MACs, 
        (0): Bottleneck(
          1.51 M, 3.107% Params, 4.76 GMac, 3.314% MACs, 
          (conv1): Conv2d(131.07 k, 0.270% Params, 1.31 GMac, 0.913% MACs, 512, 256, kernel_size=(1, 1), stride=(1, 1), bias=False)
          (bn1): FrozenBatchNorm2d(256, eps=1e-05)
          (conv2): Conv2d(589.82 k, 1.216% Params, 1.47 GMac, 1.027% MACs, 256, 256, kernel_size=(3, 3), stride=(2, 2), padding=(1, 1), bias=False)
          (bn2): FrozenBatchNorm2d(256, eps=1e-05)
          (conv3): Conv2d(262.14 k, 0.540% Params, 655.36 MMac, 0.456% MACs, 256, 1024, kernel_size=(1, 1), stride=(1, 1), bias=False)
          (bn3): FrozenBatchNorm2d(1024, eps=1e-05)
          (relu): ReLU(0, 0.000% Params, 5.76 MMac, 0.004% MACs, inplace=True)
          (downsample): Sequential(
            524.29 k, 1.081% Params, 1.31 GMac, 0.913% MACs, 
            (0): Conv2d(524.29 k, 1.081% Params, 1.31 GMac, 0.913% MACs, 512, 1024, kernel_size=(1, 1), stride=(2, 2), bias=False)
            (1): FrozenBatchNorm2d(1024, eps=1e-05)
          )
        )
        (1): Bottleneck(
          1.11 M, 2.296% Params, 2.79 GMac, 1.943% MACs, 
          (conv1): Conv2d(262.14 k, 0.540% Params, 655.36 MMac, 0.456% MACs, 1024, 256, kernel_size=(1, 1), stride=(1, 1), bias=False)
          (bn1): FrozenBatchNorm2d(256, eps=1e-05)
          (conv2): Conv2d(589.82 k, 1.216% Params, 1.47 GMac, 1.027% MACs, 256, 256, kernel_size=(3, 3), stride=(1, 1), padding=(1, 1), bias=False)
          (bn2): FrozenBatchNorm2d(256, eps=1e-05)
          (conv3): Conv2d(262.14 k, 0.540% Params, 655.36 MMac, 0.456% MACs, 256, 1024, kernel_size=(1, 1), stride=(1, 1), bias=False)
          (bn3): FrozenBatchNorm2d(1024, eps=1e-05)
          (relu): ReLU(0, 0.000% Params, 3.84 MMac, 0.003% MACs, inplace=True)
        )
        (2): Bottleneck(
          1.11 M, 2.296% Params, 2.79 GMac, 1.943% MACs, 
          (conv1): Conv2d(262.14 k, 0.540% Params, 655.36 MMac, 0.456% MACs, 1024, 256, kernel_size=(1, 1), stride=(1, 1), bias=False)
          (bn1): FrozenBatchNorm2d(256, eps=1e-05)
          (conv2): Conv2d(589.82 k, 1.216% Params, 1.47 GMac, 1.027% MACs, 256, 256, kernel_size=(3, 3), stride=(1, 1), padding=(1, 1), bias=False)
          (bn2): FrozenBatchNorm2d(256, eps=1e-05)
          (conv3): Conv2d(262.14 k, 0.540% Params, 655.36 MMac, 0.456% MACs, 256, 1024, kernel_size=(1, 1), stride=(1, 1), bias=False)
          (bn3): FrozenBatchNorm2d(1024, eps=1e-05)
          (relu): ReLU(0, 0.000% Params, 3.84 MMac, 0.003% MACs, inplace=True)
        )
        (3): Bottleneck(
          1.11 M, 2.296% Params, 2.79 GMac, 1.943% MACs, 
          (conv1): Conv2d(262.14 k, 0.540% Params, 655.36 MMac, 0.456% MACs, 1024, 256, kernel_size=(1, 1), stride=(1, 1), bias=False)
          (bn1): FrozenBatchNorm2d(256, eps=1e-05)
          (conv2): Conv2d(589.82 k, 1.216% Params, 1.47 GMac, 1.027% MACs, 256, 256, kernel_size=(3, 3), stride=(1, 1), padding=(1, 1), bias=False)
          (bn2): FrozenBatchNorm2d(256, eps=1e-05)
          (conv3): Conv2d(262.14 k, 0.540% Params, 655.36 MMac, 0.456% MACs, 256, 1024, kernel_size=(1, 1), stride=(1, 1), bias=False)
          (bn3): FrozenBatchNorm2d(1024, eps=1e-05)
          (relu): ReLU(0, 0.000% Params, 3.84 MMac, 0.003% MACs, inplace=True)
        )
        (4): Bottleneck(
          1.11 M, 2.296% Params, 2.79 GMac, 1.943% MACs, 
          (conv1): Conv2d(262.14 k, 0.540% Params, 655.36 MMac, 0.456% MACs, 1024, 256, kernel_size=(1, 1), stride=(1, 1), bias=False)
          (bn1): FrozenBatchNorm2d(256, eps=1e-05)
          (conv2): Conv2d(589.82 k, 1.216% Params, 1.47 GMac, 1.027% MACs, 256, 256, kernel_size=(3, 3), stride=(1, 1), padding=(1, 1), bias=False)
          (bn2): FrozenBatchNorm2d(256, eps=1e-05)
          (conv3): Conv2d(262.14 k, 0.540% Params, 655.36 MMac, 0.456% MACs, 256, 1024, kernel_size=(1, 1), stride=(1, 1), bias=False)
          (bn3): FrozenBatchNorm2d(1024, eps=1e-05)
          (relu): ReLU(0, 0.000% Params, 3.84 MMac, 0.003% MACs, inplace=True)
        )
        (5): Bottleneck(
          1.11 M, 2.296% Params, 2.79 GMac, 1.943% MACs, 
          (conv1): Conv2d(262.14 k, 0.540% Params, 655.36 MMac, 0.456% MACs, 1024, 256, kernel_size=(1, 1), stride=(1, 1), bias=False)
          (bn1): FrozenBatchNorm2d(256, eps=1e-05)
          (conv2): Conv2d(589.82 k, 1.216% Params, 1.47 GMac, 1.027% MACs, 256, 256, kernel_size=(3, 3), stride=(1, 1), padding=(1, 1), bias=False)
          (bn2): FrozenBatchNorm2d(256, eps=1e-05)
          (conv3): Conv2d(262.14 k, 0.540% Params, 655.36 MMac, 0.456% MACs, 256, 1024, kernel_size=(1, 1), stride=(1, 1), bias=False)
          (bn3): FrozenBatchNorm2d(1024, eps=1e-05)
          (relu): ReLU(0, 0.000% Params, 3.84 MMac, 0.003% MACs, inplace=True)
        )
      )
      (layer4): Sequential(
        14.94 M, 30.798% Params, 10.33 GMac, 7.194% MACs, 
        (0): Bottleneck(
          6.03 M, 12.427% Params, 4.75 GMac, 3.312% MACs, 
          (conv1): Conv2d(524.29 k, 1.081% Params, 1.31 GMac, 0.913% MACs, 1024, 512, kernel_size=(1, 1), stride=(1, 1), bias=False)
          (bn1): FrozenBatchNorm2d(512, eps=1e-05)
          (conv2): Conv2d(2.36 M, 4.863% Params, 1.47 GMac, 1.027% MACs, 512, 512, kernel_size=(3, 3), stride=(2, 2), padding=(1, 1), bias=False)
          (bn2): FrozenBatchNorm2d(512, eps=1e-05)
          (conv3): Conv2d(1.05 M, 2.161% Params, 655.36 MMac, 0.456% MACs, 512, 2048, kernel_size=(1, 1), stride=(1, 1), bias=False)
          (bn3): FrozenBatchNorm2d(2048, eps=1e-05)
          (relu): ReLU(0, 0.000% Params, 2.88 MMac, 0.002% MACs, inplace=True)
          (downsample): Sequential(
            2.1 M, 4.323% Params, 1.31 GMac, 0.913% MACs, 
            (0): Conv2d(2.1 M, 4.323% Params, 1.31 GMac, 0.913% MACs, 1024, 2048, kernel_size=(1, 1), stride=(2, 2), bias=False)
            (1): FrozenBatchNorm2d(2048, eps=1e-05)
          )
        )
        (1): Bottleneck(
          4.46 M, 9.185% Params, 2.79 GMac, 1.941% MACs, 
          (conv1): Conv2d(1.05 M, 2.161% Params, 655.36 MMac, 0.456% MACs, 2048, 512, kernel_size=(1, 1), stride=(1, 1), bias=False)
          (bn1): FrozenBatchNorm2d(512, eps=1e-05)
          (conv2): Conv2d(2.36 M, 4.863% Params, 1.47 GMac, 1.027% MACs, 512, 512, kernel_size=(3, 3), stride=(1, 1), padding=(1, 1), bias=False)
          (bn2): FrozenBatchNorm2d(512, eps=1e-05)
          (conv3): Conv2d(1.05 M, 2.161% Params, 655.36 MMac, 0.456% MACs, 512, 2048, kernel_size=(1, 1), stride=(1, 1), bias=False)
          (bn3): FrozenBatchNorm2d(2048, eps=1e-05)
          (relu): ReLU(0, 0.000% Params, 1.92 MMac, 0.001% MACs, inplace=True)
        )
        (2): Bottleneck(
          4.46 M, 9.185% Params, 2.79 GMac, 1.941% MACs, 
          (conv1): Conv2d(1.05 M, 2.161% Params, 655.36 MMac, 0.456% MACs, 2048, 512, kernel_size=(1, 1), stride=(1, 1), bias=False)
          (bn1): FrozenBatchNorm2d(512, eps=1e-05)
          (conv2): Conv2d(2.36 M, 4.863% Params, 1.47 GMac, 1.027% MACs, 512, 512, kernel_size=(3, 3), stride=(1, 1), padding=(1, 1), bias=False)
          (bn2): FrozenBatchNorm2d(512, eps=1e-05)
          (conv3): Conv2d(1.05 M, 2.161% Params, 655.36 MMac, 0.456% MACs, 512, 2048, kernel_size=(1, 1), stride=(1, 1), bias=False)
          (bn3): FrozenBatchNorm2d(2048, eps=1e-05)
          (relu): ReLU(0, 0.000% Params, 1.92 MMac, 0.001% MACs, inplace=True)
        )
      )
    )
    (fpn): FeaturePyramidNetwork(
      10.33 M, 21.288% Params, 45.07 GMac, 31.392% MACs, 
      (layer_blocks): ModuleList(
        (0): Conv2dNormActivation(
          590.08 k, 1.216% Params, 23.6 GMac, 16.441% MACs, 
          (0): Conv2d(590.08 k, 1.216% Params, 23.6 GMac, 16.441% MACs, 256, 256, kernel_size=(3, 3), stride=(1, 1), padding=(1, 1))
        )
        (1): Conv2dNormActivation(
          590.08 k, 1.216% Params, 5.9 GMac, 4.110% MACs, 
          (0): Conv2d(590.08 k, 1.216% Params, 5.9 GMac, 4.110% MACs, 256, 256, kernel_size=(3, 3), stride=(1, 1), padding=(1, 1))
        )
        (2): Conv2dNormActivation(
          590.08 k, 1.216% Params, 1.48 GMac, 1.028% MACs, 
          (0): Conv2d(590.08 k, 1.216% Params, 1.48 GMac, 1.028% MACs, 256, 256, kernel_size=(3, 3), stride=(1, 1), padding=(1, 1))
        )
        (3): Conv2dNormActivation(
          590.08 k, 1.216% Params, 368.8 MMac, 0.257% MACs, 
          (0): Conv2d(590.08 k, 1.216% Params, 368.8 MMac, 0.257% MACs, 256, 256, kernel_size=(3, 3), stride=(1, 1), padding=(1, 1))
        )
      )
      (feature_selection): ModuleList(
        (0): FeatureSelectionModule(
          131.58 k, 0.271% Params, 2.62 GMac, 1.826% MACs, 
          (conv_atten): Conv2d(65.54 k, 0.135% Params, 65.54 KMac, 0.000% MACs, 256, 256, kernel_size=(1, 1), stride=(1, 1), bias=False)
          (norm_atten): GroupNorm(512, 0.001% Params, 512.0 Mac, 0.000% MACs, 32, 256, eps=1e-05, affine=True)
          (sigmoid): Sigmoid(0, 0.000% Params, 0.0 Mac, 0.000% MACs, )
          (conv): Conv2d(65.54 k, 0.135% Params, 2.62 GMac, 1.826% MACs, 256, 256, kernel_size=(1, 1), stride=(1, 1), bias=False)
        )
        (1): FeatureSelectionModule(
          394.24 k, 0.813% Params, 1.31 GMac, 0.913% MACs, 
          (conv_atten): Conv2d(262.14 k, 0.540% Params, 262.14 KMac, 0.000% MACs, 512, 512, kernel_size=(1, 1), stride=(1, 1), bias=False)
          (norm_atten): GroupNorm(1.02 k, 0.002% Params, 1.02 KMac, 0.000% MACs, 32, 512, eps=1e-05, affine=True)
          (sigmoid): Sigmoid(0, 0.000% Params, 0.0 Mac, 0.000% MACs, )
          (conv): Conv2d(131.07 k, 0.270% Params, 1.31 GMac, 0.913% MACs, 512, 256, kernel_size=(1, 1), stride=(1, 1), bias=False)
        )
        (2): FeatureSelectionModule(
          1.31 M, 2.706% Params, 656.41 MMac, 0.457% MACs, 
          (conv_atten): Conv2d(1.05 M, 2.161% Params, 1.05 MMac, 0.001% MACs, 1024, 1024, kernel_size=(1, 1), stride=(1, 1), bias=False)
          (norm_atten): GroupNorm(2.05 k, 0.004% Params, 2.05 KMac, 0.000% MACs, 32, 1024, eps=1e-05, affine=True)
          (sigmoid): Sigmoid(0, 0.000% Params, 0.0 Mac, 0.000% MACs, )
          (conv): Conv2d(262.14 k, 0.540% Params, 655.36 MMac, 0.456% MACs, 1024, 256, kernel_size=(1, 1), stride=(1, 1), bias=False)
        )
        (3): FeatureSelectionModule(
          4.72 M, 9.734% Params, 331.88 MMac, 0.231% MACs, 
          (conv_atten): Conv2d(4.19 M, 8.645% Params, 4.19 MMac, 0.003% MACs, 2048, 2048, kernel_size=(1, 1), stride=(1, 1), bias=False)
          (norm_atten): GroupNorm(4.1 k, 0.008% Params, 4.1 KMac, 0.000% MACs, 32, 2048, eps=1e-05, affine=True)
          (sigmoid): Sigmoid(0, 0.000% Params, 0.0 Mac, 0.000% MACs, )
          (conv): Conv2d(524.29 k, 1.081% Params, 327.68 MMac, 0.228% MACs, 2048, 256, kernel_size=(1, 1), stride=(1, 1), bias=False)
        )
      )
      (feature_align): ModuleList(
        (0): DCN(
          571.86 k, 1.179% Params, 1.43 GMac, 0.997% MACs, 
          (deform_conv): DCNv2(
            73.98 k, 0.152% Params, 186.16 MMac, 0.130% MACs, 
            (deform_conv): DeformConv2d(256, 256, kernel_size=(3, 3), stride=(1, 1), padding=(1, 1), groups=8)
            (relu): ReLU(0, 0.000% Params, 640.0 KMac, 0.000% MACs, inplace=True)
          )
          (conv_offset_mask): Conv2d(497.88 k, 1.026% Params, 1.24 GMac, 0.867% MACs, 256, 216, kernel_size=(3, 3), stride=(1, 1), padding=(1, 1))
        )
        (1): DCN(
          571.86 k, 1.179% Params, 5.72 GMac, 3.987% MACs, 
          (deform_conv): DCNv2(
            73.98 k, 0.152% Params, 744.65 MMac, 0.519% MACs, 
            (deform_conv): DeformConv2d(256, 256, kernel_size=(3, 3), stride=(1, 1), padding=(1, 1), groups=8)
            (relu): ReLU(0, 0.000% Params, 2.56 MMac, 0.002% MACs, inplace=True)
          )
          (conv_offset_mask): Conv2d(497.88 k, 1.026% Params, 4.98 GMac, 3.468% MACs, 256, 216, kernel_size=(3, 3), stride=(1, 1), padding=(1, 1))
        )
      )
      (offset): ModuleList(
        (0): Sequential(
          131.58 k, 0.271% Params, 328.96 MMac, 0.229% MACs, 
          (0): Conv2d(131.07 k, 0.270% Params, 327.68 MMac, 0.228% MACs, 512, 256, kernel_size=(1, 1), stride=(1, 1), bias=False)
          (1): BatchNorm2d(512, 0.001% Params, 1.28 MMac, 0.001% MACs, 256, eps=1e-05, momentum=0.1, affine=True, track_running_stats=True)
        )
        (1): Sequential(
          131.58 k, 0.271% Params, 1.32 GMac, 0.917% MACs, 
          (0): Conv2d(131.07 k, 0.270% Params, 1.31 GMac, 0.913% MACs, 512, 256, kernel_size=(1, 1), stride=(1, 1), bias=False)
          (1): BatchNorm2d(512, 0.001% Params, 5.12 MMac, 0.004% MACs, 256, eps=1e-05, momentum=0.1, affine=True, track_running_stats=True)
        )
      )
      (extra_blocks): LastLevelMaxPool(0, 0.000% Params, 0.0 Mac, 0.000% MACs, )
    )
  )
  (rpn): RegionProposalNetwork(
    593.93 k, 1.224% Params, 31.67 GMac, 22.057% MACs, 
    (anchor_generator): AnchorGenerator(0, 0.000% Params, 0.0 Mac, 0.000% MACs, )
    (head): RPNHead(
      593.93 k, 1.224% Params, 31.67 GMac, 22.057% MACs, 
      (conv): Sequential(
        590.08 k, 1.216% Params, 31.46 GMac, 21.914% MACs, 
        (0): Conv2dNormActivation(
          590.08 k, 1.216% Params, 31.46 GMac, 21.914% MACs, 
          (0): Conv2d(590.08 k, 1.216% Params, 31.45 GMac, 21.905% MACs, 256, 256, kernel_size=(3, 3), stride=(1, 1), padding=(1, 1))
          (1): ReLU(0, 0.000% Params, 13.64 MMac, 0.010% MACs, inplace=True)
        )
      )
      (cls_logits): Conv2d(771, 0.002% Params, 41.09 MMac, 0.029% MACs, 256, 3, kernel_size=(1, 1), stride=(1, 1))
      (bbox_pred): Conv2d(3.08 k, 0.006% Params, 164.36 MMac, 0.114% MACs, 256, 12, kernel_size=(1, 1), stride=(1, 1))
    )
  )
  (roi_heads): RoIHeads(
    14.36 M, 29.602% Params, 14.36 GMac, 10.004% MACs, 
    (box_roi_pool): MultiScaleRoIAlign(featmap_names=['0', '1', '2', '3'], output_size=(7, 7), sampling_ratio=2)
    (box_head): TwoMLPHead(
      13.9 M, 28.641% Params, 13.9 GMac, 9.679% MACs, 
      (fc6): Linear(12.85 M, 26.477% Params, 12.85 GMac, 8.948% MACs, in_features=12544, out_features=1024, bias=True)
      (fc7): Linear(1.05 M, 2.163% Params, 1.05 GMac, 0.731% MACs, in_features=1024, out_features=1024, bias=True)
    )
    (box_predictor): FastRCNNPredictor(
      466.38 k, 0.961% Params, 466.38 MMac, 0.325% MACs, 
      (cls_score): Linear(93.28 k, 0.192% Params, 93.28 MMac, 0.065% MACs, in_features=1024, out_features=91, bias=True)
      (bbox_pred): Linear(373.1 k, 0.769% Params, 373.1 MMac, 0.260% MACs, in_features=1024, out_features=364, bias=True)
    )
  )
)
FLOPs: 143.57 GMac, Params: 48.52 M
Start training
/home/hslee/Desktop/Embedded_AI/CLASS-FPN/vision/references/detection/engine.py:41: FutureWarning: `torch.cuda.amp.autocast(args...)` is deprecated. Please use `torch.amp.autocast('cuda', args...)` instead.
  with torch.cuda.amp.autocast(enabled=scaler is not None):
…
