…
Warning: module Concat is treated as a zero-op.
Warning: module DFL is treated as a zero-op.
Warning: module v10Detect is treated as a zero-op.
Warning: module DetectionModel is treated as a zero-op.
Warning: module DistributedDataParallel is treated as a zero-op.
DistributedDataParallel(
  28.92 M, 100.000% Params, 65.09 GMac, 97.755% MACs, 
  (module): DetectionModel(
    28.92 M, 100.000% Params, 65.09 GMac, 97.755% MACs, 
    (model): Sequential(
      28.92 M, 100.000% Params, 65.09 GMac, 97.755% MACs, 
      (0): Conv(
        1.86 k, 0.006% Params, 190.05 MMac, 0.285% MACs, 
        (conv): Conv2d(1.73 k, 0.006% Params, 176.95 MMac, 0.266% MACs, 3, 64, kernel_size=(3, 3), stride=(2, 2), padding=(1, 1), bias=False)
        (bn): BatchNorm2d(128, 0.000% Params, 13.11 MMac, 0.020% MACs, 64, eps=0.001, momentum=0.03, affine=True, track_running_stats=True)
        (act): SiLU(0, 0.000% Params, 0.0 Mac, 0.000% MACs, inplace=True)
      )
      (1): Conv(
        73.98 k, 0.256% Params, 1.89 GMac, 2.844% MACs, 
        (conv): Conv2d(73.73 k, 0.255% Params, 1.89 GMac, 2.835% MACs, 64, 128, kernel_size=(3, 3), stride=(2, 2), padding=(1, 1), bias=False)
        (bn): BatchNorm2d(256, 0.001% Params, 6.55 MMac, 0.010% MACs, 128, eps=0.001, momentum=0.03, affine=True, track_running_stats=True)
        (act): SiLU(0, 0.000% Params, 0.0 Mac, 0.000% MACs, inplace=True)
      )
      (2): C2f(
        279.81 k, 0.968% Params, 7.16 GMac, 10.757% MACs, 
        (cv1): Conv(
          16.64 k, 0.058% Params, 425.98 MMac, 0.640% MACs, 
          (conv): Conv2d(16.38 k, 0.057% Params, 419.43 MMac, 0.630% MACs, 128, 128, kernel_size=(1, 1), stride=(1, 1), bias=False)
          (bn): BatchNorm2d(256, 0.001% Params, 6.55 MMac, 0.010% MACs, 128, eps=0.001, momentum=0.03, affine=True, track_running_stats=True)
          (act): SiLU(0, 0.000% Params, 0.0 Mac, 0.000% MACs, inplace=True)
        )
        (cv2): Conv(
          41.22 k, 0.143% Params, 1.06 GMac, 1.585% MACs, 
          (conv): Conv2d(40.96 k, 0.142% Params, 1.05 GMac, 1.575% MACs, 320, 128, kernel_size=(1, 1), stride=(1, 1), bias=False)
          (bn): BatchNorm2d(256, 0.001% Params, 6.55 MMac, 0.010% MACs, 128, eps=0.001, momentum=0.03, affine=True, track_running_stats=True)
          (act): SiLU(0, 0.000% Params, 0.0 Mac, 0.000% MACs, inplace=True)
        )
        (m): ModuleList(
          (0-2): 3 x Bottleneck(
            73.98 k, 0.256% Params, 1.89 GMac, 2.844% MACs, 
            (cv1): Conv(
              36.99 k, 0.128% Params, 947.0 MMac, 1.422% MACs, 
              (conv): Conv2d(36.86 k, 0.127% Params, 943.72 MMac, 1.417% MACs, 64, 64, kernel_size=(3, 3), stride=(1, 1), padding=(1, 1), bias=False)
              (bn): BatchNorm2d(128, 0.000% Params, 3.28 MMac, 0.005% MACs, 64, eps=0.001, momentum=0.03, affine=True, track_running_stats=True)
              (act): SiLU(0, 0.000% Params, 0.0 Mac, 0.000% MACs, inplace=True)
            )
            (cv2): Conv(
              36.99 k, 0.128% Params, 947.0 MMac, 1.422% MACs, 
              (conv): Conv2d(36.86 k, 0.127% Params, 943.72 MMac, 1.417% MACs, 64, 64, kernel_size=(3, 3), stride=(1, 1), padding=(1, 1), bias=False)
              (bn): BatchNorm2d(128, 0.000% Params, 3.28 MMac, 0.005% MACs, 64, eps=0.001, momentum=0.03, affine=True, track_running_stats=True)
              (act): SiLU(0, 0.000% Params, 0.0 Mac, 0.000% MACs, inplace=True)
            )
          )
        )
      )
      (3): Conv(
        295.42 k, 1.022% Params, 1.89 GMac, 2.839% MACs, 
        (conv): Conv2d(294.91 k, 1.020% Params, 1.89 GMac, 2.835% MACs, 128, 256, kernel_size=(3, 3), stride=(2, 2), padding=(1, 1), bias=False)
        (bn): BatchNorm2d(512, 0.002% Params, 3.28 MMac, 0.005% MACs, 256, eps=0.001, momentum=0.03, affine=True, track_running_stats=True)
        (act): SiLU(0, 0.000% Params, 0.0 Mac, 0.000% MACs, inplace=True)
      )
      (4): C2f(
        2.1 M, 7.266% Params, 13.45 GMac, 20.196% MACs, 
        (cv1): Conv(
          66.05 k, 0.228% Params, 422.71 MMac, 0.635% MACs, 
          (conv): Conv2d(65.54 k, 0.227% Params, 419.43 MMac, 0.630% MACs, 256, 256, kernel_size=(1, 1), stride=(1, 1), bias=False)
          (bn): BatchNorm2d(512, 0.002% Params, 3.28 MMac, 0.005% MACs, 256, eps=0.001, momentum=0.03, affine=True, track_running_stats=True)
          (act): SiLU(0, 0.000% Params, 0.0 Mac, 0.000% MACs, inplace=True)
        )
        (cv2): Conv(
          262.66 k, 0.908% Params, 1.68 GMac, 2.524% MACs, 
          (conv): Conv2d(262.14 k, 0.907% Params, 1.68 GMac, 2.520% MACs, 1024, 256, kernel_size=(1, 1), stride=(1, 1), bias=False)
          (bn): BatchNorm2d(512, 0.002% Params, 3.28 MMac, 0.005% MACs, 256, eps=0.001, momentum=0.03, affine=True, track_running_stats=True)
          (act): SiLU(0, 0.000% Params, 0.0 Mac, 0.000% MACs, inplace=True)
        )
        (m): ModuleList(
          (0-5): 6 x Bottleneck(
            295.42 k, 1.022% Params, 1.89 GMac, 2.839% MACs, 
            (cv1): Conv(
              147.71 k, 0.511% Params, 945.36 MMac, 1.420% MACs, 
              (conv): Conv2d(147.46 k, 0.510% Params, 943.72 MMac, 1.417% MACs, 128, 128, kernel_size=(3, 3), stride=(1, 1), padding=(1, 1), bias=False)
              (bn): BatchNorm2d(256, 0.001% Params, 1.64 MMac, 0.002% MACs, 128, eps=0.001, momentum=0.03, affine=True, track_running_stats=True)
              (act): SiLU(0, 0.000% Params, 0.0 Mac, 0.000% MACs, inplace=True)
            )
            (cv2): Conv(
              147.71 k, 0.511% Params, 945.36 MMac, 1.420% MACs, 
              (conv): Conv2d(147.46 k, 0.510% Params, 943.72 MMac, 1.417% MACs, 128, 128, kernel_size=(3, 3), stride=(1, 1), padding=(1, 1), bias=False)
              (bn): BatchNorm2d(256, 0.001% Params, 1.64 MMac, 0.002% MACs, 128, eps=0.001, momentum=0.03, affine=True, track_running_stats=True)
              (act): SiLU(0, 0.000% Params, 0.0 Mac, 0.000% MACs, inplace=True)
            )
          )
        )
      )
      (5): SCDown(
        137.73 k, 0.476% Params, 854.43 MMac, 1.283% MACs, 
        (cv1): Conv(
          132.1 k, 0.457% Params, 845.41 MMac, 1.270% MACs, 
          (conv): Conv2d(131.07 k, 0.453% Params, 838.86 MMac, 1.260% MACs, 256, 512, kernel_size=(1, 1), stride=(1, 1), bias=False)
          (bn): BatchNorm2d(1.02 k, 0.004% Params, 6.55 MMac, 0.010% MACs, 512, eps=0.001, momentum=0.03, affine=True, track_running_stats=True)
          (act): SiLU(0, 0.000% Params, 0.0 Mac, 0.000% MACs, inplace=True)
        )
        (cv2): Conv(
          5.63 k, 0.019% Params, 9.01 MMac, 0.014% MACs, 
          (conv): Conv2d(4.61 k, 0.016% Params, 7.37 MMac, 0.011% MACs, 512, 512, kernel_size=(3, 3), stride=(2, 2), padding=(1, 1), groups=512, bias=False)
          (bn): BatchNorm2d(1.02 k, 0.004% Params, 1.64 MMac, 0.002% MACs, 512, eps=0.001, momentum=0.03, affine=True, track_running_stats=True)
          (act): Identity(0, 0.000% Params, 0.0 Mac, 0.000% MACs, )
        )
      )
      (6): C2f(
        8.4 M, 29.037% Params, 13.43 GMac, 20.176% MACs, 
        (cv1): Conv(
          263.17 k, 0.910% Params, 421.07 MMac, 0.632% MACs, 
          (conv): Conv2d(262.14 k, 0.907% Params, 419.43 MMac, 0.630% MACs, 512, 512, kernel_size=(1, 1), stride=(1, 1), bias=False)
          (bn): BatchNorm2d(1.02 k, 0.004% Params, 1.64 MMac, 0.002% MACs, 512, eps=0.001, momentum=0.03, affine=True, track_running_stats=True)
          (act): SiLU(0, 0.000% Params, 0.0 Mac, 0.000% MACs, inplace=True)
        )
        (cv2): Conv(
          1.05 M, 3.630% Params, 1.68 GMac, 2.522% MACs, 
          (conv): Conv2d(1.05 M, 3.626% Params, 1.68 GMac, 2.520% MACs, 2048, 512, kernel_size=(1, 1), stride=(1, 1), bias=False)
          (bn): BatchNorm2d(1.02 k, 0.004% Params, 1.64 MMac, 0.002% MACs, 512, eps=0.001, momentum=0.03, affine=True, track_running_stats=True)
          (act): SiLU(0, 0.000% Params, 0.0 Mac, 0.000% MACs, inplace=True)
        )
        (m): ModuleList(
          (0-5): 6 x Bottleneck(
            1.18 M, 4.083% Params, 1.89 GMac, 2.837% MACs, 
            (cv1): Conv(
              590.34 k, 2.041% Params, 944.54 MMac, 1.418% MACs, 
              (conv): Conv2d(589.82 k, 2.040% Params, 943.72 MMac, 1.417% MACs, 256, 256, kernel_size=(3, 3), stride=(1, 1), padding=(1, 1), bias=False)
              (bn): BatchNorm2d(512, 0.002% Params, 819.2 KMac, 0.001% MACs, 256, eps=0.001, momentum=0.03, affine=True, track_running_stats=True)
              (act): SiLU(0, 0.000% Params, 0.0 Mac, 0.000% MACs, inplace=True)
            )
            (cv2): Conv(
              590.34 k, 2.041% Params, 944.54 MMac, 1.418% MACs, 
              (conv): Conv2d(589.82 k, 2.040% Params, 943.72 MMac, 1.417% MACs, 256, 256, kernel_size=(3, 3), stride=(1, 1), padding=(1, 1), bias=False)
              (bn): BatchNorm2d(512, 0.002% Params, 819.2 KMac, 0.001% MACs, 256, eps=0.001, momentum=0.03, affine=True, track_running_stats=True)
              (act): SiLU(0, 0.000% Params, 0.0 Mac, 0.000% MACs, inplace=True)
            )
          )
        )
      )
      (7): SCDown(
        268.8 k, 0.930% Params, 423.32 MMac, 0.636% MACs, 
        (cv1): Conv(
          263.17 k, 0.910% Params, 421.07 MMac, 0.632% MACs, 
          (conv): Conv2d(262.14 k, 0.907% Params, 419.43 MMac, 0.630% MACs, 512, 512, kernel_size=(1, 1), stride=(1, 1), bias=False)
          (bn): BatchNorm2d(1.02 k, 0.004% Params, 1.64 MMac, 0.002% MACs, 512, eps=0.001, momentum=0.03, affine=True, track_running_stats=True)
          (act): SiLU(0, 0.000% Params, 0.0 Mac, 0.000% MACs, inplace=True)
        )
        (cv2): Conv(
          5.63 k, 0.019% Params, 2.25 MMac, 0.003% MACs, 
          (conv): Conv2d(4.61 k, 0.016% Params, 1.84 MMac, 0.003% MACs, 512, 512, kernel_size=(3, 3), stride=(2, 2), padding=(1, 1), groups=512, bias=False)
          (bn): BatchNorm2d(1.02 k, 0.004% Params, 409.6 KMac, 0.001% MACs, 512, eps=0.001, momentum=0.03, affine=True, track_running_stats=True)
          (act): Identity(0, 0.000% Params, 0.0 Mac, 0.000% MACs, )
        )
      )
      (8): C2fCIB(
        1.74 M, 6.032% Params, 697.75 MMac, 1.048% MACs, 
        (cv1): Conv(
          263.17 k, 0.910% Params, 105.27 MMac, 0.158% MACs, 
          (conv): Conv2d(262.14 k, 0.907% Params, 104.86 MMac, 0.157% MACs, 512, 512, kernel_size=(1, 1), stride=(1, 1), bias=False)
          (bn): BatchNorm2d(1.02 k, 0.004% Params, 409.6 KMac, 0.001% MACs, 512, eps=0.001, momentum=0.03, affine=True, track_running_stats=True)
          (act): SiLU(0, 0.000% Params, 0.0 Mac, 0.000% MACs, inplace=True)
        )
        (cv2): Conv(
          656.38 k, 2.270% Params, 262.55 MMac, 0.394% MACs, 
          (conv): Conv2d(655.36 k, 2.266% Params, 262.14 MMac, 0.394% MACs, 1280, 512, kernel_size=(1, 1), stride=(1, 1), bias=False)
          (bn): BatchNorm2d(1.02 k, 0.004% Params, 409.6 KMac, 0.001% MACs, 512, eps=0.001, momentum=0.03, affine=True, track_running_stats=True)
          (act): SiLU(0, 0.000% Params, 0.0 Mac, 0.000% MACs, inplace=True)
        )
        (m): ModuleList(
          (0-2): 3 x CIB(
            274.94 k, 0.951% Params, 109.98 MMac, 0.165% MACs, 
            (cv1): Sequential(
              274.94 k, 0.951% Params, 109.98 MMac, 0.165% MACs, 
              (0): Conv(
                2.82 k, 0.010% Params, 1.13 MMac, 0.002% MACs, 
                (conv): Conv2d(2.3 k, 0.008% Params, 921.6 KMac, 0.001% MACs, 256, 256, kernel_size=(3, 3), stride=(1, 1), padding=(1, 1), groups=256, bias=False)
                (bn): BatchNorm2d(512, 0.002% Params, 204.8 KMac, 0.000% MACs, 256, eps=0.001, momentum=0.03, affine=True, track_running_stats=True)
                (act): SiLU(0, 0.000% Params, 0.0 Mac, 0.000% MACs, inplace=True)
              )
              (1): Conv(
                132.1 k, 0.457% Params, 52.84 MMac, 0.079% MACs, 
                (conv): Conv2d(131.07 k, 0.453% Params, 52.43 MMac, 0.079% MACs, 256, 512, kernel_size=(1, 1), stride=(1, 1), bias=False)
                (bn): BatchNorm2d(1.02 k, 0.004% Params, 409.6 KMac, 0.001% MACs, 512, eps=0.001, momentum=0.03, affine=True, track_running_stats=True)
                (act): SiLU(0, 0.000% Params, 0.0 Mac, 0.000% MACs, inplace=True)
              )
              (2): Conv(
                5.63 k, 0.019% Params, 2.25 MMac, 0.003% MACs, 
                (conv): Conv2d(4.61 k, 0.016% Params, 1.84 MMac, 0.003% MACs, 512, 512, kernel_size=(3, 3), stride=(1, 1), padding=(1, 1), groups=512, bias=False)
                (bn): BatchNorm2d(1.02 k, 0.004% Params, 409.6 KMac, 0.001% MACs, 512, eps=0.001, momentum=0.03, affine=True, track_running_stats=True)
                (act): SiLU(0, 0.000% Params, 0.0 Mac, 0.000% MACs, inplace=True)
              )
              (3): Conv(
                131.58 k, 0.455% Params, 52.63 MMac, 0.079% MACs, 
                (conv): Conv2d(131.07 k, 0.453% Params, 52.43 MMac, 0.079% MACs, 512, 256, kernel_size=(1, 1), stride=(1, 1), bias=False)
                (bn): BatchNorm2d(512, 0.002% Params, 204.8 KMac, 0.000% MACs, 256, eps=0.001, momentum=0.03, affine=True, track_running_stats=True)
                (act): SiLU(0, 0.000% Params, 0.0 Mac, 0.000% MACs, inplace=True)
              )
              (4): Conv(
                2.82 k, 0.010% Params, 1.13 MMac, 0.002% MACs, 
                (conv): Conv2d(2.3 k, 0.008% Params, 921.6 KMac, 0.001% MACs, 256, 256, kernel_size=(3, 3), stride=(1, 1), padding=(1, 1), groups=256, bias=False)
                (bn): BatchNorm2d(512, 0.002% Params, 204.8 KMac, 0.000% MACs, 256, eps=0.001, momentum=0.03, affine=True, track_running_stats=True)
                (act): SiLU(0, 0.000% Params, 0.0 Mac, 0.000% MACs, inplace=True)
              )
            )
          )
        )
      )
      (9): SPPF(
        656.9 k, 2.272% Params, 263.07 MMac, 0.395% MACs, 
        (cv1): Conv(
          131.58 k, 0.455% Params, 52.63 MMac, 0.079% MACs, 
          (conv): Conv2d(131.07 k, 0.453% Params, 52.43 MMac, 0.079% MACs, 512, 256, kernel_size=(1, 1), stride=(1, 1), bias=False)
          (bn): BatchNorm2d(512, 0.002% Params, 204.8 KMac, 0.000% MACs, 256, eps=0.001, momentum=0.03, affine=True, track_running_stats=True)
          (act): SiLU(0, 0.000% Params, 0.0 Mac, 0.000% MACs, inplace=True)
        )
        (cv2): Conv(
          525.31 k, 1.817% Params, 210.12 MMac, 0.316% MACs, 
          (conv): Conv2d(524.29 k, 1.813% Params, 209.72 MMac, 0.315% MACs, 1024, 512, kernel_size=(1, 1), stride=(1, 1), bias=False)
          (bn): BatchNorm2d(1.02 k, 0.004% Params, 409.6 KMac, 0.001% MACs, 512, eps=0.001, momentum=0.03, affine=True, track_running_stats=True)
          (act): SiLU(0, 0.000% Params, 0.0 Mac, 0.000% MACs, inplace=True)
        )
        (m): MaxPool2d(0, 0.000% Params, 307.2 KMac, 0.000% MACs, kernel_size=5, stride=1, padding=2, dilation=1, ceil_mode=False)
      )
      (10): PSA(
        990.98 k, 3.427% Params, 396.39 MMac, 0.595% MACs, 
        (cv1): Conv(
          263.17 k, 0.910% Params, 105.27 MMac, 0.158% MACs, 
          (conv): Conv2d(262.14 k, 0.907% Params, 104.86 MMac, 0.157% MACs, 512, 512, kernel_size=(1, 1), stride=(1, 1), bias=False)
          (bn): BatchNorm2d(1.02 k, 0.004% Params, 409.6 KMac, 0.001% MACs, 512, eps=0.001, momentum=0.03, affine=True, track_running_stats=True)
          (act): SiLU(0, 0.000% Params, 0.0 Mac, 0.000% MACs, inplace=True)
        )
        (cv2): Conv(
          263.17 k, 0.910% Params, 105.27 MMac, 0.158% MACs, 
          (conv): Conv2d(262.14 k, 0.907% Params, 104.86 MMac, 0.157% MACs, 512, 512, kernel_size=(1, 1), stride=(1, 1), bias=False)
          (bn): BatchNorm2d(1.02 k, 0.004% Params, 409.6 KMac, 0.001% MACs, 512, eps=0.001, momentum=0.03, affine=True, track_running_stats=True)
          (act): SiLU(0, 0.000% Params, 0.0 Mac, 0.000% MACs, inplace=True)
        )
        (attn): Attention(
          200.96 k, 0.695% Params, 80.38 MMac, 0.121% MACs, 
          (qkv): Conv(
            132.1 k, 0.457% Params, 52.84 MMac, 0.079% MACs, 
            (conv): Conv2d(131.07 k, 0.453% Params, 52.43 MMac, 0.079% MACs, 256, 512, kernel_size=(1, 1), stride=(1, 1), bias=False)
            (bn): BatchNorm2d(1.02 k, 0.004% Params, 409.6 KMac, 0.001% MACs, 512, eps=0.001, momentum=0.03, affine=True, track_running_stats=True)
            (act): Identity(0, 0.000% Params, 0.0 Mac, 0.000% MACs, )
          )
          (proj): Conv(
            66.05 k, 0.228% Params, 26.42 MMac, 0.040% MACs, 
            (conv): Conv2d(65.54 k, 0.227% Params, 26.21 MMac, 0.039% MACs, 256, 256, kernel_size=(1, 1), stride=(1, 1), bias=False)
            (bn): BatchNorm2d(512, 0.002% Params, 204.8 KMac, 0.000% MACs, 256, eps=0.001, momentum=0.03, affine=True, track_running_stats=True)
            (act): Identity(0, 0.000% Params, 0.0 Mac, 0.000% MACs, )
          )
          (pe): Conv(
            2.82 k, 0.010% Params, 1.13 MMac, 0.002% MACs, 
            (conv): Conv2d(2.3 k, 0.008% Params, 921.6 KMac, 0.001% MACs, 256, 256, kernel_size=(3, 3), stride=(1, 1), padding=(1, 1), groups=256, bias=False)
            (bn): BatchNorm2d(512, 0.002% Params, 204.8 KMac, 0.000% MACs, 256, eps=0.001, momentum=0.03, affine=True, track_running_stats=True)
            (act): Identity(0, 0.000% Params, 0.0 Mac, 0.000% MACs, )
          )
        )
        (ffn): Sequential(
          263.68 k, 0.912% Params, 105.47 MMac, 0.158% MACs, 
          (0): Conv(
            132.1 k, 0.457% Params, 52.84 MMac, 0.079% MACs, 
            (conv): Conv2d(131.07 k, 0.453% Params, 52.43 MMac, 0.079% MACs, 256, 512, kernel_size=(1, 1), stride=(1, 1), bias=False)
            (bn): BatchNorm2d(1.02 k, 0.004% Params, 409.6 KMac, 0.001% MACs, 512, eps=0.001, momentum=0.03, affine=True, track_running_stats=True)
            (act): SiLU(0, 0.000% Params, 0.0 Mac, 0.000% MACs, inplace=True)
          )
          (1): Conv(
            131.58 k, 0.455% Params, 52.63 MMac, 0.079% MACs, 
            (conv): Conv2d(131.07 k, 0.453% Params, 52.43 MMac, 0.079% MACs, 512, 256, kernel_size=(1, 1), stride=(1, 1), bias=False)
            (bn): BatchNorm2d(512, 0.002% Params, 204.8 KMac, 0.000% MACs, 256, eps=0.001, momentum=0.03, affine=True, track_running_stats=True)
            (act): Identity(0, 0.000% Params, 0.0 Mac, 0.000% MACs, )
          )
        )
      )
      (11): SpatialAlignTransnormer(
        2.37 M, 8.191% Params, 948.63 MMac, 1.425% MACs, 
        (upsample): Upsample(0, 0.000% Params, 819.2 KMac, 0.001% MACs, scale_factor=2.0, mode='bilinear')
        (high_to_low_embed): Sequential(
          263.68 k, 0.912% Params, 105.47 MMac, 0.158% MACs, 
          (0): Conv2d(262.66 k, 0.908% Params, 105.06 MMac, 0.158% MACs, 512, 512, kernel_size=(1, 1), stride=(1, 1))
          (1): BatchNorm2d(1.02 k, 0.004% Params, 409.6 KMac, 0.001% MACs, 512, eps=0.001, momentum=0.03, affine=True, track_running_stats=True)
        )
        (q_proj): Sequential(
          263.68 k, 0.912% Params, 105.27 MMac, 0.158% MACs, 
          (0): Linear(262.66 k, 0.908% Params, 105.06 MMac, 0.158% MACs, in_features=512, out_features=512, bias=True)
          (1): LayerNorm(1.02 k, 0.004% Params, 204.8 KMac, 0.000% MACs, (512,), eps=1e-05, elementwise_affine=True)
        )
        (k_proj): Sequential(
          263.68 k, 0.912% Params, 105.27 MMac, 0.158% MACs, 
          (0): Linear(262.66 k, 0.908% Params, 105.06 MMac, 0.158% MACs, in_features=512, out_features=512, bias=True)
          (1): LayerNorm(1.02 k, 0.004% Params, 204.8 KMac, 0.000% MACs, (512,), eps=1e-05, elementwise_affine=True)
        )
        (v_proj): Linear(262.66 k, 0.908% Params, 105.06 MMac, 0.158% MACs, in_features=512, out_features=512, bias=True)
        (out_proj): Linear(262.66 k, 0.908% Params, 105.06 MMac, 0.158% MACs, in_features=512, out_features=512, bias=True)
        (attn_norm): RMSNorm(0, 0.000% Params, 0.0 Mac, 0.000% MACs, (16,), eps=None, elementwise_affine=True)
        (linear1): Linear(525.31 k, 1.817% Params, 210.12 MMac, 0.316% MACs, in_features=512, out_features=1024, bias=True)
        (dropout): Dropout(0, 0.000% Params, 0.0 Mac, 0.000% MACs, p=0.0, inplace=False)
        (linear2): Linear(524.8 k, 1.815% Params, 209.92 MMac, 0.315% MACs, in_features=1024, out_features=512, bias=True)
        (activation): GELU(0, 0.000% Params, 409.6 KMac, 0.001% MACs, approximate='none')
        (norm1): LayerNorm(1.02 k, 0.004% Params, 204.8 KMac, 0.000% MACs, (512,), eps=1e-05, elementwise_affine=True)
        (norm2): LayerNorm(1.02 k, 0.004% Params, 204.8 KMac, 0.000% MACs, (512,), eps=1e-05, elementwise_affine=True)
        (dropout1): Dropout(0, 0.000% Params, 0.0 Mac, 0.000% MACs, p=0.0, inplace=False)
        (dropout2): Dropout(0, 0.000% Params, 0.0 Mac, 0.000% MACs, p=0.0, inplace=False)
        (avg_pool_high): Identity(0, 0.000% Params, 0.0 Mac, 0.000% MACs, )
        (avg_pool_low): AvgPool2d(0, 0.000% Params, 819.2 KMac, 0.001% MACs, kernel_size=2, stride=2, padding=0)
      )
      (12): C2fCIB(
        2.01 M, 6.939% Params, 3.21 GMac, 4.821% MACs, 
        (cv1): Conv(
          525.31 k, 1.817% Params, 840.5 MMac, 1.262% MACs, 
          (conv): Conv2d(524.29 k, 1.813% Params, 838.86 MMac, 1.260% MACs, 1024, 512, kernel_size=(1, 1), stride=(1, 1), bias=False)
          (bn): BatchNorm2d(1.02 k, 0.004% Params, 1.64 MMac, 0.002% MACs, 512, eps=0.001, momentum=0.03, affine=True, track_running_stats=True)
          (act): SiLU(0, 0.000% Params, 0.0 Mac, 0.000% MACs, inplace=True)
        )
        (cv2): Conv(
          656.38 k, 2.270% Params, 1.05 GMac, 1.577% MACs, 
          (conv): Conv2d(655.36 k, 2.266% Params, 1.05 GMac, 1.575% MACs, 1280, 512, kernel_size=(1, 1), stride=(1, 1), bias=False)
          (bn): BatchNorm2d(1.02 k, 0.004% Params, 1.64 MMac, 0.002% MACs, 512, eps=0.001, momentum=0.03, affine=True, track_running_stats=True)
          (act): SiLU(0, 0.000% Params, 0.0 Mac, 0.000% MACs, inplace=True)
        )
        (m): ModuleList(
          (0-2): 3 x CIB(
            274.94 k, 0.951% Params, 439.91 MMac, 0.661% MACs, 
            (cv1): Sequential(
              274.94 k, 0.951% Params, 439.91 MMac, 0.661% MACs, 
              (0): Conv(
                2.82 k, 0.010% Params, 4.51 MMac, 0.007% MACs, 
                (conv): Conv2d(2.3 k, 0.008% Params, 3.69 MMac, 0.006% MACs, 256, 256, kernel_size=(3, 3), stride=(1, 1), padding=(1, 1), groups=256, bias=False)
                (bn): BatchNorm2d(512, 0.002% Params, 819.2 KMac, 0.001% MACs, 256, eps=0.001, momentum=0.03, affine=True, track_running_stats=True)
                (act): SiLU(0, 0.000% Params, 0.0 Mac, 0.000% MACs, inplace=True)
              )
              (1): Conv(
                132.1 k, 0.457% Params, 211.35 MMac, 0.317% MACs, 
                (conv): Conv2d(131.07 k, 0.453% Params, 209.72 MMac, 0.315% MACs, 256, 512, kernel_size=(1, 1), stride=(1, 1), bias=False)
                (bn): BatchNorm2d(1.02 k, 0.004% Params, 1.64 MMac, 0.002% MACs, 512, eps=0.001, momentum=0.03, affine=True, track_running_stats=True)
                (act): SiLU(0, 0.000% Params, 0.0 Mac, 0.000% MACs, inplace=True)
              )
              (2): Conv(
                5.63 k, 0.019% Params, 9.01 MMac, 0.014% MACs, 
                (conv): Conv2d(4.61 k, 0.016% Params, 7.37 MMac, 0.011% MACs, 512, 512, kernel_size=(3, 3), stride=(1, 1), padding=(1, 1), groups=512, bias=False)
                (bn): BatchNorm2d(1.02 k, 0.004% Params, 1.64 MMac, 0.002% MACs, 512, eps=0.001, momentum=0.03, affine=True, track_running_stats=True)
                (act): SiLU(0, 0.000% Params, 0.0 Mac, 0.000% MACs, inplace=True)
              )
              (3): Conv(
                131.58 k, 0.455% Params, 210.53 MMac, 0.316% MACs, 
                (conv): Conv2d(131.07 k, 0.453% Params, 209.72 MMac, 0.315% MACs, 512, 256, kernel_size=(1, 1), stride=(1, 1), bias=False)
                (bn): BatchNorm2d(512, 0.002% Params, 819.2 KMac, 0.001% MACs, 256, eps=0.001, momentum=0.03, affine=True, track_running_stats=True)
                (act): SiLU(0, 0.000% Params, 0.0 Mac, 0.000% MACs, inplace=True)
              )
              (4): Conv(
                2.82 k, 0.010% Params, 4.51 MMac, 0.007% MACs, 
                (conv): Conv2d(2.3 k, 0.008% Params, 3.69 MMac, 0.006% MACs, 256, 256, kernel_size=(3, 3), stride=(1, 1), padding=(1, 1), groups=256, bias=False)
                (bn): BatchNorm2d(512, 0.002% Params, 819.2 KMac, 0.001% MACs, 256, eps=0.001, momentum=0.03, affine=True, track_running_stats=True)
                (act): SiLU(0, 0.000% Params, 0.0 Mac, 0.000% MACs, inplace=True)
              )
            )
          )
        )
      )
      (13): SpatialAlignTransnormer(
        659.97 k, 2.282% Params, 427.32 MMac, 0.642% MACs, 
        (upsample): Upsample(0, 0.000% Params, 3.28 MMac, 0.005% MACs, scale_factor=2.0, mode='bilinear')
        (high_to_low_embed): Sequential(
          131.84 k, 0.456% Params, 210.94 MMac, 0.317% MACs, 
          (0): Conv2d(131.33 k, 0.454% Params, 210.12 MMac, 0.316% MACs, 512, 256, kernel_size=(1, 1), stride=(1, 1))
          (1): BatchNorm2d(512, 0.002% Params, 819.2 KMac, 0.001% MACs, 256, eps=0.001, momentum=0.03, affine=True, track_running_stats=True)
        )
        (q_proj): Sequential(
          66.3 k, 0.229% Params, 26.42 MMac, 0.040% MACs, 
          (0): Linear(65.79 k, 0.228% Params, 26.32 MMac, 0.040% MACs, in_features=256, out_features=256, bias=True)
          (1): LayerNorm(512, 0.002% Params, 102.4 KMac, 0.000% MACs, (256,), eps=1e-05, elementwise_affine=True)
        )
        (k_proj): Sequential(
          66.3 k, 0.229% Params, 26.42 MMac, 0.040% MACs, 
          (0): Linear(65.79 k, 0.228% Params, 26.32 MMac, 0.040% MACs, in_features=256, out_features=256, bias=True)
          (1): LayerNorm(512, 0.002% Params, 102.4 KMac, 0.000% MACs, (256,), eps=1e-05, elementwise_affine=True)
        )
        (v_proj): Linear(65.79 k, 0.228% Params, 26.32 MMac, 0.040% MACs, in_features=256, out_features=256, bias=True)
        (out_proj): Linear(65.79 k, 0.228% Params, 26.32 MMac, 0.040% MACs, in_features=256, out_features=256, bias=True)
        (attn_norm): RMSNorm(0, 0.000% Params, 0.0 Mac, 0.000% MACs, (16,), eps=None, elementwise_affine=True)
        (linear1): Linear(131.58 k, 0.455% Params, 52.63 MMac, 0.079% MACs, in_features=256, out_features=512, bias=True)
        (dropout): Dropout(0, 0.000% Params, 0.0 Mac, 0.000% MACs, p=0.0, inplace=False)
        (linear2): Linear(131.33 k, 0.454% Params, 52.53 MMac, 0.079% MACs, in_features=512, out_features=256, bias=True)
        (activation): GELU(0, 0.000% Params, 204.8 KMac, 0.000% MACs, approximate='none')
        (norm1): LayerNorm(512, 0.002% Params, 102.4 KMac, 0.000% MACs, (256,), eps=1e-05, elementwise_affine=True)
        (norm2): LayerNorm(512, 0.002% Params, 102.4 KMac, 0.000% MACs, (256,), eps=1e-05, elementwise_affine=True)
        (dropout1): Dropout(0, 0.000% Params, 0.0 Mac, 0.000% MACs, p=0.0, inplace=False)
        (dropout2): Dropout(0, 0.000% Params, 0.0 Mac, 0.000% MACs, p=0.0, inplace=False)
        (avg_pool_high): AvgPool2d(0, 0.000% Params, 409.6 KMac, 0.001% MACs, kernel_size=2, stride=2, padding=0)
        (avg_pool_low): AvgPool2d(0, 0.000% Params, 1.64 MMac, 0.002% MACs, kernel_size=4, stride=4, padding=0)
      )
      (14): C2f(
        1.25 M, 4.315% Params, 7.99 GMac, 11.993% MACs, 
        (cv1): Conv(
          197.12 k, 0.682% Params, 1.26 GMac, 1.895% MACs, 
          (conv): Conv2d(196.61 k, 0.680% Params, 1.26 GMac, 1.890% MACs, 768, 256, kernel_size=(1, 1), stride=(1, 1), bias=False)
          (bn): BatchNorm2d(512, 0.002% Params, 3.28 MMac, 0.005% MACs, 256, eps=0.001, momentum=0.03, affine=True, track_running_stats=True)
          (act): SiLU(0, 0.000% Params, 0.0 Mac, 0.000% MACs, inplace=True)
        )
        (cv2): Conv(
          164.35 k, 0.568% Params, 1.05 GMac, 1.580% MACs, 
          (conv): Conv2d(163.84 k, 0.567% Params, 1.05 GMac, 1.575% MACs, 640, 256, kernel_size=(1, 1), stride=(1, 1), bias=False)
          (bn): BatchNorm2d(512, 0.002% Params, 3.28 MMac, 0.005% MACs, 256, eps=0.001, momentum=0.03, affine=True, track_running_stats=True)
          (act): SiLU(0, 0.000% Params, 0.0 Mac, 0.000% MACs, inplace=True)
        )
        (m): ModuleList(
          (0-2): 3 x Bottleneck(
            295.42 k, 1.022% Params, 1.89 GMac, 2.839% MACs, 
            (cv1): Conv(
              147.71 k, 0.511% Params, 945.36 MMac, 1.420% MACs, 
              (conv): Conv2d(147.46 k, 0.510% Params, 943.72 MMac, 1.417% MACs, 128, 128, kernel_size=(3, 3), stride=(1, 1), padding=(1, 1), bias=False)
              (bn): BatchNorm2d(256, 0.001% Params, 1.64 MMac, 0.002% MACs, 128, eps=0.001, momentum=0.03, affine=True, track_running_stats=True)
              (act): SiLU(0, 0.000% Params, 0.0 Mac, 0.000% MACs, inplace=True)
            )
            (cv2): Conv(
              147.71 k, 0.511% Params, 945.36 MMac, 1.420% MACs, 
              (conv): Conv2d(147.46 k, 0.510% Params, 943.72 MMac, 1.417% MACs, 128, 128, kernel_size=(3, 3), stride=(1, 1), padding=(1, 1), bias=False)
              (bn): BatchNorm2d(256, 0.001% Params, 1.64 MMac, 0.002% MACs, 128, eps=0.001, momentum=0.03, affine=True, track_running_stats=True)
              (act): SiLU(0, 0.000% Params, 0.0 Mac, 0.000% MACs, inplace=True)
            )
          )
        )
      )
      (15): Conv(
        590.34 k, 2.041% Params, 944.54 MMac, 1.418% MACs, 
        (conv): Conv2d(589.82 k, 2.040% Params, 943.72 MMac, 1.417% MACs, 256, 256, kernel_size=(3, 3), stride=(2, 2), padding=(1, 1), bias=False)
        (bn): BatchNorm2d(512, 0.002% Params, 819.2 KMac, 0.001% MACs, 256, eps=0.001, momentum=0.03, affine=True, track_running_stats=True)
        (act): SiLU(0, 0.000% Params, 0.0 Mac, 0.000% MACs, inplace=True)
      )
      (16): Concat(0, 0.000% Params, 0.0 Mac, 0.000% MACs, )
      (17): C2fCIB(
        1.88 M, 6.486% Params, 3.0 GMac, 4.506% MACs, 
        (cv1): Conv(
          394.24 k, 1.363% Params, 630.78 MMac, 0.947% MACs, 
          (conv): Conv2d(393.22 k, 1.360% Params, 629.15 MMac, 0.945% MACs, 768, 512, kernel_size=(1, 1), stride=(1, 1), bias=False)
          (bn): BatchNorm2d(1.02 k, 0.004% Params, 1.64 MMac, 0.002% MACs, 512, eps=0.001, momentum=0.03, affine=True, track_running_stats=True)
          (act): SiLU(0, 0.000% Params, 0.0 Mac, 0.000% MACs, inplace=True)
        )
        (cv2): Conv(
          656.38 k, 2.270% Params, 1.05 GMac, 1.577% MACs, 
          (conv): Conv2d(655.36 k, 2.266% Params, 1.05 GMac, 1.575% MACs, 1280, 512, kernel_size=(1, 1), stride=(1, 1), bias=False)
          (bn): BatchNorm2d(1.02 k, 0.004% Params, 1.64 MMac, 0.002% MACs, 512, eps=0.001, momentum=0.03, affine=True, track_running_stats=True)
          (act): SiLU(0, 0.000% Params, 0.0 Mac, 0.000% MACs, inplace=True)
        )
        (m): ModuleList(
          (0-2): 3 x CIB(
            274.94 k, 0.951% Params, 439.91 MMac, 0.661% MACs, 
            (cv1): Sequential(
              274.94 k, 0.951% Params, 439.91 MMac, 0.661% MACs, 
              (0): Conv(
                2.82 k, 0.010% Params, 4.51 MMac, 0.007% MACs, 
                (conv): Conv2d(2.3 k, 0.008% Params, 3.69 MMac, 0.006% MACs, 256, 256, kernel_size=(3, 3), stride=(1, 1), padding=(1, 1), groups=256, bias=False)
                (bn): BatchNorm2d(512, 0.002% Params, 819.2 KMac, 0.001% MACs, 256, eps=0.001, momentum=0.03, affine=True, track_running_stats=True)
                (act): SiLU(0, 0.000% Params, 0.0 Mac, 0.000% MACs, inplace=True)
              )
              (1): Conv(
                132.1 k, 0.457% Params, 211.35 MMac, 0.317% MACs, 
                (conv): Conv2d(131.07 k, 0.453% Params, 209.72 MMac, 0.315% MACs, 256, 512, kernel_size=(1, 1), stride=(1, 1), bias=False)
                (bn): BatchNorm2d(1.02 k, 0.004% Params, 1.64 MMac, 0.002% MACs, 512, eps=0.001, momentum=0.03, affine=True, track_running_stats=True)
                (act): SiLU(0, 0.000% Params, 0.0 Mac, 0.000% MACs, inplace=True)
              )
              (2): Conv(
                5.63 k, 0.019% Params, 9.01 MMac, 0.014% MACs, 
                (conv): Conv2d(4.61 k, 0.016% Params, 7.37 MMac, 0.011% MACs, 512, 512, kernel_size=(3, 3), stride=(1, 1), padding=(1, 1), groups=512, bias=False)
                (bn): BatchNorm2d(1.02 k, 0.004% Params, 1.64 MMac, 0.002% MACs, 512, eps=0.001, momentum=0.03, affine=True, track_running_stats=True)
                (act): SiLU(0, 0.000% Params, 0.0 Mac, 0.000% MACs, inplace=True)
              )
              (3): Conv(
                131.58 k, 0.455% Params, 210.53 MMac, 0.316% MACs, 
                (conv): Conv2d(131.07 k, 0.453% Params, 209.72 MMac, 0.315% MACs, 512, 256, kernel_size=(1, 1), stride=(1, 1), bias=False)
                (bn): BatchNorm2d(512, 0.002% Params, 819.2 KMac, 0.001% MACs, 256, eps=0.001, momentum=0.03, affine=True, track_running_stats=True)
                (act): SiLU(0, 0.000% Params, 0.0 Mac, 0.000% MACs, inplace=True)
              )
              (4): Conv(
                2.82 k, 0.010% Params, 4.51 MMac, 0.007% MACs, 
                (conv): Conv2d(2.3 k, 0.008% Params, 3.69 MMac, 0.006% MACs, 256, 256, kernel_size=(3, 3), stride=(1, 1), padding=(1, 1), groups=256, bias=False)
                (bn): BatchNorm2d(512, 0.002% Params, 819.2 KMac, 0.001% MACs, 256, eps=0.001, momentum=0.03, affine=True, track_running_stats=True)
                (act): SiLU(0, 0.000% Params, 0.0 Mac, 0.000% MACs, inplace=True)
              )
            )
          )
        )
      )
      (18): SCDown(
        268.8 k, 0.930% Params, 423.32 MMac, 0.636% MACs, 
        (cv1): Conv(
          263.17 k, 0.910% Params, 421.07 MMac, 0.632% MACs, 
          (conv): Conv2d(262.14 k, 0.907% Params, 419.43 MMac, 0.630% MACs, 512, 512, kernel_size=(1, 1), stride=(1, 1), bias=False)
          (bn): BatchNorm2d(1.02 k, 0.004% Params, 1.64 MMac, 0.002% MACs, 512, eps=0.001, momentum=0.03, affine=True, track_running_stats=True)
          (act): SiLU(0, 0.000% Params, 0.0 Mac, 0.000% MACs, inplace=True)
        )
        (cv2): Conv(
          5.63 k, 0.019% Params, 2.25 MMac, 0.003% MACs, 
          (conv): Conv2d(4.61 k, 0.016% Params, 1.84 MMac, 0.003% MACs, 512, 512, kernel_size=(3, 3), stride=(2, 2), padding=(1, 1), groups=512, bias=False)
          (bn): BatchNorm2d(1.02 k, 0.004% Params, 409.6 KMac, 0.001% MACs, 512, eps=0.001, momentum=0.03, affine=True, track_running_stats=True)
          (act): Identity(0, 0.000% Params, 0.0 Mac, 0.000% MACs, )
        )
      )
      (19): Concat(0, 0.000% Params, 0.0 Mac, 0.000% MACs, )
      (20): C2fCIB(
        2.01 M, 6.939% Params, 802.61 MMac, 1.205% MACs, 
        (cv1): Conv(
          525.31 k, 1.817% Params, 210.12 MMac, 0.316% MACs, 
          (conv): Conv2d(524.29 k, 1.813% Params, 209.72 MMac, 0.315% MACs, 1024, 512, kernel_size=(1, 1), stride=(1, 1), bias=False)
          (bn): BatchNorm2d(1.02 k, 0.004% Params, 409.6 KMac, 0.001% MACs, 512, eps=0.001, momentum=0.03, affine=True, track_running_stats=True)
          (act): SiLU(0, 0.000% Params, 0.0 Mac, 0.000% MACs, inplace=True)
        )
        (cv2): Conv(
          656.38 k, 2.270% Params, 262.55 MMac, 0.394% MACs, 
          (conv): Conv2d(655.36 k, 2.266% Params, 262.14 MMac, 0.394% MACs, 1280, 512, kernel_size=(1, 1), stride=(1, 1), bias=False)
          (bn): BatchNorm2d(1.02 k, 0.004% Params, 409.6 KMac, 0.001% MACs, 512, eps=0.001, momentum=0.03, affine=True, track_running_stats=True)
          (act): SiLU(0, 0.000% Params, 0.0 Mac, 0.000% MACs, inplace=True)
        )
        (m): ModuleList(
          (0-2): 3 x CIB(
            274.94 k, 0.951% Params, 109.98 MMac, 0.165% MACs, 
            (cv1): Sequential(
              274.94 k, 0.951% Params, 109.98 MMac, 0.165% MACs, 
              (0): Conv(
                2.82 k, 0.010% Params, 1.13 MMac, 0.002% MACs, 
                (conv): Conv2d(2.3 k, 0.008% Params, 921.6 KMac, 0.001% MACs, 256, 256, kernel_size=(3, 3), stride=(1, 1), padding=(1, 1), groups=256, bias=False)
                (bn): BatchNorm2d(512, 0.002% Params, 204.8 KMac, 0.000% MACs, 256, eps=0.001, momentum=0.03, affine=True, track_running_stats=True)
                (act): SiLU(0, 0.000% Params, 0.0 Mac, 0.000% MACs, inplace=True)
              )
              (1): Conv(
                132.1 k, 0.457% Params, 52.84 MMac, 0.079% MACs, 
                (conv): Conv2d(131.07 k, 0.453% Params, 52.43 MMac, 0.079% MACs, 256, 512, kernel_size=(1, 1), stride=(1, 1), bias=False)
                (bn): BatchNorm2d(1.02 k, 0.004% Params, 409.6 KMac, 0.001% MACs, 512, eps=0.001, momentum=0.03, affine=True, track_running_stats=True)
                (act): SiLU(0, 0.000% Params, 0.0 Mac, 0.000% MACs, inplace=True)
              )
              (2): Conv(
                5.63 k, 0.019% Params, 2.25 MMac, 0.003% MACs, 
                (conv): Conv2d(4.61 k, 0.016% Params, 1.84 MMac, 0.003% MACs, 512, 512, kernel_size=(3, 3), stride=(1, 1), padding=(1, 1), groups=512, bias=False)
                (bn): BatchNorm2d(1.02 k, 0.004% Params, 409.6 KMac, 0.001% MACs, 512, eps=0.001, momentum=0.03, affine=True, track_running_stats=True)
                (act): SiLU(0, 0.000% Params, 0.0 Mac, 0.000% MACs, inplace=True)
              )
              (3): Conv(
                131.58 k, 0.455% Params, 52.63 MMac, 0.079% MACs, 
                (conv): Conv2d(131.07 k, 0.453% Params, 52.43 MMac, 0.079% MACs, 512, 256, kernel_size=(1, 1), stride=(1, 1), bias=False)
                (bn): BatchNorm2d(512, 0.002% Params, 204.8 KMac, 0.000% MACs, 256, eps=0.001, momentum=0.03, affine=True, track_running_stats=True)
                (act): SiLU(0, 0.000% Params, 0.0 Mac, 0.000% MACs, inplace=True)
              )
              (4): Conv(
                2.82 k, 0.010% Params, 1.13 MMac, 0.002% MACs, 
                (conv): Conv2d(2.3 k, 0.008% Params, 921.6 KMac, 0.001% MACs, 256, 256, kernel_size=(3, 3), stride=(1, 1), padding=(1, 1), groups=256, bias=False)
                (bn): BatchNorm2d(512, 0.002% Params, 204.8 KMac, 0.000% MACs, 256, eps=0.001, momentum=0.03, affine=True, track_running_stats=True)
                (act): SiLU(0, 0.000% Params, 0.0 Mac, 0.000% MACs, inplace=True)
              )
            )
          )
        )
      )
      (21): v10Detect(
        2.95 M, 10.186% Params, 6.69 GMac, 10.053% MACs, 
        (cv2): ModuleList(
          (0): Sequential(
            188.74 k, 0.653% Params, 1.21 GMac, 1.814% MACs, 
            (0): Conv(
              147.58 k, 0.510% Params, 944.54 MMac, 1.418% MACs, 
              (conv): Conv2d(147.46 k, 0.510% Params, 943.72 MMac, 1.417% MACs, 256, 64, kernel_size=(3, 3), stride=(1, 1), padding=(1, 1), bias=False)
              (bn): BatchNorm2d(128, 0.000% Params, 819.2 KMac, 0.001% MACs, 64, eps=0.001, momentum=0.03, affine=True, track_running_stats=True)
              (act): SiLU(0, 0.000% Params, 0.0 Mac, 0.000% MACs, inplace=True)
            )
            (1): Conv(
              36.99 k, 0.128% Params, 236.75 MMac, 0.356% MACs, 
              (conv): Conv2d(36.86 k, 0.127% Params, 235.93 MMac, 0.354% MACs, 64, 64, kernel_size=(3, 3), stride=(1, 1), padding=(1, 1), bias=False)
              (bn): BatchNorm2d(128, 0.000% Params, 819.2 KMac, 0.001% MACs, 64, eps=0.001, momentum=0.03, affine=True, track_running_stats=True)
              (act): SiLU(0, 0.000% Params, 0.0 Mac, 0.000% MACs, inplace=True)
            )
            (2): Conv2d(4.16 k, 0.014% Params, 26.62 MMac, 0.040% MACs, 64, 64, kernel_size=(1, 1), stride=(1, 1))
          )
          (1): Sequential(
            336.19 k, 1.163% Params, 537.91 MMac, 0.808% MACs, 
            (0): Conv(
              295.04 k, 1.020% Params, 472.06 MMac, 0.709% MACs, 
              (conv): Conv2d(294.91 k, 1.020% Params, 471.86 MMac, 0.709% MACs, 512, 64, kernel_size=(3, 3), stride=(1, 1), padding=(1, 1), bias=False)
              (bn): BatchNorm2d(128, 0.000% Params, 204.8 KMac, 0.000% MACs, 64, eps=0.001, momentum=0.03, affine=True, track_running_stats=True)
              (act): SiLU(0, 0.000% Params, 0.0 Mac, 0.000% MACs, inplace=True)
            )
            (1): Conv(
              36.99 k, 0.128% Params, 59.19 MMac, 0.089% MACs, 
              (conv): Conv2d(36.86 k, 0.127% Params, 58.98 MMac, 0.089% MACs, 64, 64, kernel_size=(3, 3), stride=(1, 1), padding=(1, 1), bias=False)
              (bn): BatchNorm2d(128, 0.000% Params, 204.8 KMac, 0.000% MACs, 64, eps=0.001, momentum=0.03, affine=True, track_running_stats=True)
              (act): SiLU(0, 0.000% Params, 0.0 Mac, 0.000% MACs, inplace=True)
            )
            (2): Conv2d(4.16 k, 0.014% Params, 6.66 MMac, 0.010% MACs, 64, 64, kernel_size=(1, 1), stride=(1, 1))
          )
          (2): Sequential(
            336.19 k, 1.163% Params, 134.48 MMac, 0.202% MACs, 
            (0): Conv(
              295.04 k, 1.020% Params, 118.02 MMac, 0.177% MACs, 
              (conv): Conv2d(294.91 k, 1.020% Params, 117.96 MMac, 0.177% MACs, 512, 64, kernel_size=(3, 3), stride=(1, 1), padding=(1, 1), bias=False)
              (bn): BatchNorm2d(128, 0.000% Params, 51.2 KMac, 0.000% MACs, 64, eps=0.001, momentum=0.03, affine=True, track_running_stats=True)
              (act): SiLU(0, 0.000% Params, 0.0 Mac, 0.000% MACs, inplace=True)
            )
            (1): Conv(
              36.99 k, 0.128% Params, 14.8 MMac, 0.022% MACs, 
              (conv): Conv2d(36.86 k, 0.127% Params, 14.75 MMac, 0.022% MACs, 64, 64, kernel_size=(3, 3), stride=(1, 1), padding=(1, 1), bias=False)
              (bn): BatchNorm2d(128, 0.000% Params, 51.2 KMac, 0.000% MACs, 64, eps=0.001, momentum=0.03, affine=True, track_running_stats=True)
              (act): SiLU(0, 0.000% Params, 0.0 Mac, 0.000% MACs, inplace=True)
            )
            (2): Conv2d(4.16 k, 0.014% Params, 1.66 MMac, 0.002% MACs, 64, 64, kernel_size=(1, 1), stride=(1, 1))
          )
        )
        (cv3): ModuleList(
          (0): Sequential(
            158.29 k, 0.547% Params, 1.01 GMac, 1.521% MACs, 
            (0): Sequential(
              68.86 k, 0.238% Params, 440.73 MMac, 0.662% MACs, 
              (0): Conv(
                2.82 k, 0.010% Params, 18.02 MMac, 0.027% MACs, 
                (conv): Conv2d(2.3 k, 0.008% Params, 14.75 MMac, 0.022% MACs, 256, 256, kernel_size=(3, 3), stride=(1, 1), padding=(1, 1), groups=256, bias=False)
                (bn): BatchNorm2d(512, 0.002% Params, 3.28 MMac, 0.005% MACs, 256, eps=0.001, momentum=0.03, affine=True, track_running_stats=True)
                (act): SiLU(0, 0.000% Params, 0.0 Mac, 0.000% MACs, inplace=True)
              )
              (1): Conv(
                66.05 k, 0.228% Params, 422.71 MMac, 0.635% MACs, 
                (conv): Conv2d(65.54 k, 0.227% Params, 419.43 MMac, 0.630% MACs, 256, 256, kernel_size=(1, 1), stride=(1, 1), bias=False)
                (bn): BatchNorm2d(512, 0.002% Params, 3.28 MMac, 0.005% MACs, 256, eps=0.001, momentum=0.03, affine=True, track_running_stats=True)
                (act): SiLU(0, 0.000% Params, 0.0 Mac, 0.000% MACs, inplace=True)
              )
            )
            (1): Sequential(
              68.86 k, 0.238% Params, 440.73 MMac, 0.662% MACs, 
              (0): Conv(
                2.82 k, 0.010% Params, 18.02 MMac, 0.027% MACs, 
                (conv): Conv2d(2.3 k, 0.008% Params, 14.75 MMac, 0.022% MACs, 256, 256, kernel_size=(3, 3), stride=(1, 1), padding=(1, 1), groups=256, bias=False)
                (bn): BatchNorm2d(512, 0.002% Params, 3.28 MMac, 0.005% MACs, 256, eps=0.001, momentum=0.03, affine=True, track_running_stats=True)
                (act): SiLU(0, 0.000% Params, 0.0 Mac, 0.000% MACs, inplace=True)
              )
              (1): Conv(
                66.05 k, 0.228% Params, 422.71 MMac, 0.635% MACs, 
                (conv): Conv2d(65.54 k, 0.227% Params, 419.43 MMac, 0.630% MACs, 256, 256, kernel_size=(1, 1), stride=(1, 1), bias=False)
                (bn): BatchNorm2d(512, 0.002% Params, 3.28 MMac, 0.005% MACs, 256, eps=0.001, momentum=0.03, affine=True, track_running_stats=True)
                (act): SiLU(0, 0.000% Params, 0.0 Mac, 0.000% MACs, inplace=True)
              )
            )
            (2): Conv2d(20.56 k, 0.071% Params, 131.58 MMac, 0.198% MACs, 256, 80, kernel_size=(1, 1), stride=(1, 1))
          )
          (1): Sequential(
            226.64 k, 0.784% Params, 362.62 MMac, 0.545% MACs, 
            (0): Sequential(
              137.22 k, 0.475% Params, 219.55 MMac, 0.330% MACs, 
              (0): Conv(
                5.63 k, 0.019% Params, 9.01 MMac, 0.014% MACs, 
                (conv): Conv2d(4.61 k, 0.016% Params, 7.37 MMac, 0.011% MACs, 512, 512, kernel_size=(3, 3), stride=(1, 1), padding=(1, 1), groups=512, bias=False)
                (bn): BatchNorm2d(1.02 k, 0.004% Params, 1.64 MMac, 0.002% MACs, 512, eps=0.001, momentum=0.03, affine=True, track_running_stats=True)
                (act): SiLU(0, 0.000% Params, 0.0 Mac, 0.000% MACs, inplace=True)
              )
              (1): Conv(
                131.58 k, 0.455% Params, 210.53 MMac, 0.316% MACs, 
                (conv): Conv2d(131.07 k, 0.453% Params, 209.72 MMac, 0.315% MACs, 512, 256, kernel_size=(1, 1), stride=(1, 1), bias=False)
                (bn): BatchNorm2d(512, 0.002% Params, 819.2 KMac, 0.001% MACs, 256, eps=0.001, momentum=0.03, affine=True, track_running_stats=True)
                (act): SiLU(0, 0.000% Params, 0.0 Mac, 0.000% MACs, inplace=True)
              )
            )
            (1): Sequential(
              68.86 k, 0.238% Params, 110.18 MMac, 0.165% MACs, 
              (0): Conv(
                2.82 k, 0.010% Params, 4.51 MMac, 0.007% MACs, 
                (conv): Conv2d(2.3 k, 0.008% Params, 3.69 MMac, 0.006% MACs, 256, 256, kernel_size=(3, 3), stride=(1, 1), padding=(1, 1), groups=256, bias=False)
                (bn): BatchNorm2d(512, 0.002% Params, 819.2 KMac, 0.001% MACs, 256, eps=0.001, momentum=0.03, affine=True, track_running_stats=True)
                (act): SiLU(0, 0.000% Params, 0.0 Mac, 0.000% MACs, inplace=True)
              )
              (1): Conv(
                66.05 k, 0.228% Params, 105.68 MMac, 0.159% MACs, 
                (conv): Conv2d(65.54 k, 0.227% Params, 104.86 MMac, 0.157% MACs, 256, 256, kernel_size=(1, 1), stride=(1, 1), bias=False)
                (bn): BatchNorm2d(512, 0.002% Params, 819.2 KMac, 0.001% MACs, 256, eps=0.001, momentum=0.03, affine=True, track_running_stats=True)
                (act): SiLU(0, 0.000% Params, 0.0 Mac, 0.000% MACs, inplace=True)
              )
            )
            (2): Conv2d(20.56 k, 0.071% Params, 32.9 MMac, 0.049% MACs, 256, 80, kernel_size=(1, 1), stride=(1, 1))
          )
          (2): Sequential(
            226.64 k, 0.784% Params, 90.66 MMac, 0.136% MACs, 
            (0): Sequential(
              137.22 k, 0.475% Params, 54.89 MMac, 0.082% MACs, 
              (0): Conv(
                5.63 k, 0.019% Params, 2.25 MMac, 0.003% MACs, 
                (conv): Conv2d(4.61 k, 0.016% Params, 1.84 MMac, 0.003% MACs, 512, 512, kernel_size=(3, 3), stride=(1, 1), padding=(1, 1), groups=512, bias=False)
                (bn): BatchNorm2d(1.02 k, 0.004% Params, 409.6 KMac, 0.001% MACs, 512, eps=0.001, momentum=0.03, affine=True, track_running_stats=True)
                (act): SiLU(0, 0.000% Params, 0.0 Mac, 0.000% MACs, inplace=True)
              )
              (1): Conv(
                131.58 k, 0.455% Params, 52.63 MMac, 0.079% MACs, 
                (conv): Conv2d(131.07 k, 0.453% Params, 52.43 MMac, 0.079% MACs, 512, 256, kernel_size=(1, 1), stride=(1, 1), bias=False)
                (bn): BatchNorm2d(512, 0.002% Params, 204.8 KMac, 0.000% MACs, 256, eps=0.001, momentum=0.03, affine=True, track_running_stats=True)
                (act): SiLU(0, 0.000% Params, 0.0 Mac, 0.000% MACs, inplace=True)
              )
            )
            (1): Sequential(
              68.86 k, 0.238% Params, 27.55 MMac, 0.041% MACs, 
              (0): Conv(
                2.82 k, 0.010% Params, 1.13 MMac, 0.002% MACs, 
                (conv): Conv2d(2.3 k, 0.008% Params, 921.6 KMac, 0.001% MACs, 256, 256, kernel_size=(3, 3), stride=(1, 1), padding=(1, 1), groups=256, bias=False)
                (bn): BatchNorm2d(512, 0.002% Params, 204.8 KMac, 0.000% MACs, 256, eps=0.001, momentum=0.03, affine=True, track_running_stats=True)
                (act): SiLU(0, 0.000% Params, 0.0 Mac, 0.000% MACs, inplace=True)
              )
              (1): Conv(
                66.05 k, 0.228% Params, 26.42 MMac, 0.040% MACs, 
                (conv): Conv2d(65.54 k, 0.227% Params, 26.21 MMac, 0.039% MACs, 256, 256, kernel_size=(1, 1), stride=(1, 1), bias=False)
                (bn): BatchNorm2d(512, 0.002% Params, 204.8 KMac, 0.000% MACs, 256, eps=0.001, momentum=0.03, affine=True, track_running_stats=True)
                (act): SiLU(0, 0.000% Params, 0.0 Mac, 0.000% MACs, inplace=True)
              )
            )
            (2): Conv2d(20.56 k, 0.071% Params, 8.22 MMac, 0.012% MACs, 256, 80, kernel_size=(1, 1), stride=(1, 1))
          )
        )
        (dfl): DFL(
          0, 0.000% Params, 537.6 KMac, 0.001% MACs, 
          (conv): Conv2d(0, 0.000% Params, 537.6 KMac, 0.001% MACs, 16, 1, kernel_size=(1, 1), stride=(1, 1), bias=False)
        )
        (one2one_cv2): ModuleList(
          (0): Sequential(
            188.74 k, 0.653% Params, 1.21 GMac, 1.814% MACs, 
            (0): Conv(
              147.58 k, 0.510% Params, 944.54 MMac, 1.418% MACs, 
              (conv): Conv2d(147.46 k, 0.510% Params, 943.72 MMac, 1.417% MACs, 256, 64, kernel_size=(3, 3), stride=(1, 1), padding=(1, 1), bias=False)
              (bn): BatchNorm2d(128, 0.000% Params, 819.2 KMac, 0.001% MACs, 64, eps=0.001, momentum=0.03, affine=True, track_running_stats=True)
              (act): SiLU(0, 0.000% Params, 0.0 Mac, 0.000% MACs, inplace=True)
            )
            (1): Conv(
              36.99 k, 0.128% Params, 236.75 MMac, 0.356% MACs, 
              (conv): Conv2d(36.86 k, 0.127% Params, 235.93 MMac, 0.354% MACs, 64, 64, kernel_size=(3, 3), stride=(1, 1), padding=(1, 1), bias=False)
              (bn): BatchNorm2d(128, 0.000% Params, 819.2 KMac, 0.001% MACs, 64, eps=0.001, momentum=0.03, affine=True, track_running_stats=True)
              (act): SiLU(0, 0.000% Params, 0.0 Mac, 0.000% MACs, inplace=True)
            )
            (2): Conv2d(4.16 k, 0.014% Params, 26.62 MMac, 0.040% MACs, 64, 64, kernel_size=(1, 1), stride=(1, 1))
          )
          (1): Sequential(
            336.19 k, 1.163% Params, 537.91 MMac, 0.808% MACs, 
            (0): Conv(
              295.04 k, 1.020% Params, 472.06 MMac, 0.709% MACs, 
              (conv): Conv2d(294.91 k, 1.020% Params, 471.86 MMac, 0.709% MACs, 512, 64, kernel_size=(3, 3), stride=(1, 1), padding=(1, 1), bias=False)
              (bn): BatchNorm2d(128, 0.000% Params, 204.8 KMac, 0.000% MACs, 64, eps=0.001, momentum=0.03, affine=True, track_running_stats=True)
              (act): SiLU(0, 0.000% Params, 0.0 Mac, 0.000% MACs, inplace=True)
            )
            (1): Conv(
              36.99 k, 0.128% Params, 59.19 MMac, 0.089% MACs, 
              (conv): Conv2d(36.86 k, 0.127% Params, 58.98 MMac, 0.089% MACs, 64, 64, kernel_size=(3, 3), stride=(1, 1), padding=(1, 1), bias=False)
              (bn): BatchNorm2d(128, 0.000% Params, 204.8 KMac, 0.000% MACs, 64, eps=0.001, momentum=0.03, affine=True, track_running_stats=True)
              (act): SiLU(0, 0.000% Params, 0.0 Mac, 0.000% MACs, inplace=True)
            )
            (2): Conv2d(4.16 k, 0.014% Params, 6.66 MMac, 0.010% MACs, 64, 64, kernel_size=(1, 1), stride=(1, 1))
          )
          (2): Sequential(
            336.19 k, 1.163% Params, 134.48 MMac, 0.202% MACs, 
            (0): Conv(
              295.04 k, 1.020% Params, 118.02 MMac, 0.177% MACs, 
              (conv): Conv2d(294.91 k, 1.020% Params, 117.96 MMac, 0.177% MACs, 512, 64, kernel_size=(3, 3), stride=(1, 1), padding=(1, 1), bias=False)
              (bn): BatchNorm2d(128, 0.000% Params, 51.2 KMac, 0.000% MACs, 64, eps=0.001, momentum=0.03, affine=True, track_running_stats=True)
              (act): SiLU(0, 0.000% Params, 0.0 Mac, 0.000% MACs, inplace=True)
            )
            (1): Conv(
              36.99 k, 0.128% Params, 14.8 MMac, 0.022% MACs, 
              (conv): Conv2d(36.86 k, 0.127% Params, 14.75 MMac, 0.022% MACs, 64, 64, kernel_size=(3, 3), stride=(1, 1), padding=(1, 1), bias=False)
              (bn): BatchNorm2d(128, 0.000% Params, 51.2 KMac, 0.000% MACs, 64, eps=0.001, momentum=0.03, affine=True, track_running_stats=True)
              (act): SiLU(0, 0.000% Params, 0.0 Mac, 0.000% MACs, inplace=True)
            )
            (2): Conv2d(4.16 k, 0.014% Params, 1.66 MMac, 0.002% MACs, 64, 64, kernel_size=(1, 1), stride=(1, 1))
          )
        )
        (one2one_cv3): ModuleList(
          (0): Sequential(
            158.29 k, 0.547% Params, 1.01 GMac, 1.521% MACs, 
            (0): Sequential(
              68.86 k, 0.238% Params, 440.73 MMac, 0.662% MACs, 
              (0): Conv(
                2.82 k, 0.010% Params, 18.02 MMac, 0.027% MACs, 
                (conv): Conv2d(2.3 k, 0.008% Params, 14.75 MMac, 0.022% MACs, 256, 256, kernel_size=(3, 3), stride=(1, 1), padding=(1, 1), groups=256, bias=False)
                (bn): BatchNorm2d(512, 0.002% Params, 3.28 MMac, 0.005% MACs, 256, eps=0.001, momentum=0.03, affine=True, track_running_stats=True)
                (act): SiLU(0, 0.000% Params, 0.0 Mac, 0.000% MACs, inplace=True)
              )
              (1): Conv(
                66.05 k, 0.228% Params, 422.71 MMac, 0.635% MACs, 
                (conv): Conv2d(65.54 k, 0.227% Params, 419.43 MMac, 0.630% MACs, 256, 256, kernel_size=(1, 1), stride=(1, 1), bias=False)
                (bn): BatchNorm2d(512, 0.002% Params, 3.28 MMac, 0.005% MACs, 256, eps=0.001, momentum=0.03, affine=True, track_running_stats=True)
                (act): SiLU(0, 0.000% Params, 0.0 Mac, 0.000% MACs, inplace=True)
              )
            )
            (1): Sequential(
              68.86 k, 0.238% Params, 440.73 MMac, 0.662% MACs, 
              (0): Conv(
                2.82 k, 0.010% Params, 18.02 MMac, 0.027% MACs, 
                (conv): Conv2d(2.3 k, 0.008% Params, 14.75 MMac, 0.022% MACs, 256, 256, kernel_size=(3, 3), stride=(1, 1), padding=(1, 1), groups=256, bias=False)
                (bn): BatchNorm2d(512, 0.002% Params, 3.28 MMac, 0.005% MACs, 256, eps=0.001, momentum=0.03, affine=True, track_running_stats=True)
                (act): SiLU(0, 0.000% Params, 0.0 Mac, 0.000% MACs, inplace=True)
              )
              (1): Conv(
                66.05 k, 0.228% Params, 422.71 MMac, 0.635% MACs, 
                (conv): Conv2d(65.54 k, 0.227% Params, 419.43 MMac, 0.630% MACs, 256, 256, kernel_size=(1, 1), stride=(1, 1), bias=False)
                (bn): BatchNorm2d(512, 0.002% Params, 3.28 MMac, 0.005% MACs, 256, eps=0.001, momentum=0.03, affine=True, track_running_stats=True)
                (act): SiLU(0, 0.000% Params, 0.0 Mac, 0.000% MACs, inplace=True)
              )
            )
            (2): Conv2d(20.56 k, 0.071% Params, 131.58 MMac, 0.198% MACs, 256, 80, kernel_size=(1, 1), stride=(1, 1))
          )
          (1): Sequential(
            226.64 k, 0.784% Params, 362.62 MMac, 0.545% MACs, 
            (0): Sequential(
              137.22 k, 0.475% Params, 219.55 MMac, 0.330% MACs, 
              (0): Conv(
                5.63 k, 0.019% Params, 9.01 MMac, 0.014% MACs, 
                (conv): Conv2d(4.61 k, 0.016% Params, 7.37 MMac, 0.011% MACs, 512, 512, kernel_size=(3, 3), stride=(1, 1), padding=(1, 1), groups=512, bias=False)
                (bn): BatchNorm2d(1.02 k, 0.004% Params, 1.64 MMac, 0.002% MACs, 512, eps=0.001, momentum=0.03, affine=True, track_running_stats=True)
                (act): SiLU(0, 0.000% Params, 0.0 Mac, 0.000% MACs, inplace=True)
              )
              (1): Conv(
                131.58 k, 0.455% Params, 210.53 MMac, 0.316% MACs, 
                (conv): Conv2d(131.07 k, 0.453% Params, 209.72 MMac, 0.315% MACs, 512, 256, kernel_size=(1, 1), stride=(1, 1), bias=False)
                (bn): BatchNorm2d(512, 0.002% Params, 819.2 KMac, 0.001% MACs, 256, eps=0.001, momentum=0.03, affine=True, track_running_stats=True)
                (act): SiLU(0, 0.000% Params, 0.0 Mac, 0.000% MACs, inplace=True)
              )
            )
            (1): Sequential(
              68.86 k, 0.238% Params, 110.18 MMac, 0.165% MACs, 
              (0): Conv(
                2.82 k, 0.010% Params, 4.51 MMac, 0.007% MACs, 
                (conv): Conv2d(2.3 k, 0.008% Params, 3.69 MMac, 0.006% MACs, 256, 256, kernel_size=(3, 3), stride=(1, 1), padding=(1, 1), groups=256, bias=False)
                (bn): BatchNorm2d(512, 0.002% Params, 819.2 KMac, 0.001% MACs, 256, eps=0.001, momentum=0.03, affine=True, track_running_stats=True)
                (act): SiLU(0, 0.000% Params, 0.0 Mac, 0.000% MACs, inplace=True)
              )
              (1): Conv(
                66.05 k, 0.228% Params, 105.68 MMac, 0.159% MACs, 
                (conv): Conv2d(65.54 k, 0.227% Params, 104.86 MMac, 0.157% MACs, 256, 256, kernel_size=(1, 1), stride=(1, 1), bias=False)
                (bn): BatchNorm2d(512, 0.002% Params, 819.2 KMac, 0.001% MACs, 256, eps=0.001, momentum=0.03, affine=True, track_running_stats=True)
                (act): SiLU(0, 0.000% Params, 0.0 Mac, 0.000% MACs, inplace=True)
              )
            )
            (2): Conv2d(20.56 k, 0.071% Params, 32.9 MMac, 0.049% MACs, 256, 80, kernel_size=(1, 1), stride=(1, 1))
          )
          (2): Sequential(
            226.64 k, 0.784% Params, 90.66 MMac, 0.136% MACs, 
            (0): Sequential(
              137.22 k, 0.475% Params, 54.89 MMac, 0.082% MACs, 
              (0): Conv(
                5.63 k, 0.019% Params, 2.25 MMac, 0.003% MACs, 
                (conv): Conv2d(4.61 k, 0.016% Params, 1.84 MMac, 0.003% MACs, 512, 512, kernel_size=(3, 3), stride=(1, 1), padding=(1, 1), groups=512, bias=False)
                (bn): BatchNorm2d(1.02 k, 0.004% Params, 409.6 KMac, 0.001% MACs, 512, eps=0.001, momentum=0.03, affine=True, track_running_stats=True)
                (act): SiLU(0, 0.000% Params, 0.0 Mac, 0.000% MACs, inplace=True)
              )
              (1): Conv(
                131.58 k, 0.455% Params, 52.63 MMac, 0.079% MACs, 
                (conv): Conv2d(131.07 k, 0.453% Params, 52.43 MMac, 0.079% MACs, 512, 256, kernel_size=(1, 1), stride=(1, 1), bias=False)
                (bn): BatchNorm2d(512, 0.002% Params, 204.8 KMac, 0.000% MACs, 256, eps=0.001, momentum=0.03, affine=True, track_running_stats=True)
                (act): SiLU(0, 0.000% Params, 0.0 Mac, 0.000% MACs, inplace=True)
              )
            )
            (1): Sequential(
              68.86 k, 0.238% Params, 27.55 MMac, 0.041% MACs, 
              (0): Conv(
                2.82 k, 0.010% Params, 1.13 MMac, 0.002% MACs, 
                (conv): Conv2d(2.3 k, 0.008% Params, 921.6 KMac, 0.001% MACs, 256, 256, kernel_size=(3, 3), stride=(1, 1), padding=(1, 1), groups=256, bias=False)
                (bn): BatchNorm2d(512, 0.002% Params, 204.8 KMac, 0.000% MACs, 256, eps=0.001, momentum=0.03, affine=True, track_running_stats=True)
                (act): SiLU(0, 0.000% Params, 0.0 Mac, 0.000% MACs, inplace=True)
              )
              (1): Conv(
                66.05 k, 0.228% Params, 26.42 MMac, 0.040% MACs, 
                (conv): Conv2d(65.54 k, 0.227% Params, 26.21 MMac, 0.039% MACs, 256, 256, kernel_size=(1, 1), stride=(1, 1), bias=False)
                (bn): BatchNorm2d(512, 0.002% Params, 204.8 KMac, 0.000% MACs, 256, eps=0.001, momentum=0.03, affine=True, track_running_stats=True)
                (act): SiLU(0, 0.000% Params, 0.0 Mac, 0.000% MACs, inplace=True)
              )
            )
            (2): Conv2d(20.56 k, 0.071% Params, 8.22 MMac, 0.012% MACs, 256, 80, kernel_size=(1, 1), stride=(1, 1))
          )
        )
      )
    )
  )
)
FLOPs: 66.59 GMac, Params: 28.92 M
self.args.nbs: 256
[rank0]:[W715 13:44:55.976364109 reducer.cpp:1430] Warning: find_unused_parameters=True was specified in DDP constructor, but did not find any unused parameters in the forward pass. This flag results in an extra traversal of the autograd graph every iteration,  which can adversely affect performance. If your model indeed never has any unused parameters in the forward pass, consider turning this flag off. Note that this warning may be a false positive if your model has flow control causing later iterations to have unused parameters. (function operator())
DistributedDataParallel(
  28.92 M, 100.000% Params, 65.09 GMac, 97.755% MACs, 
  (module): DetectionModel(
    28.92 M, 100.000% Params, 65.09 GMac, 97.755% MACs, 
    (model): Sequential(
      28.92 M, 100.000% Params, 65.09 GMac, 97.755% MACs, 
      (0): Conv(
        1.86 k, 0.006% Params, 190.05 MMac, 0.285% MACs, 
        (conv): Conv2d(1.73 k, 0.006% Params, 176.95 MMac, 0.266% MACs, 3, 64, kernel_size=(3, 3), stride=(2, 2), padding=(1, 1), bias=False)
        (bn): BatchNorm2d(128, 0.000% Params, 13.11 MMac, 0.020% MACs, 64, eps=0.001, momentum=0.03, affine=True, track_running_stats=True)
        (act): SiLU(0, 0.000% Params, 0.0 Mac, 0.000% MACs, inplace=True)
      )
      (1): Conv(
        73.98 k, 0.256% Params, 1.89 GMac, 2.844% MACs, 
        (conv): Conv2d(73.73 k, 0.255% Params, 1.89 GMac, 2.835% MACs, 64, 128, kernel_size=(3, 3), stride=(2, 2), padding=(1, 1), bias=False)
        (bn): BatchNorm2d(256, 0.001% Params, 6.55 MMac, 0.010% MACs, 128, eps=0.001, momentum=0.03, affine=True, track_running_stats=True)
        (act): SiLU(0, 0.000% Params, 0.0 Mac, 0.000% MACs, inplace=True)
      )
      (2): C2f(
        279.81 k, 0.968% Params, 7.16 GMac, 10.757% MACs, 
        (cv1): Conv(
          16.64 k, 0.058% Params, 425.98 MMac, 0.640% MACs, 
          (conv): Conv2d(16.38 k, 0.057% Params, 419.43 MMac, 0.630% MACs, 128, 128, kernel_size=(1, 1), stride=(1, 1), bias=False)
          (bn): BatchNorm2d(256, 0.001% Params, 6.55 MMac, 0.010% MACs, 128, eps=0.001, momentum=0.03, affine=True, track_running_stats=True)
          (act): SiLU(0, 0.000% Params, 0.0 Mac, 0.000% MACs, inplace=True)
        )
        (cv2): Conv(
          41.22 k, 0.143% Params, 1.06 GMac, 1.585% MACs, 
          (conv): Conv2d(40.96 k, 0.142% Params, 1.05 GMac, 1.575% MACs, 320, 128, kernel_size=(1, 1), stride=(1, 1), bias=False)
          (bn): BatchNorm2d(256, 0.001% Params, 6.55 MMac, 0.010% MACs, 128, eps=0.001, momentum=0.03, affine=True, track_running_stats=True)
          (act): SiLU(0, 0.000% Params, 0.0 Mac, 0.000% MACs, inplace=True)
        )
        (m): ModuleList(
          (0-2): 3 x Bottleneck(
            73.98 k, 0.256% Params, 1.89 GMac, 2.844% MACs, 
            (cv1): Conv(
              36.99 k, 0.128% Params, 947.0 MMac, 1.422% MACs, 
              (conv): Conv2d(36.86 k, 0.127% Params, 943.72 MMac, 1.417% MACs, 64, 64, kernel_size=(3, 3), stride=(1, 1), padding=(1, 1), bias=False)
              (bn): BatchNorm2d(128, 0.000% Params, 3.28 MMac, 0.005% MACs, 64, eps=0.001, momentum=0.03, affine=True, track_running_stats=True)
              (act): SiLU(0, 0.000% Params, 0.0 Mac, 0.000% MACs, inplace=True)
            )
            (cv2): Conv(
              36.99 k, 0.128% Params, 947.0 MMac, 1.422% MACs, 
              (conv): Conv2d(36.86 k, 0.127% Params, 943.72 MMac, 1.417% MACs, 64, 64, kernel_size=(3, 3), stride=(1, 1), padding=(1, 1), bias=False)
              (bn): BatchNorm2d(128, 0.000% Params, 3.28 MMac, 0.005% MACs, 64, eps=0.001, momentum=0.03, affine=True, track_running_stats=True)
              (act): SiLU(0, 0.000% Params, 0.0 Mac, 0.000% MACs, inplace=True)
            )
          )
        )
      )
      (3): Conv(
        295.42 k, 1.022% Params, 1.89 GMac, 2.839% MACs, 
        (conv): Conv2d(294.91 k, 1.020% Params, 1.89 GMac, 2.835% MACs, 128, 256, kernel_size=(3, 3), stride=(2, 2), padding=(1, 1), bias=False)
        (bn): BatchNorm2d(512, 0.002% Params, 3.28 MMac, 0.005% MACs, 256, eps=0.001, momentum=0.03, affine=True, track_running_stats=True)
        (act): SiLU(0, 0.000% Params, 0.0 Mac, 0.000% MACs, inplace=True)
      )
      (4): C2f(
        2.1 M, 7.266% Params, 13.45 GMac, 20.196% MACs, 
        (cv1): Conv(
          66.05 k, 0.228% Params, 422.71 MMac, 0.635% MACs, 
          (conv): Conv2d(65.54 k, 0.227% Params, 419.43 MMac, 0.630% MACs, 256, 256, kernel_size=(1, 1), stride=(1, 1), bias=False)
          (bn): BatchNorm2d(512, 0.002% Params, 3.28 MMac, 0.005% MACs, 256, eps=0.001, momentum=0.03, affine=True, track_running_stats=True)
          (act): SiLU(0, 0.000% Params, 0.0 Mac, 0.000% MACs, inplace=True)
        )
        (cv2): Conv(
          262.66 k, 0.908% Params, 1.68 GMac, 2.524% MACs, 
          (conv): Conv2d(262.14 k, 0.907% Params, 1.68 GMac, 2.520% MACs, 1024, 256, kernel_size=(1, 1), stride=(1, 1), bias=False)
          (bn): BatchNorm2d(512, 0.002% Params, 3.28 MMac, 0.005% MACs, 256, eps=0.001, momentum=0.03, affine=True, track_running_stats=True)
          (act): SiLU(0, 0.000% Params, 0.0 Mac, 0.000% MACs, inplace=True)
        )
        (m): ModuleList(
          (0-5): 6 x Bottleneck(
            295.42 k, 1.022% Params, 1.89 GMac, 2.839% MACs, 
            (cv1): Conv(
              147.71 k, 0.511% Params, 945.36 MMac, 1.420% MACs, 
              (conv): Conv2d(147.46 k, 0.510% Params, 943.72 MMac, 1.417% MACs, 128, 128, kernel_size=(3, 3), stride=(1, 1), padding=(1, 1), bias=False)
              (bn): BatchNorm2d(256, 0.001% Params, 1.64 MMac, 0.002% MACs, 128, eps=0.001, momentum=0.03, affine=True, track_running_stats=True)
              (act): SiLU(0, 0.000% Params, 0.0 Mac, 0.000% MACs, inplace=True)
            )
            (cv2): Conv(
              147.71 k, 0.511% Params, 945.36 MMac, 1.420% MACs, 
              (conv): Conv2d(147.46 k, 0.510% Params, 943.72 MMac, 1.417% MACs, 128, 128, kernel_size=(3, 3), stride=(1, 1), padding=(1, 1), bias=False)
              (bn): BatchNorm2d(256, 0.001% Params, 1.64 MMac, 0.002% MACs, 128, eps=0.001, momentum=0.03, affine=True, track_running_stats=True)
              (act): SiLU(0, 0.000% Params, 0.0 Mac, 0.000% MACs, inplace=True)
            )
          )
        )
      )
      (5): SCDown(
        137.73 k, 0.476% Params, 854.43 MMac, 1.283% MACs, 
        (cv1): Conv(
          132.1 k, 0.457% Params, 845.41 MMac, 1.270% MACs, 
          (conv): Conv2d(131.07 k, 0.453% Params, 838.86 MMac, 1.260% MACs, 256, 512, kernel_size=(1, 1), stride=(1, 1), bias=False)
          (bn): BatchNorm2d(1.02 k, 0.004% Params, 6.55 MMac, 0.010% MACs, 512, eps=0.001, momentum=0.03, affine=True, track_running_stats=True)
          (act): SiLU(0, 0.000% Params, 0.0 Mac, 0.000% MACs, inplace=True)
        )
        (cv2): Conv(
          5.63 k, 0.019% Params, 9.01 MMac, 0.014% MACs, 
          (conv): Conv2d(4.61 k, 0.016% Params, 7.37 MMac, 0.011% MACs, 512, 512, kernel_size=(3, 3), stride=(2, 2), padding=(1, 1), groups=512, bias=False)
          (bn): BatchNorm2d(1.02 k, 0.004% Params, 1.64 MMac, 0.002% MACs, 512, eps=0.001, momentum=0.03, affine=True, track_running_stats=True)
          (act): Identity(0, 0.000% Params, 0.0 Mac, 0.000% MACs, )
        )
      )
      (6): C2f(
        8.4 M, 29.037% Params, 13.43 GMac, 20.176% MACs, 
        (cv1): Conv(
          263.17 k, 0.910% Params, 421.07 MMac, 0.632% MACs, 
          (conv): Conv2d(262.14 k, 0.907% Params, 419.43 MMac, 0.630% MACs, 512, 512, kernel_size=(1, 1), stride=(1, 1), bias=False)
          (bn): BatchNorm2d(1.02 k, 0.004% Params, 1.64 MMac, 0.002% MACs, 512, eps=0.001, momentum=0.03, affine=True, track_running_stats=True)
          (act): SiLU(0, 0.000% Params, 0.0 Mac, 0.000% MACs, inplace=True)
        )
        (cv2): Conv(
          1.05 M, 3.630% Params, 1.68 GMac, 2.522% MACs, 
          (conv): Conv2d(1.05 M, 3.626% Params, 1.68 GMac, 2.520% MACs, 2048, 512, kernel_size=(1, 1), stride=(1, 1), bias=False)
          (bn): BatchNorm2d(1.02 k, 0.004% Params, 1.64 MMac, 0.002% MACs, 512, eps=0.001, momentum=0.03, affine=True, track_running_stats=True)
          (act): SiLU(0, 0.000% Params, 0.0 Mac, 0.000% MACs, inplace=True)
        )
        (m): ModuleList(
          (0-5): 6 x Bottleneck(
            1.18 M, 4.083% Params, 1.89 GMac, 2.837% MACs, 
            (cv1): Conv(
              590.34 k, 2.041% Params, 944.54 MMac, 1.418% MACs, 
              (conv): Conv2d(589.82 k, 2.040% Params, 943.72 MMac, 1.417% MACs, 256, 256, kernel_size=(3, 3), stride=(1, 1), padding=(1, 1), bias=False)
              (bn): BatchNorm2d(512, 0.002% Params, 819.2 KMac, 0.001% MACs, 256, eps=0.001, momentum=0.03, affine=True, track_running_stats=True)
              (act): SiLU(0, 0.000% Params, 0.0 Mac, 0.000% MACs, inplace=True)
            )
            (cv2): Conv(
              590.34 k, 2.041% Params, 944.54 MMac, 1.418% MACs, 
              (conv): Conv2d(589.82 k, 2.040% Params, 943.72 MMac, 1.417% MACs, 256, 256, kernel_size=(3, 3), stride=(1, 1), padding=(1, 1), bias=False)
              (bn): BatchNorm2d(512, 0.002% Params, 819.2 KMac, 0.001% MACs, 256, eps=0.001, momentum=0.03, affine=True, track_running_stats=True)
              (act): SiLU(0, 0.000% Params, 0.0 Mac, 0.000% MACs, inplace=True)
            )
          )
        )
      )
      (7): SCDown(
        268.8 k, 0.930% Params, 423.32 MMac, 0.636% MACs, 
        (cv1): Conv(
          263.17 k, 0.910% Params, 421.07 MMac, 0.632% MACs, 
          (conv): Conv2d(262.14 k, 0.907% Params, 419.43 MMac, 0.630% MACs, 512, 512, kernel_size=(1, 1), stride=(1, 1), bias=False)
          (bn): BatchNorm2d(1.02 k, 0.004% Params, 1.64 MMac, 0.002% MACs, 512, eps=0.001, momentum=0.03, affine=True, track_running_stats=True)
          (act): SiLU(0, 0.000% Params, 0.0 Mac, 0.000% MACs, inplace=True)
        )
        (cv2): Conv(
          5.63 k, 0.019% Params, 2.25 MMac, 0.003% MACs, 
          (conv): Conv2d(4.61 k, 0.016% Params, 1.84 MMac, 0.003% MACs, 512, 512, kernel_size=(3, 3), stride=(2, 2), padding=(1, 1), groups=512, bias=False)
          (bn): BatchNorm2d(1.02 k, 0.004% Params, 409.6 KMac, 0.001% MACs, 512, eps=0.001, momentum=0.03, affine=True, track_running_stats=True)
          (act): Identity(0, 0.000% Params, 0.0 Mac, 0.000% MACs, )
        )
      )
      (8): C2fCIB(
        1.74 M, 6.032% Params, 697.75 MMac, 1.048% MACs, 
        (cv1): Conv(
          263.17 k, 0.910% Params, 105.27 MMac, 0.158% MACs, 
          (conv): Conv2d(262.14 k, 0.907% Params, 104.86 MMac, 0.157% MACs, 512, 512, kernel_size=(1, 1), stride=(1, 1), bias=False)
          (bn): BatchNorm2d(1.02 k, 0.004% Params, 409.6 KMac, 0.001% MACs, 512, eps=0.001, momentum=0.03, affine=True, track_running_stats=True)
          (act): SiLU(0, 0.000% Params, 0.0 Mac, 0.000% MACs, inplace=True)
        )
        (cv2): Conv(
          656.38 k, 2.270% Params, 262.55 MMac, 0.394% MACs, 
          (conv): Conv2d(655.36 k, 2.266% Params, 262.14 MMac, 0.394% MACs, 1280, 512, kernel_size=(1, 1), stride=(1, 1), bias=False)
          (bn): BatchNorm2d(1.02 k, 0.004% Params, 409.6 KMac, 0.001% MACs, 512, eps=0.001, momentum=0.03, affine=True, track_running_stats=True)
          (act): SiLU(0, 0.000% Params, 0.0 Mac, 0.000% MACs, inplace=True)
        )
        (m): ModuleList(
          (0-2): 3 x CIB(
            274.94 k, 0.951% Params, 109.98 MMac, 0.165% MACs, 
            (cv1): Sequential(
              274.94 k, 0.951% Params, 109.98 MMac, 0.165% MACs, 
              (0): Conv(
                2.82 k, 0.010% Params, 1.13 MMac, 0.002% MACs, 
                (conv): Conv2d(2.3 k, 0.008% Params, 921.6 KMac, 0.001% MACs, 256, 256, kernel_size=(3, 3), stride=(1, 1), padding=(1, 1), groups=256, bias=False)
                (bn): BatchNorm2d(512, 0.002% Params, 204.8 KMac, 0.000% MACs, 256, eps=0.001, momentum=0.03, affine=True, track_running_stats=True)
                (act): SiLU(0, 0.000% Params, 0.0 Mac, 0.000% MACs, inplace=True)
              )
              (1): Conv(
                132.1 k, 0.457% Params, 52.84 MMac, 0.079% MACs, 
                (conv): Conv2d(131.07 k, 0.453% Params, 52.43 MMac, 0.079% MACs, 256, 512, kernel_size=(1, 1), stride=(1, 1), bias=False)
                (bn): BatchNorm2d(1.02 k, 0.004% Params, 409.6 KMac, 0.001% MACs, 512, eps=0.001, momentum=0.03, affine=True, track_running_stats=True)
                (act): SiLU(0, 0.000% Params, 0.0 Mac, 0.000% MACs, inplace=True)
              )
              (2): Conv(
                5.63 k, 0.019% Params, 2.25 MMac, 0.003% MACs, 
                (conv): Conv2d(4.61 k, 0.016% Params, 1.84 MMac, 0.003% MACs, 512, 512, kernel_size=(3, 3), stride=(1, 1), padding=(1, 1), groups=512, bias=False)
                (bn): BatchNorm2d(1.02 k, 0.004% Params, 409.6 KMac, 0.001% MACs, 512, eps=0.001, momentum=0.03, affine=True, track_running_stats=True)
                (act): SiLU(0, 0.000% Params, 0.0 Mac, 0.000% MACs, inplace=True)
              )
              (3): Conv(
                131.58 k, 0.455% Params, 52.63 MMac, 0.079% MACs, 
                (conv): Conv2d(131.07 k, 0.453% Params, 52.43 MMac, 0.079% MACs, 512, 256, kernel_size=(1, 1), stride=(1, 1), bias=False)
                (bn): BatchNorm2d(512, 0.002% Params, 204.8 KMac, 0.000% MACs, 256, eps=0.001, momentum=0.03, affine=True, track_running_stats=True)
                (act): SiLU(0, 0.000% Params, 0.0 Mac, 0.000% MACs, inplace=True)
              )
              (4): Conv(
                2.82 k, 0.010% Params, 1.13 MMac, 0.002% MACs, 
                (conv): Conv2d(2.3 k, 0.008% Params, 921.6 KMac, 0.001% MACs, 256, 256, kernel_size=(3, 3), stride=(1, 1), padding=(1, 1), groups=256, bias=False)
                (bn): BatchNorm2d(512, 0.002% Params, 204.8 KMac, 0.000% MACs, 256, eps=0.001, momentum=0.03, affine=True, track_running_stats=True)
                (act): SiLU(0, 0.000% Params, 0.0 Mac, 0.000% MACs, inplace=True)
              )
            )
          )
        )
      )
      (9): SPPF(
        656.9 k, 2.272% Params, 263.07 MMac, 0.395% MACs, 
        (cv1): Conv(
          131.58 k, 0.455% Params, 52.63 MMac, 0.079% MACs, 
          (conv): Conv2d(131.07 k, 0.453% Params, 52.43 MMac, 0.079% MACs, 512, 256, kernel_size=(1, 1), stride=(1, 1), bias=False)
          (bn): BatchNorm2d(512, 0.002% Params, 204.8 KMac, 0.000% MACs, 256, eps=0.001, momentum=0.03, affine=True, track_running_stats=True)
          (act): SiLU(0, 0.000% Params, 0.0 Mac, 0.000% MACs, inplace=True)
        )
        (cv2): Conv(
          525.31 k, 1.817% Params, 210.12 MMac, 0.316% MACs, 
          (conv): Conv2d(524.29 k, 1.813% Params, 209.72 MMac, 0.315% MACs, 1024, 512, kernel_size=(1, 1), stride=(1, 1), bias=False)
          (bn): BatchNorm2d(1.02 k, 0.004% Params, 409.6 KMac, 0.001% MACs, 512, eps=0.001, momentum=0.03, affine=True, track_running_stats=True)
          (act): SiLU(0, 0.000% Params, 0.0 Mac, 0.000% MACs, inplace=True)
        )
        (m): MaxPool2d(0, 0.000% Params, 307.2 KMac, 0.000% MACs, kernel_size=5, stride=1, padding=2, dilation=1, ceil_mode=False)
      )
      (10): PSA(
        990.98 k, 3.427% Params, 396.39 MMac, 0.595% MACs, 
        (cv1): Conv(
          263.17 k, 0.910% Params, 105.27 MMac, 0.158% MACs, 
          (conv): Conv2d(262.14 k, 0.907% Params, 104.86 MMac, 0.157% MACs, 512, 512, kernel_size=(1, 1), stride=(1, 1), bias=False)
          (bn): BatchNorm2d(1.02 k, 0.004% Params, 409.6 KMac, 0.001% MACs, 512, eps=0.001, momentum=0.03, affine=True, track_running_stats=True)
          (act): SiLU(0, 0.000% Params, 0.0 Mac, 0.000% MACs, inplace=True)
        )
        (cv2): Conv(
          263.17 k, 0.910% Params, 105.27 MMac, 0.158% MACs, 
          (conv): Conv2d(262.14 k, 0.907% Params, 104.86 MMac, 0.157% MACs, 512, 512, kernel_size=(1, 1), stride=(1, 1), bias=False)
          (bn): BatchNorm2d(1.02 k, 0.004% Params, 409.6 KMac, 0.001% MACs, 512, eps=0.001, momentum=0.03, affine=True, track_running_stats=True)
          (act): SiLU(0, 0.000% Params, 0.0 Mac, 0.000% MACs, inplace=True)
        )
        (attn): Attention(
          200.96 k, 0.695% Params, 80.38 MMac, 0.121% MACs, 
          (qkv): Conv(
            132.1 k, 0.457% Params, 52.84 MMac, 0.079% MACs, 
            (conv): Conv2d(131.07 k, 0.453% Params, 52.43 MMac, 0.079% MACs, 256, 512, kernel_size=(1, 1), stride=(1, 1), bias=False)
            (bn): BatchNorm2d(1.02 k, 0.004% Params, 409.6 KMac, 0.001% MACs, 512, eps=0.001, momentum=0.03, affine=True, track_running_stats=True)
            (act): Identity(0, 0.000% Params, 0.0 Mac, 0.000% MACs, )
          )
          (proj): Conv(
            66.05 k, 0.228% Params, 26.42 MMac, 0.040% MACs, 
            (conv): Conv2d(65.54 k, 0.227% Params, 26.21 MMac, 0.039% MACs, 256, 256, kernel_size=(1, 1), stride=(1, 1), bias=False)
            (bn): BatchNorm2d(512, 0.002% Params, 204.8 KMac, 0.000% MACs, 256, eps=0.001, momentum=0.03, affine=True, track_running_stats=True)
            (act): Identity(0, 0.000% Params, 0.0 Mac, 0.000% MACs, )
          )
          (pe): Conv(
            2.82 k, 0.010% Params, 1.13 MMac, 0.002% MACs, 
            (conv): Conv2d(2.3 k, 0.008% Params, 921.6 KMac, 0.001% MACs, 256, 256, kernel_size=(3, 3), stride=(1, 1), padding=(1, 1), groups=256, bias=False)
            (bn): BatchNorm2d(512, 0.002% Params, 204.8 KMac, 0.000% MACs, 256, eps=0.001, momentum=0.03, affine=True, track_running_stats=True)
            (act): Identity(0, 0.000% Params, 0.0 Mac, 0.000% MACs, )
          )
        )
        (ffn): Sequential(
          263.68 k, 0.912% Params, 105.47 MMac, 0.158% MACs, 
          (0): Conv(
            132.1 k, 0.457% Params, 52.84 MMac, 0.079% MACs, 
            (conv): Conv2d(131.07 k, 0.453% Params, 52.43 MMac, 0.079% MACs, 256, 512, kernel_size=(1, 1), stride=(1, 1), bias=False)
            (bn): BatchNorm2d(1.02 k, 0.004% Params, 409.6 KMac, 0.001% MACs, 512, eps=0.001, momentum=0.03, affine=True, track_running_stats=True)
            (act): SiLU(0, 0.000% Params, 0.0 Mac, 0.000% MACs, inplace=True)
          )
          (1): Conv(
            131.58 k, 0.455% Params, 52.63 MMac, 0.079% MACs, 
            (conv): Conv2d(131.07 k, 0.453% Params, 52.43 MMac, 0.079% MACs, 512, 256, kernel_size=(1, 1), stride=(1, 1), bias=False)
            (bn): BatchNorm2d(512, 0.002% Params, 204.8 KMac, 0.000% MACs, 256, eps=0.001, momentum=0.03, affine=True, track_running_stats=True)
            (act): Identity(0, 0.000% Params, 0.0 Mac, 0.000% MACs, )
          )
        )
      )
      (11): SpatialAlignTransnormer(
        2.37 M, 8.191% Params, 948.63 MMac, 1.425% MACs, 
        (upsample): Upsample(0, 0.000% Params, 819.2 KMac, 0.001% MACs, scale_factor=2.0, mode='bilinear')
        (high_to_low_embed): Sequential(
          263.68 k, 0.912% Params, 105.47 MMac, 0.158% MACs, 
          (0): Conv2d(262.66 k, 0.908% Params, 105.06 MMac, 0.158% MACs, 512, 512, kernel_size=(1, 1), stride=(1, 1))
          (1): BatchNorm2d(1.02 k, 0.004% Params, 409.6 KMac, 0.001% MACs, 512, eps=0.001, momentum=0.03, affine=True, track_running_stats=True)
        )
        (q_proj): Sequential(
          263.68 k, 0.912% Params, 105.27 MMac, 0.158% MACs, 
          (0): Linear(262.66 k, 0.908% Params, 105.06 MMac, 0.158% MACs, in_features=512, out_features=512, bias=True)
          (1): LayerNorm(1.02 k, 0.004% Params, 204.8 KMac, 0.000% MACs, (512,), eps=1e-05, elementwise_affine=True)
        )
        (k_proj): Sequential(
          263.68 k, 0.912% Params, 105.27 MMac, 0.158% MACs, 
          (0): Linear(262.66 k, 0.908% Params, 105.06 MMac, 0.158% MACs, in_features=512, out_features=512, bias=True)
          (1): LayerNorm(1.02 k, 0.004% Params, 204.8 KMac, 0.000% MACs, (512,), eps=1e-05, elementwise_affine=True)
        )
        (v_proj): Linear(262.66 k, 0.908% Params, 105.06 MMac, 0.158% MACs, in_features=512, out_features=512, bias=True)
        (out_proj): Linear(262.66 k, 0.908% Params, 105.06 MMac, 0.158% MACs, in_features=512, out_features=512, bias=True)
        (attn_norm): RMSNorm(0, 0.000% Params, 0.0 Mac, 0.000% MACs, (16,), eps=None, elementwise_affine=True)
        (linear1): Linear(525.31 k, 1.817% Params, 210.12 MMac, 0.316% MACs, in_features=512, out_features=1024, bias=True)
        (dropout): Dropout(0, 0.000% Params, 0.0 Mac, 0.000% MACs, p=0.0, inplace=False)
        (linear2): Linear(524.8 k, 1.815% Params, 209.92 MMac, 0.315% MACs, in_features=1024, out_features=512, bias=True)
        (activation): GELU(0, 0.000% Params, 409.6 KMac, 0.001% MACs, approximate='none')
        (norm1): LayerNorm(1.02 k, 0.004% Params, 204.8 KMac, 0.000% MACs, (512,), eps=1e-05, elementwise_affine=True)
        (norm2): LayerNorm(1.02 k, 0.004% Params, 204.8 KMac, 0.000% MACs, (512,), eps=1e-05, elementwise_affine=True)
        (dropout1): Dropout(0, 0.000% Params, 0.0 Mac, 0.000% MACs, p=0.0, inplace=False)
        (dropout2): Dropout(0, 0.000% Params, 0.0 Mac, 0.000% MACs, p=0.0, inplace=False)
        (avg_pool_high): Identity(0, 0.000% Params, 0.0 Mac, 0.000% MACs, )
        (avg_pool_low): AvgPool2d(0, 0.000% Params, 819.2 KMac, 0.001% MACs, kernel_size=2, stride=2, padding=0)
      )
      (12): C2fCIB(
        2.01 M, 6.939% Params, 3.21 GMac, 4.821% MACs, 
        (cv1): Conv(
          525.31 k, 1.817% Params, 840.5 MMac, 1.262% MACs, 
          (conv): Conv2d(524.29 k, 1.813% Params, 838.86 MMac, 1.260% MACs, 1024, 512, kernel_size=(1, 1), stride=(1, 1), bias=False)
          (bn): BatchNorm2d(1.02 k, 0.004% Params, 1.64 MMac, 0.002% MACs, 512, eps=0.001, momentum=0.03, affine=True, track_running_stats=True)
          (act): SiLU(0, 0.000% Params, 0.0 Mac, 0.000% MACs, inplace=True)
        )
        (cv2): Conv(
          656.38 k, 2.270% Params, 1.05 GMac, 1.577% MACs, 
          (conv): Conv2d(655.36 k, 2.266% Params, 1.05 GMac, 1.575% MACs, 1280, 512, kernel_size=(1, 1), stride=(1, 1), bias=False)
          (bn): BatchNorm2d(1.02 k, 0.004% Params, 1.64 MMac, 0.002% MACs, 512, eps=0.001, momentum=0.03, affine=True, track_running_stats=True)
          (act): SiLU(0, 0.000% Params, 0.0 Mac, 0.000% MACs, inplace=True)
        )
        (m): ModuleList(
          (0-2): 3 x CIB(
            274.94 k, 0.951% Params, 439.91 MMac, 0.661% MACs, 
            (cv1): Sequential(
              274.94 k, 0.951% Params, 439.91 MMac, 0.661% MACs, 
              (0): Conv(
                2.82 k, 0.010% Params, 4.51 MMac, 0.007% MACs, 
                (conv): Conv2d(2.3 k, 0.008% Params, 3.69 MMac, 0.006% MACs, 256, 256, kernel_size=(3, 3), stride=(1, 1), padding=(1, 1), groups=256, bias=False)
                (bn): BatchNorm2d(512, 0.002% Params, 819.2 KMac, 0.001% MACs, 256, eps=0.001, momentum=0.03, affine=True, track_running_stats=True)
                (act): SiLU(0, 0.000% Params, 0.0 Mac, 0.000% MACs, inplace=True)
              )
              (1): Conv(
                132.1 k, 0.457% Params, 211.35 MMac, 0.317% MACs, 
                (conv): Conv2d(131.07 k, 0.453% Params, 209.72 MMac, 0.315% MACs, 256, 512, kernel_size=(1, 1), stride=(1, 1), bias=False)
                (bn): BatchNorm2d(1.02 k, 0.004% Params, 1.64 MMac, 0.002% MACs, 512, eps=0.001, momentum=0.03, affine=True, track_running_stats=True)
                (act): SiLU(0, 0.000% Params, 0.0 Mac, 0.000% MACs, inplace=True)
              )
              (2): Conv(
                5.63 k, 0.019% Params, 9.01 MMac, 0.014% MACs, 
                (conv): Conv2d(4.61 k, 0.016% Params, 7.37 MMac, 0.011% MACs, 512, 512, kernel_size=(3, 3), stride=(1, 1), padding=(1, 1), groups=512, bias=False)
                (bn): BatchNorm2d(1.02 k, 0.004% Params, 1.64 MMac, 0.002% MACs, 512, eps=0.001, momentum=0.03, affine=True, track_running_stats=True)
                (act): SiLU(0, 0.000% Params, 0.0 Mac, 0.000% MACs, inplace=True)
              )
              (3): Conv(
                131.58 k, 0.455% Params, 210.53 MMac, 0.316% MACs, 
                (conv): Conv2d(131.07 k, 0.453% Params, 209.72 MMac, 0.315% MACs, 512, 256, kernel_size=(1, 1), stride=(1, 1), bias=False)
                (bn): BatchNorm2d(512, 0.002% Params, 819.2 KMac, 0.001% MACs, 256, eps=0.001, momentum=0.03, affine=True, track_running_stats=True)
                (act): SiLU(0, 0.000% Params, 0.0 Mac, 0.000% MACs, inplace=True)
              )
              (4): Conv(
                2.82 k, 0.010% Params, 4.51 MMac, 0.007% MACs, 
                (conv): Conv2d(2.3 k, 0.008% Params, 3.69 MMac, 0.006% MACs, 256, 256, kernel_size=(3, 3), stride=(1, 1), padding=(1, 1), groups=256, bias=False)
                (bn): BatchNorm2d(512, 0.002% Params, 819.2 KMac, 0.001% MACs, 256, eps=0.001, momentum=0.03, affine=True, track_running_stats=True)
                (act): SiLU(0, 0.000% Params, 0.0 Mac, 0.000% MACs, inplace=True)
              )
            )
          )
        )
      )
      (13): SpatialAlignTransnormer(
        659.97 k, 2.282% Params, 427.32 MMac, 0.642% MACs, 
        (upsample): Upsample(0, 0.000% Params, 3.28 MMac, 0.005% MACs, scale_factor=2.0, mode='bilinear')
        (high_to_low_embed): Sequential(
          131.84 k, 0.456% Params, 210.94 MMac, 0.317% MACs, 
          (0): Conv2d(131.33 k, 0.454% Params, 210.12 MMac, 0.316% MACs, 512, 256, kernel_size=(1, 1), stride=(1, 1))
          (1): BatchNorm2d(512, 0.002% Params, 819.2 KMac, 0.001% MACs, 256, eps=0.001, momentum=0.03, affine=True, track_running_stats=True)
        )
        (q_proj): Sequential(
          66.3 k, 0.229% Params, 26.42 MMac, 0.040% MACs, 
          (0): Linear(65.79 k, 0.228% Params, 26.32 MMac, 0.040% MACs, in_features=256, out_features=256, bias=True)
          (1): LayerNorm(512, 0.002% Params, 102.4 KMac, 0.000% MACs, (256,), eps=1e-05, elementwise_affine=True)
        )
        (k_proj): Sequential(
          66.3 k, 0.229% Params, 26.42 MMac, 0.040% MACs, 
          (0): Linear(65.79 k, 0.228% Params, 26.32 MMac, 0.040% MACs, in_features=256, out_features=256, bias=True)
          (1): LayerNorm(512, 0.002% Params, 102.4 KMac, 0.000% MACs, (256,), eps=1e-05, elementwise_affine=True)
        )
        (v_proj): Linear(65.79 k, 0.228% Params, 26.32 MMac, 0.040% MACs, in_features=256, out_features=256, bias=True)
        (out_proj): Linear(65.79 k, 0.228% Params, 26.32 MMac, 0.040% MACs, in_features=256, out_features=256, bias=True)
        (attn_norm): RMSNorm(0, 0.000% Params, 0.0 Mac, 0.000% MACs, (16,), eps=None, elementwise_affine=True)
        (linear1): Linear(131.58 k, 0.455% Params, 52.63 MMac, 0.079% MACs, in_features=256, out_features=512, bias=True)
        (dropout): Dropout(0, 0.000% Params, 0.0 Mac, 0.000% MACs, p=0.0, inplace=False)
        (linear2): Linear(131.33 k, 0.454% Params, 52.53 MMac, 0.079% MACs, in_features=512, out_features=256, bias=True)
        (activation): GELU(0, 0.000% Params, 204.8 KMac, 0.000% MACs, approximate='none')
        (norm1): LayerNorm(512, 0.002% Params, 102.4 KMac, 0.000% MACs, (256,), eps=1e-05, elementwise_affine=True)
        (norm2): LayerNorm(512, 0.002% Params, 102.4 KMac, 0.000% MACs, (256,), eps=1e-05, elementwise_affine=True)
        (dropout1): Dropout(0, 0.000% Params, 0.0 Mac, 0.000% MACs, p=0.0, inplace=False)
        (dropout2): Dropout(0, 0.000% Params, 0.0 Mac, 0.000% MACs, p=0.0, inplace=False)
        (avg_pool_high): AvgPool2d(0, 0.000% Params, 409.6 KMac, 0.001% MACs, kernel_size=2, stride=2, padding=0)
        (avg_pool_low): AvgPool2d(0, 0.000% Params, 1.64 MMac, 0.002% MACs, kernel_size=4, stride=4, padding=0)
      )
      (14): C2f(
        1.25 M, 4.315% Params, 7.99 GMac, 11.993% MACs, 
        (cv1): Conv(
          197.12 k, 0.682% Params, 1.26 GMac, 1.895% MACs, 
          (conv): Conv2d(196.61 k, 0.680% Params, 1.26 GMac, 1.890% MACs, 768, 256, kernel_size=(1, 1), stride=(1, 1), bias=False)
          (bn): BatchNorm2d(512, 0.002% Params, 3.28 MMac, 0.005% MACs, 256, eps=0.001, momentum=0.03, affine=True, track_running_stats=True)
          (act): SiLU(0, 0.000% Params, 0.0 Mac, 0.000% MACs, inplace=True)
        )
        (cv2): Conv(
          164.35 k, 0.568% Params, 1.05 GMac, 1.580% MACs, 
          (conv): Conv2d(163.84 k, 0.567% Params, 1.05 GMac, 1.575% MACs, 640, 256, kernel_size=(1, 1), stride=(1, 1), bias=False)
          (bn): BatchNorm2d(512, 0.002% Params, 3.28 MMac, 0.005% MACs, 256, eps=0.001, momentum=0.03, affine=True, track_running_stats=True)
          (act): SiLU(0, 0.000% Params, 0.0 Mac, 0.000% MACs, inplace=True)
        )
        (m): ModuleList(
          (0-2): 3 x Bottleneck(
            295.42 k, 1.022% Params, 1.89 GMac, 2.839% MACs, 
            (cv1): Conv(
              147.71 k, 0.511% Params, 945.36 MMac, 1.420% MACs, 
              (conv): Conv2d(147.46 k, 0.510% Params, 943.72 MMac, 1.417% MACs, 128, 128, kernel_size=(3, 3), stride=(1, 1), padding=(1, 1), bias=False)
              (bn): BatchNorm2d(256, 0.001% Params, 1.64 MMac, 0.002% MACs, 128, eps=0.001, momentum=0.03, affine=True, track_running_stats=True)
              (act): SiLU(0, 0.000% Params, 0.0 Mac, 0.000% MACs, inplace=True)
            )
            (cv2): Conv(
              147.71 k, 0.511% Params, 945.36 MMac, 1.420% MACs, 
              (conv): Conv2d(147.46 k, 0.510% Params, 943.72 MMac, 1.417% MACs, 128, 128, kernel_size=(3, 3), stride=(1, 1), padding=(1, 1), bias=False)
              (bn): BatchNorm2d(256, 0.001% Params, 1.64 MMac, 0.002% MACs, 128, eps=0.001, momentum=0.03, affine=True, track_running_stats=True)
              (act): SiLU(0, 0.000% Params, 0.0 Mac, 0.000% MACs, inplace=True)
            )
          )
        )
      )
      (15): Conv(
        590.34 k, 2.041% Params, 944.54 MMac, 1.418% MACs, 
        (conv): Conv2d(589.82 k, 2.040% Params, 943.72 MMac, 1.417% MACs, 256, 256, kernel_size=(3, 3), stride=(2, 2), padding=(1, 1), bias=False)
        (bn): BatchNorm2d(512, 0.002% Params, 819.2 KMac, 0.001% MACs, 256, eps=0.001, momentum=0.03, affine=True, track_running_stats=True)
        (act): SiLU(0, 0.000% Params, 0.0 Mac, 0.000% MACs, inplace=True)
      )
      (16): Concat(0, 0.000% Params, 0.0 Mac, 0.000% MACs, )
      (17): C2fCIB(
        1.88 M, 6.486% Params, 3.0 GMac, 4.506% MACs, 
        (cv1): Conv(
          394.24 k, 1.363% Params, 630.78 MMac, 0.947% MACs, 
          (conv): Conv2d(393.22 k, 1.360% Params, 629.15 MMac, 0.945% MACs, 768, 512, kernel_size=(1, 1), stride=(1, 1), bias=False)
          (bn): BatchNorm2d(1.02 k, 0.004% Params, 1.64 MMac, 0.002% MACs, 512, eps=0.001, momentum=0.03, affine=True, track_running_stats=True)
          (act): SiLU(0, 0.000% Params, 0.0 Mac, 0.000% MACs, inplace=True)
        )
        (cv2): Conv(
          656.38 k, 2.270% Params, 1.05 GMac, 1.577% MACs, 
          (conv): Conv2d(655.36 k, 2.266% Params, 1.05 GMac, 1.575% MACs, 1280, 512, kernel_size=(1, 1), stride=(1, 1), bias=False)
          (bn): BatchNorm2d(1.02 k, 0.004% Params, 1.64 MMac, 0.002% MACs, 512, eps=0.001, momentum=0.03, affine=True, track_running_stats=True)
          (act): SiLU(0, 0.000% Params, 0.0 Mac, 0.000% MACs, inplace=True)
        )
        (m): ModuleList(
          (0-2): 3 x CIB(
            274.94 k, 0.951% Params, 439.91 MMac, 0.661% MACs, 
            (cv1): Sequential(
              274.94 k, 0.951% Params, 439.91 MMac, 0.661% MACs, 
              (0): Conv(
                2.82 k, 0.010% Params, 4.51 MMac, 0.007% MACs, 
                (conv): Conv2d(2.3 k, 0.008% Params, 3.69 MMac, 0.006% MACs, 256, 256, kernel_size=(3, 3), stride=(1, 1), padding=(1, 1), groups=256, bias=False)
                (bn): BatchNorm2d(512, 0.002% Params, 819.2 KMac, 0.001% MACs, 256, eps=0.001, momentum=0.03, affine=True, track_running_stats=True)
                (act): SiLU(0, 0.000% Params, 0.0 Mac, 0.000% MACs, inplace=True)
              )
              (1): Conv(
                132.1 k, 0.457% Params, 211.35 MMac, 0.317% MACs, 
                (conv): Conv2d(131.07 k, 0.453% Params, 209.72 MMac, 0.315% MACs, 256, 512, kernel_size=(1, 1), stride=(1, 1), bias=False)
                (bn): BatchNorm2d(1.02 k, 0.004% Params, 1.64 MMac, 0.002% MACs, 512, eps=0.001, momentum=0.03, affine=True, track_running_stats=True)
                (act): SiLU(0, 0.000% Params, 0.0 Mac, 0.000% MACs, inplace=True)
              )
              (2): Conv(
                5.63 k, 0.019% Params, 9.01 MMac, 0.014% MACs, 
                (conv): Conv2d(4.61 k, 0.016% Params, 7.37 MMac, 0.011% MACs, 512, 512, kernel_size=(3, 3), stride=(1, 1), padding=(1, 1), groups=512, bias=False)
                (bn): BatchNorm2d(1.02 k, 0.004% Params, 1.64 MMac, 0.002% MACs, 512, eps=0.001, momentum=0.03, affine=True, track_running_stats=True)
                (act): SiLU(0, 0.000% Params, 0.0 Mac, 0.000% MACs, inplace=True)
              )
              (3): Conv(
                131.58 k, 0.455% Params, 210.53 MMac, 0.316% MACs, 
                (conv): Conv2d(131.07 k, 0.453% Params, 209.72 MMac, 0.315% MACs, 512, 256, kernel_size=(1, 1), stride=(1, 1), bias=False)
                (bn): BatchNorm2d(512, 0.002% Params, 819.2 KMac, 0.001% MACs, 256, eps=0.001, momentum=0.03, affine=True, track_running_stats=True)
                (act): SiLU(0, 0.000% Params, 0.0 Mac, 0.000% MACs, inplace=True)
              )
              (4): Conv(
                2.82 k, 0.010% Params, 4.51 MMac, 0.007% MACs, 
                (conv): Conv2d(2.3 k, 0.008% Params, 3.69 MMac, 0.006% MACs, 256, 256, kernel_size=(3, 3), stride=(1, 1), padding=(1, 1), groups=256, bias=False)
                (bn): BatchNorm2d(512, 0.002% Params, 819.2 KMac, 0.001% MACs, 256, eps=0.001, momentum=0.03, affine=True, track_running_stats=True)
                (act): SiLU(0, 0.000% Params, 0.0 Mac, 0.000% MACs, inplace=True)
              )
            )
          )
        )
      )
      (18): SCDown(
        268.8 k, 0.930% Params, 423.32 MMac, 0.636% MACs, 
        (cv1): Conv(
          263.17 k, 0.910% Params, 421.07 MMac, 0.632% MACs, 
          (conv): Conv2d(262.14 k, 0.907% Params, 419.43 MMac, 0.630% MACs, 512, 512, kernel_size=(1, 1), stride=(1, 1), bias=False)
          (bn): BatchNorm2d(1.02 k, 0.004% Params, 1.64 MMac, 0.002% MACs, 512, eps=0.001, momentum=0.03, affine=True, track_running_stats=True)
          (act): SiLU(0, 0.000% Params, 0.0 Mac, 0.000% MACs, inplace=True)
        )
        (cv2): Conv(
          5.63 k, 0.019% Params, 2.25 MMac, 0.003% MACs, 
          (conv): Conv2d(4.61 k, 0.016% Params, 1.84 MMac, 0.003% MACs, 512, 512, kernel_size=(3, 3), stride=(2, 2), padding=(1, 1), groups=512, bias=False)
          (bn): BatchNorm2d(1.02 k, 0.004% Params, 409.6 KMac, 0.001% MACs, 512, eps=0.001, momentum=0.03, affine=True, track_running_stats=True)
          (act): Identity(0, 0.000% Params, 0.0 Mac, 0.000% MACs, )
        )
      )
      (19): Concat(0, 0.000% Params, 0.0 Mac, 0.000% MACs, )
      (20): C2fCIB(
        2.01 M, 6.939% Params, 802.61 MMac, 1.205% MACs, 
        (cv1): Conv(
          525.31 k, 1.817% Params, 210.12 MMac, 0.316% MACs, 
          (conv): Conv2d(524.29 k, 1.813% Params, 209.72 MMac, 0.315% MACs, 1024, 512, kernel_size=(1, 1), stride=(1, 1), bias=False)
          (bn): BatchNorm2d(1.02 k, 0.004% Params, 409.6 KMac, 0.001% MACs, 512, eps=0.001, momentum=0.03, affine=True, track_running_stats=True)
          (act): SiLU(0, 0.000% Params, 0.0 Mac, 0.000% MACs, inplace=True)
        )
        (cv2): Conv(
          656.38 k, 2.270% Params, 262.55 MMac, 0.394% MACs, 
          (conv): Conv2d(655.36 k, 2.266% Params, 262.14 MMac, 0.394% MACs, 1280, 512, kernel_size=(1, 1), stride=(1, 1), bias=False)
          (bn): BatchNorm2d(1.02 k, 0.004% Params, 409.6 KMac, 0.001% MACs, 512, eps=0.001, momentum=0.03, affine=True, track_running_stats=True)
          (act): SiLU(0, 0.000% Params, 0.0 Mac, 0.000% MACs, inplace=True)
        )
        (m): ModuleList(
          (0-2): 3 x CIB(
            274.94 k, 0.951% Params, 109.98 MMac, 0.165% MACs, 
            (cv1): Sequential(
              274.94 k, 0.951% Params, 109.98 MMac, 0.165% MACs, 
              (0): Conv(
                2.82 k, 0.010% Params, 1.13 MMac, 0.002% MACs, 
                (conv): Conv2d(2.3 k, 0.008% Params, 921.6 KMac, 0.001% MACs, 256, 256, kernel_size=(3, 3), stride=(1, 1), padding=(1, 1), groups=256, bias=False)
                (bn): BatchNorm2d(512, 0.002% Params, 204.8 KMac, 0.000% MACs, 256, eps=0.001, momentum=0.03, affine=True, track_running_stats=True)
                (act): SiLU(0, 0.000% Params, 0.0 Mac, 0.000% MACs, inplace=True)
              )
              (1): Conv(
                132.1 k, 0.457% Params, 52.84 MMac, 0.079% MACs, 
                (conv): Conv2d(131.07 k, 0.453% Params, 52.43 MMac, 0.079% MACs, 256, 512, kernel_size=(1, 1), stride=(1, 1), bias=False)
                (bn): BatchNorm2d(1.02 k, 0.004% Params, 409.6 KMac, 0.001% MACs, 512, eps=0.001, momentum=0.03, affine=True, track_running_stats=True)
                (act): SiLU(0, 0.000% Params, 0.0 Mac, 0.000% MACs, inplace=True)
              )
              (2): Conv(
                5.63 k, 0.019% Params, 2.25 MMac, 0.003% MACs, 
                (conv): Conv2d(4.61 k, 0.016% Params, 1.84 MMac, 0.003% MACs, 512, 512, kernel_size=(3, 3), stride=(1, 1), padding=(1, 1), groups=512, bias=False)
                (bn): BatchNorm2d(1.02 k, 0.004% Params, 409.6 KMac, 0.001% MACs, 512, eps=0.001, momentum=0.03, affine=True, track_running_stats=True)
                (act): SiLU(0, 0.000% Params, 0.0 Mac, 0.000% MACs, inplace=True)
              )
              (3): Conv(
                131.58 k, 0.455% Params, 52.63 MMac, 0.079% MACs, 
                (conv): Conv2d(131.07 k, 0.453% Params, 52.43 MMac, 0.079% MACs, 512, 256, kernel_size=(1, 1), stride=(1, 1), bias=False)
                (bn): BatchNorm2d(512, 0.002% Params, 204.8 KMac, 0.000% MACs, 256, eps=0.001, momentum=0.03, affine=True, track_running_stats=True)
                (act): SiLU(0, 0.000% Params, 0.0 Mac, 0.000% MACs, inplace=True)
              )
              (4): Conv(
                2.82 k, 0.010% Params, 1.13 MMac, 0.002% MACs, 
                (conv): Conv2d(2.3 k, 0.008% Params, 921.6 KMac, 0.001% MACs, 256, 256, kernel_size=(3, 3), stride=(1, 1), padding=(1, 1), groups=256, bias=False)
                (bn): BatchNorm2d(512, 0.002% Params, 204.8 KMac, 0.000% MACs, 256, eps=0.001, momentum=0.03, affine=True, track_running_stats=True)
                (act): SiLU(0, 0.000% Params, 0.0 Mac, 0.000% MACs, inplace=True)
              )
            )
          )
        )
      )
      (21): v10Detect(
        2.95 M, 10.186% Params, 6.69 GMac, 10.053% MACs, 
        (cv2): ModuleList(
          (0): Sequential(
            188.74 k, 0.653% Params, 1.21 GMac, 1.814% MACs, 
            (0): Conv(
              147.58 k, 0.510% Params, 944.54 MMac, 1.418% MACs, 
              (conv): Conv2d(147.46 k, 0.510% Params, 943.72 MMac, 1.417% MACs, 256, 64, kernel_size=(3, 3), stride=(1, 1), padding=(1, 1), bias=False)
              (bn): BatchNorm2d(128, 0.000% Params, 819.2 KMac, 0.001% MACs, 64, eps=0.001, momentum=0.03, affine=True, track_running_stats=True)
              (act): SiLU(0, 0.000% Params, 0.0 Mac, 0.000% MACs, inplace=True)
            )
            (1): Conv(
              36.99 k, 0.128% Params, 236.75 MMac, 0.356% MACs, 
              (conv): Conv2d(36.86 k, 0.127% Params, 235.93 MMac, 0.354% MACs, 64, 64, kernel_size=(3, 3), stride=(1, 1), padding=(1, 1), bias=False)
              (bn): BatchNorm2d(128, 0.000% Params, 819.2 KMac, 0.001% MACs, 64, eps=0.001, momentum=0.03, affine=True, track_running_stats=True)
              (act): SiLU(0, 0.000% Params, 0.0 Mac, 0.000% MACs, inplace=True)
            )
            (2): Conv2d(4.16 k, 0.014% Params, 26.62 MMac, 0.040% MACs, 64, 64, kernel_size=(1, 1), stride=(1, 1))
          )
          (1): Sequential(
            336.19 k, 1.163% Params, 537.91 MMac, 0.808% MACs, 
            (0): Conv(
              295.04 k, 1.020% Params, 472.06 MMac, 0.709% MACs, 
              (conv): Conv2d(294.91 k, 1.020% Params, 471.86 MMac, 0.709% MACs, 512, 64, kernel_size=(3, 3), stride=(1, 1), padding=(1, 1), bias=False)
              (bn): BatchNorm2d(128, 0.000% Params, 204.8 KMac, 0.000% MACs, 64, eps=0.001, momentum=0.03, affine=True, track_running_stats=True)
              (act): SiLU(0, 0.000% Params, 0.0 Mac, 0.000% MACs, inplace=True)
            )
            (1): Conv(
              36.99 k, 0.128% Params, 59.19 MMac, 0.089% MACs, 
              (conv): Conv2d(36.86 k, 0.127% Params, 58.98 MMac, 0.089% MACs, 64, 64, kernel_size=(3, 3), stride=(1, 1), padding=(1, 1), bias=False)
              (bn): BatchNorm2d(128, 0.000% Params, 204.8 KMac, 0.000% MACs, 64, eps=0.001, momentum=0.03, affine=True, track_running_stats=True)
              (act): SiLU(0, 0.000% Params, 0.0 Mac, 0.000% MACs, inplace=True)
            )
            (2): Conv2d(4.16 k, 0.014% Params, 6.66 MMac, 0.010% MACs, 64, 64, kernel_size=(1, 1), stride=(1, 1))
          )
          (2): Sequential(
            336.19 k, 1.163% Params, 134.48 MMac, 0.202% MACs, 
            (0): Conv(
              295.04 k, 1.020% Params, 118.02 MMac, 0.177% MACs, 
              (conv): Conv2d(294.91 k, 1.020% Params, 117.96 MMac, 0.177% MACs, 512, 64, kernel_size=(3, 3), stride=(1, 1), padding=(1, 1), bias=False)
              (bn): BatchNorm2d(128, 0.000% Params, 51.2 KMac, 0.000% MACs, 64, eps=0.001, momentum=0.03, affine=True, track_running_stats=True)
              (act): SiLU(0, 0.000% Params, 0.0 Mac, 0.000% MACs, inplace=True)
            )
            (1): Conv(
              36.99 k, 0.128% Params, 14.8 MMac, 0.022% MACs, 
              (conv): Conv2d(36.86 k, 0.127% Params, 14.75 MMac, 0.022% MACs, 64, 64, kernel_size=(3, 3), stride=(1, 1), padding=(1, 1), bias=False)
              (bn): BatchNorm2d(128, 0.000% Params, 51.2 KMac, 0.000% MACs, 64, eps=0.001, momentum=0.03, affine=True, track_running_stats=True)
              (act): SiLU(0, 0.000% Params, 0.0 Mac, 0.000% MACs, inplace=True)
            )
            (2): Conv2d(4.16 k, 0.014% Params, 1.66 MMac, 0.002% MACs, 64, 64, kernel_size=(1, 1), stride=(1, 1))
          )
        )
        (cv3): ModuleList(
          (0): Sequential(
            158.29 k, 0.547% Params, 1.01 GMac, 1.521% MACs, 
            (0): Sequential(
              68.86 k, 0.238% Params, 440.73 MMac, 0.662% MACs, 
              (0): Conv(
                2.82 k, 0.010% Params, 18.02 MMac, 0.027% MACs, 
                (conv): Conv2d(2.3 k, 0.008% Params, 14.75 MMac, 0.022% MACs, 256, 256, kernel_size=(3, 3), stride=(1, 1), padding=(1, 1), groups=256, bias=False)
                (bn): BatchNorm2d(512, 0.002% Params, 3.28 MMac, 0.005% MACs, 256, eps=0.001, momentum=0.03, affine=True, track_running_stats=True)
                (act): SiLU(0, 0.000% Params, 0.0 Mac, 0.000% MACs, inplace=True)
              )
              (1): Conv(
                66.05 k, 0.228% Params, 422.71 MMac, 0.635% MACs, 
                (conv): Conv2d(65.54 k, 0.227% Params, 419.43 MMac, 0.630% MACs, 256, 256, kernel_size=(1, 1), stride=(1, 1), bias=False)
                (bn): BatchNorm2d(512, 0.002% Params, 3.28 MMac, 0.005% MACs, 256, eps=0.001, momentum=0.03, affine=True, track_running_stats=True)
                (act): SiLU(0, 0.000% Params, 0.0 Mac, 0.000% MACs, inplace=True)
              )
            )
            (1): Sequential(
              68.86 k, 0.238% Params, 440.73 MMac, 0.662% MACs, 
              (0): Conv(
                2.82 k, 0.010% Params, 18.02 MMac, 0.027% MACs, 
                (conv): Conv2d(2.3 k, 0.008% Params, 14.75 MMac, 0.022% MACs, 256, 256, kernel_size=(3, 3), stride=(1, 1), padding=(1, 1), groups=256, bias=False)
                (bn): BatchNorm2d(512, 0.002% Params, 3.28 MMac, 0.005% MACs, 256, eps=0.001, momentum=0.03, affine=True, track_running_stats=True)
                (act): SiLU(0, 0.000% Params, 0.0 Mac, 0.000% MACs, inplace=True)
              )
              (1): Conv(
                66.05 k, 0.228% Params, 422.71 MMac, 0.635% MACs, 
                (conv): Conv2d(65.54 k, 0.227% Params, 419.43 MMac, 0.630% MACs, 256, 256, kernel_size=(1, 1), stride=(1, 1), bias=False)
                (bn): BatchNorm2d(512, 0.002% Params, 3.28 MMac, 0.005% MACs, 256, eps=0.001, momentum=0.03, affine=True, track_running_stats=True)
                (act): SiLU(0, 0.000% Params, 0.0 Mac, 0.000% MACs, inplace=True)
              )
            )
            (2): Conv2d(20.56 k, 0.071% Params, 131.58 MMac, 0.198% MACs, 256, 80, kernel_size=(1, 1), stride=(1, 1))
          )
          (1): Sequential(
            226.64 k, 0.784% Params, 362.62 MMac, 0.545% MACs, 
            (0): Sequential(
              137.22 k, 0.475% Params, 219.55 MMac, 0.330% MACs, 
              (0): Conv(
                5.63 k, 0.019% Params, 9.01 MMac, 0.014% MACs, 
                (conv): Conv2d(4.61 k, 0.016% Params, 7.37 MMac, 0.011% MACs, 512, 512, kernel_size=(3, 3), stride=(1, 1), padding=(1, 1), groups=512, bias=False)
                (bn): BatchNorm2d(1.02 k, 0.004% Params, 1.64 MMac, 0.002% MACs, 512, eps=0.001, momentum=0.03, affine=True, track_running_stats=True)
                (act): SiLU(0, 0.000% Params, 0.0 Mac, 0.000% MACs, inplace=True)
              )
              (1): Conv(
                131.58 k, 0.455% Params, 210.53 MMac, 0.316% MACs, 
                (conv): Conv2d(131.07 k, 0.453% Params, 209.72 MMac, 0.315% MACs, 512, 256, kernel_size=(1, 1), stride=(1, 1), bias=False)
                (bn): BatchNorm2d(512, 0.002% Params, 819.2 KMac, 0.001% MACs, 256, eps=0.001, momentum=0.03, affine=True, track_running_stats=True)
                (act): SiLU(0, 0.000% Params, 0.0 Mac, 0.000% MACs, inplace=True)
              )
            )
            (1): Sequential(
              68.86 k, 0.238% Params, 110.18 MMac, 0.165% MACs, 
              (0): Conv(
                2.82 k, 0.010% Params, 4.51 MMac, 0.007% MACs, 
                (conv): Conv2d(2.3 k, 0.008% Params, 3.69 MMac, 0.006% MACs, 256, 256, kernel_size=(3, 3), stride=(1, 1), padding=(1, 1), groups=256, bias=False)
                (bn): BatchNorm2d(512, 0.002% Params, 819.2 KMac, 0.001% MACs, 256, eps=0.001, momentum=0.03, affine=True, track_running_stats=True)
                (act): SiLU(0, 0.000% Params, 0.0 Mac, 0.000% MACs, inplace=True)
              )
              (1): Conv(
                66.05 k, 0.228% Params, 105.68 MMac, 0.159% MACs, 
                (conv): Conv2d(65.54 k, 0.227% Params, 104.86 MMac, 0.157% MACs, 256, 256, kernel_size=(1, 1), stride=(1, 1), bias=False)
                (bn): BatchNorm2d(512, 0.002% Params, 819.2 KMac, 0.001% MACs, 256, eps=0.001, momentum=0.03, affine=True, track_running_stats=True)
                (act): SiLU(0, 0.000% Params, 0.0 Mac, 0.000% MACs, inplace=True)
              )
            )
            (2): Conv2d(20.56 k, 0.071% Params, 32.9 MMac, 0.049% MACs, 256, 80, kernel_size=(1, 1), stride=(1, 1))
          )
          (2): Sequential(
            226.64 k, 0.784% Params, 90.66 MMac, 0.136% MACs, 
            (0): Sequential(
              137.22 k, 0.475% Params, 54.89 MMac, 0.082% MACs, 
              (0): Conv(
                5.63 k, 0.019% Params, 2.25 MMac, 0.003% MACs, 
                (conv): Conv2d(4.61 k, 0.016% Params, 1.84 MMac, 0.003% MACs, 512, 512, kernel_size=(3, 3), stride=(1, 1), padding=(1, 1), groups=512, bias=False)
                (bn): BatchNorm2d(1.02 k, 0.004% Params, 409.6 KMac, 0.001% MACs, 512, eps=0.001, momentum=0.03, affine=True, track_running_stats=True)
                (act): SiLU(0, 0.000% Params, 0.0 Mac, 0.000% MACs, inplace=True)
              )
              (1): Conv(
                131.58 k, 0.455% Params, 52.63 MMac, 0.079% MACs, 
                (conv): Conv2d(131.07 k, 0.453% Params, 52.43 MMac, 0.079% MACs, 512, 256, kernel_size=(1, 1), stride=(1, 1), bias=False)
                (bn): BatchNorm2d(512, 0.002% Params, 204.8 KMac, 0.000% MACs, 256, eps=0.001, momentum=0.03, affine=True, track_running_stats=True)
                (act): SiLU(0, 0.000% Params, 0.0 Mac, 0.000% MACs, inplace=True)
              )
            )
            (1): Sequential(
              68.86 k, 0.238% Params, 27.55 MMac, 0.041% MACs, 
              (0): Conv(
                2.82 k, 0.010% Params, 1.13 MMac, 0.002% MACs, 
                (conv): Conv2d(2.3 k, 0.008% Params, 921.6 KMac, 0.001% MACs, 256, 256, kernel_size=(3, 3), stride=(1, 1), padding=(1, 1), groups=256, bias=False)
                (bn): BatchNorm2d(512, 0.002% Params, 204.8 KMac, 0.000% MACs, 256, eps=0.001, momentum=0.03, affine=True, track_running_stats=True)
                (act): SiLU(0, 0.000% Params, 0.0 Mac, 0.000% MACs, inplace=True)
              )
              (1): Conv(
                66.05 k, 0.228% Params, 26.42 MMac, 0.040% MACs, 
                (conv): Conv2d(65.54 k, 0.227% Params, 26.21 MMac, 0.039% MACs, 256, 256, kernel_size=(1, 1), stride=(1, 1), bias=False)
                (bn): BatchNorm2d(512, 0.002% Params, 204.8 KMac, 0.000% MACs, 256, eps=0.001, momentum=0.03, affine=True, track_running_stats=True)
                (act): SiLU(0, 0.000% Params, 0.0 Mac, 0.000% MACs, inplace=True)
              )
            )
            (2): Conv2d(20.56 k, 0.071% Params, 8.22 MMac, 0.012% MACs, 256, 80, kernel_size=(1, 1), stride=(1, 1))
          )
        )
        (dfl): DFL(
          0, 0.000% Params, 537.6 KMac, 0.001% MACs, 
          (conv): Conv2d(0, 0.000% Params, 537.6 KMac, 0.001% MACs, 16, 1, kernel_size=(1, 1), stride=(1, 1), bias=False)
        )
        (one2one_cv2): ModuleList(
          (0): Sequential(
            188.74 k, 0.653% Params, 1.21 GMac, 1.814% MACs, 
            (0): Conv(
              147.58 k, 0.510% Params, 944.54 MMac, 1.418% MACs, 
              (conv): Conv2d(147.46 k, 0.510% Params, 943.72 MMac, 1.417% MACs, 256, 64, kernel_size=(3, 3), stride=(1, 1), padding=(1, 1), bias=False)
              (bn): BatchNorm2d(128, 0.000% Params, 819.2 KMac, 0.001% MACs, 64, eps=0.001, momentum=0.03, affine=True, track_running_stats=True)
              (act): SiLU(0, 0.000% Params, 0.0 Mac, 0.000% MACs, inplace=True)
            )
            (1): Conv(
              36.99 k, 0.128% Params, 236.75 MMac, 0.356% MACs, 
              (conv): Conv2d(36.86 k, 0.127% Params, 235.93 MMac, 0.354% MACs, 64, 64, kernel_size=(3, 3), stride=(1, 1), padding=(1, 1), bias=False)
              (bn): BatchNorm2d(128, 0.000% Params, 819.2 KMac, 0.001% MACs, 64, eps=0.001, momentum=0.03, affine=True, track_running_stats=True)
              (act): SiLU(0, 0.000% Params, 0.0 Mac, 0.000% MACs, inplace=True)
            )
            (2): Conv2d(4.16 k, 0.014% Params, 26.62 MMac, 0.040% MACs, 64, 64, kernel_size=(1, 1), stride=(1, 1))
          )
          (1): Sequential(
            336.19 k, 1.163% Params, 537.91 MMac, 0.808% MACs, 
            (0): Conv(
              295.04 k, 1.020% Params, 472.06 MMac, 0.709% MACs, 
              (conv): Conv2d(294.91 k, 1.020% Params, 471.86 MMac, 0.709% MACs, 512, 64, kernel_size=(3, 3), stride=(1, 1), padding=(1, 1), bias=False)
              (bn): BatchNorm2d(128, 0.000% Params, 204.8 KMac, 0.000% MACs, 64, eps=0.001, momentum=0.03, affine=True, track_running_stats=True)
              (act): SiLU(0, 0.000% Params, 0.0 Mac, 0.000% MACs, inplace=True)
            )
            (1): Conv(
              36.99 k, 0.128% Params, 59.19 MMac, 0.089% MACs, 
              (conv): Conv2d(36.86 k, 0.127% Params, 58.98 MMac, 0.089% MACs, 64, 64, kernel_size=(3, 3), stride=(1, 1), padding=(1, 1), bias=False)
              (bn): BatchNorm2d(128, 0.000% Params, 204.8 KMac, 0.000% MACs, 64, eps=0.001, momentum=0.03, affine=True, track_running_stats=True)
              (act): SiLU(0, 0.000% Params, 0.0 Mac, 0.000% MACs, inplace=True)
            )
            (2): Conv2d(4.16 k, 0.014% Params, 6.66 MMac, 0.010% MACs, 64, 64, kernel_size=(1, 1), stride=(1, 1))
          )
          (2): Sequential(
            336.19 k, 1.163% Params, 134.48 MMac, 0.202% MACs, 
            (0): Conv(
              295.04 k, 1.020% Params, 118.02 MMac, 0.177% MACs, 
              (conv): Conv2d(294.91 k, 1.020% Params, 117.96 MMac, 0.177% MACs, 512, 64, kernel_size=(3, 3), stride=(1, 1), padding=(1, 1), bias=False)
              (bn): BatchNorm2d(128, 0.000% Params, 51.2 KMac, 0.000% MACs, 64, eps=0.001, momentum=0.03, affine=True, track_running_stats=True)
              (act): SiLU(0, 0.000% Params, 0.0 Mac, 0.000% MACs, inplace=True)
            )
            (1): Conv(
              36.99 k, 0.128% Params, 14.8 MMac, 0.022% MACs, 
              (conv): Conv2d(36.86 k, 0.127% Params, 14.75 MMac, 0.022% MACs, 64, 64, kernel_size=(3, 3), stride=(1, 1), padding=(1, 1), bias=False)
              (bn): BatchNorm2d(128, 0.000% Params, 51.2 KMac, 0.000% MACs, 64, eps=0.001, momentum=0.03, affine=True, track_running_stats=True)
              (act): SiLU(0, 0.000% Params, 0.0 Mac, 0.000% MACs, inplace=True)
            )
            (2): Conv2d(4.16 k, 0.014% Params, 1.66 MMac, 0.002% MACs, 64, 64, kernel_size=(1, 1), stride=(1, 1))
          )
        )
        (one2one_cv3): ModuleList(
          (0): Sequential(
            158.29 k, 0.547% Params, 1.01 GMac, 1.521% MACs, 
            (0): Sequential(
              68.86 k, 0.238% Params, 440.73 MMac, 0.662% MACs, 
              (0): Conv(
                2.82 k, 0.010% Params, 18.02 MMac, 0.027% MACs, 
                (conv): Conv2d(2.3 k, 0.008% Params, 14.75 MMac, 0.022% MACs, 256, 256, kernel_size=(3, 3), stride=(1, 1), padding=(1, 1), groups=256, bias=False)
                (bn): BatchNorm2d(512, 0.002% Params, 3.28 MMac, 0.005% MACs, 256, eps=0.001, momentum=0.03, affine=True, track_running_stats=True)
                (act): SiLU(0, 0.000% Params, 0.0 Mac, 0.000% MACs, inplace=True)
              )
              (1): Conv(
                66.05 k, 0.228% Params, 422.71 MMac, 0.635% MACs, 
                (conv): Conv2d(65.54 k, 0.227% Params, 419.43 MMac, 0.630% MACs, 256, 256, kernel_size=(1, 1), stride=(1, 1), bias=False)
                (bn): BatchNorm2d(512, 0.002% Params, 3.28 MMac, 0.005% MACs, 256, eps=0.001, momentum=0.03, affine=True, track_running_stats=True)
                (act): SiLU(0, 0.000% Params, 0.0 Mac, 0.000% MACs, inplace=True)
              )
            )
            (1): Sequential(
              68.86 k, 0.238% Params, 440.73 MMac, 0.662% MACs, 
              (0): Conv(
                2.82 k, 0.010% Params, 18.02 MMac, 0.027% MACs, 
                (conv): Conv2d(2.3 k, 0.008% Params, 14.75 MMac, 0.022% MACs, 256, 256, kernel_size=(3, 3), stride=(1, 1), padding=(1, 1), groups=256, bias=False)
                (bn): BatchNorm2d(512, 0.002% Params, 3.28 MMac, 0.005% MACs, 256, eps=0.001, momentum=0.03, affine=True, track_running_stats=True)
                (act): SiLU(0, 0.000% Params, 0.0 Mac, 0.000% MACs, inplace=True)
              )
              (1): Conv(
                66.05 k, 0.228% Params, 422.71 MMac, 0.635% MACs, 
                (conv): Conv2d(65.54 k, 0.227% Params, 419.43 MMac, 0.630% MACs, 256, 256, kernel_size=(1, 1), stride=(1, 1), bias=False)
                (bn): BatchNorm2d(512, 0.002% Params, 3.28 MMac, 0.005% MACs, 256, eps=0.001, momentum=0.03, affine=True, track_running_stats=True)
                (act): SiLU(0, 0.000% Params, 0.0 Mac, 0.000% MACs, inplace=True)
              )
            )
            (2): Conv2d(20.56 k, 0.071% Params, 131.58 MMac, 0.198% MACs, 256, 80, kernel_size=(1, 1), stride=(1, 1))
          )
          (1): Sequential(
            226.64 k, 0.784% Params, 362.62 MMac, 0.545% MACs, 
            (0): Sequential(
              137.22 k, 0.475% Params, 219.55 MMac, 0.330% MACs, 
              (0): Conv(
                5.63 k, 0.019% Params, 9.01 MMac, 0.014% MACs, 
                (conv): Conv2d(4.61 k, 0.016% Params, 7.37 MMac, 0.011% MACs, 512, 512, kernel_size=(3, 3), stride=(1, 1), padding=(1, 1), groups=512, bias=False)
                (bn): BatchNorm2d(1.02 k, 0.004% Params, 1.64 MMac, 0.002% MACs, 512, eps=0.001, momentum=0.03, affine=True, track_running_stats=True)
                (act): SiLU(0, 0.000% Params, 0.0 Mac, 0.000% MACs, inplace=True)
              )
              (1): Conv(
                131.58 k, 0.455% Params, 210.53 MMac, 0.316% MACs, 
                (conv): Conv2d(131.07 k, 0.453% Params, 209.72 MMac, 0.315% MACs, 512, 256, kernel_size=(1, 1), stride=(1, 1), bias=False)
                (bn): BatchNorm2d(512, 0.002% Params, 819.2 KMac, 0.001% MACs, 256, eps=0.001, momentum=0.03, affine=True, track_running_stats=True)
                (act): SiLU(0, 0.000% Params, 0.0 Mac, 0.000% MACs, inplace=True)
              )
            )
            (1): Sequential(
              68.86 k, 0.238% Params, 110.18 MMac, 0.165% MACs, 
              (0): Conv(
                2.82 k, 0.010% Params, 4.51 MMac, 0.007% MACs, 
                (conv): Conv2d(2.3 k, 0.008% Params, 3.69 MMac, 0.006% MACs, 256, 256, kernel_size=(3, 3), stride=(1, 1), padding=(1, 1), groups=256, bias=False)
                (bn): BatchNorm2d(512, 0.002% Params, 819.2 KMac, 0.001% MACs, 256, eps=0.001, momentum=0.03, affine=True, track_running_stats=True)
                (act): SiLU(0, 0.000% Params, 0.0 Mac, 0.000% MACs, inplace=True)
              )
              (1): Conv(
                66.05 k, 0.228% Params, 105.68 MMac, 0.159% MACs, 
                (conv): Conv2d(65.54 k, 0.227% Params, 104.86 MMac, 0.157% MACs, 256, 256, kernel_size=(1, 1), stride=(1, 1), bias=False)
                (bn): BatchNorm2d(512, 0.002% Params, 819.2 KMac, 0.001% MACs, 256, eps=0.001, momentum=0.03, affine=True, track_running_stats=True)
                (act): SiLU(0, 0.000% Params, 0.0 Mac, 0.000% MACs, inplace=True)
              )
            )
            (2): Conv2d(20.56 k, 0.071% Params, 32.9 MMac, 0.049% MACs, 256, 80, kernel_size=(1, 1), stride=(1, 1))
          )
          (2): Sequential(
            226.64 k, 0.784% Params, 90.66 MMac, 0.136% MACs, 
            (0): Sequential(
              137.22 k, 0.475% Params, 54.89 MMac, 0.082% MACs, 
              (0): Conv(
                5.63 k, 0.019% Params, 2.25 MMac, 0.003% MACs, 
                (conv): Conv2d(4.61 k, 0.016% Params, 1.84 MMac, 0.003% MACs, 512, 512, kernel_size=(3, 3), stride=(1, 1), padding=(1, 1), groups=512, bias=False)
                (bn): BatchNorm2d(1.02 k, 0.004% Params, 409.6 KMac, 0.001% MACs, 512, eps=0.001, momentum=0.03, affine=True, track_running_stats=True)
                (act): SiLU(0, 0.000% Params, 0.0 Mac, 0.000% MACs, inplace=True)
              )
              (1): Conv(
                131.58 k, 0.455% Params, 52.63 MMac, 0.079% MACs, 
                (conv): Conv2d(131.07 k, 0.453% Params, 52.43 MMac, 0.079% MACs, 512, 256, kernel_size=(1, 1), stride=(1, 1), bias=False)
                (bn): BatchNorm2d(512, 0.002% Params, 204.8 KMac, 0.000% MACs, 256, eps=0.001, momentum=0.03, affine=True, track_running_stats=True)
                (act): SiLU(0, 0.000% Params, 0.0 Mac, 0.000% MACs, inplace=True)
              )
            )
            (1): Sequential(
              68.86 k, 0.238% Params, 27.55 MMac, 0.041% MACs, 
              (0): Conv(
                2.82 k, 0.010% Params, 1.13 MMac, 0.002% MACs, 
                (conv): Conv2d(2.3 k, 0.008% Params, 921.6 KMac, 0.001% MACs, 256, 256, kernel_size=(3, 3), stride=(1, 1), padding=(1, 1), groups=256, bias=False)
                (bn): BatchNorm2d(512, 0.002% Params, 204.8 KMac, 0.000% MACs, 256, eps=0.001, momentum=0.03, affine=True, track_running_stats=True)
                (act): SiLU(0, 0.000% Params, 0.0 Mac, 0.000% MACs, inplace=True)
              )
              (1): Conv(
                66.05 k, 0.228% Params, 26.42 MMac, 0.040% MACs, 
                (conv): Conv2d(65.54 k, 0.227% Params, 26.21 MMac, 0.039% MACs, 256, 256, kernel_size=(1, 1), stride=(1, 1), bias=False)
                (bn): BatchNorm2d(512, 0.002% Params, 204.8 KMac, 0.000% MACs, 256, eps=0.001, momentum=0.03, affine=True, track_running_stats=True)
                (act): SiLU(0, 0.000% Params, 0.0 Mac, 0.000% MACs, inplace=True)
              )
            )
            (2): Conv2d(20.56 k, 0.071% Params, 8.22 MMac, 0.012% MACs, 256, 80, kernel_size=(1, 1), stride=(1, 1))
          )
        )
      )
    )
  )
)
FLOPs: 66.59 GMac, Params: 28.92 M
self.args.nbs: 256
DistributedDataParallel(
  28.92 M, 100.000% Params, 65.09 GMac, 97.755% MACs, 
  (module): DetectionModel(
    28.92 M, 100.000% Params, 65.09 GMac, 97.755% MACs, 
    (model): Sequential(
      28.92 M, 100.000% Params, 65.09 GMac, 97.755% MACs, 
      (0): Conv(
        1.86 k, 0.006% Params, 190.05 MMac, 0.285% MACs, 
        (conv): Conv2d(1.73 k, 0.006% Params, 176.95 MMac, 0.266% MACs, 3, 64, kernel_size=(3, 3), stride=(2, 2), padding=(1, 1), bias=False)
        (bn): BatchNorm2d(128, 0.000% Params, 13.11 MMac, 0.020% MACs, 64, eps=0.001, momentum=0.03, affine=True, track_running_stats=True)
        (act): SiLU(0, 0.000% Params, 0.0 Mac, 0.000% MACs, inplace=True)
      )
      (1): Conv(
        73.98 k, 0.256% Params, 1.89 GMac, 2.844% MACs, 
        (conv): Conv2d(73.73 k, 0.255% Params, 1.89 GMac, 2.835% MACs, 64, 128, kernel_size=(3, 3), stride=(2, 2), padding=(1, 1), bias=False)
        (bn): BatchNorm2d(256, 0.001% Params, 6.55 MMac, 0.010% MACs, 128, eps=0.001, momentum=0.03, affine=True, track_running_stats=True)
        (act): SiLU(0, 0.000% Params, 0.0 Mac, 0.000% MACs, inplace=True)
      )
      (2): C2f(
        279.81 k, 0.968% Params, 7.16 GMac, 10.757% MACs, 
        (cv1): Conv(
          16.64 k, 0.058% Params, 425.98 MMac, 0.640% MACs, 
          (conv): Conv2d(16.38 k, 0.057% Params, 419.43 MMac, 0.630% MACs, 128, 128, kernel_size=(1, 1), stride=(1, 1), bias=False)
          (bn): BatchNorm2d(256, 0.001% Params, 6.55 MMac, 0.010% MACs, 128, eps=0.001, momentum=0.03, affine=True, track_running_stats=True)
          (act): SiLU(0, 0.000% Params, 0.0 Mac, 0.000% MACs, inplace=True)
        )
        (cv2): Conv(
          41.22 k, 0.143% Params, 1.06 GMac, 1.585% MACs, 
          (conv): Conv2d(40.96 k, 0.142% Params, 1.05 GMac, 1.575% MACs, 320, 128, kernel_size=(1, 1), stride=(1, 1), bias=False)
          (bn): BatchNorm2d(256, 0.001% Params, 6.55 MMac, 0.010% MACs, 128, eps=0.001, momentum=0.03, affine=True, track_running_stats=True)
          (act): SiLU(0, 0.000% Params, 0.0 Mac, 0.000% MACs, inplace=True)
        )
        (m): ModuleList(
          (0-2): 3 x Bottleneck(
            73.98 k, 0.256% Params, 1.89 GMac, 2.844% MACs, 
            (cv1): Conv(
              36.99 k, 0.128% Params, 947.0 MMac, 1.422% MACs, 
              (conv): Conv2d(36.86 k, 0.127% Params, 943.72 MMac, 1.417% MACs, 64, 64, kernel_size=(3, 3), stride=(1, 1), padding=(1, 1), bias=False)
              (bn): BatchNorm2d(128, 0.000% Params, 3.28 MMac, 0.005% MACs, 64, eps=0.001, momentum=0.03, affine=True, track_running_stats=True)
              (act): SiLU(0, 0.000% Params, 0.0 Mac, 0.000% MACs, inplace=True)
            )
            (cv2): Conv(
              36.99 k, 0.128% Params, 947.0 MMac, 1.422% MACs, 
              (conv): Conv2d(36.86 k, 0.127% Params, 943.72 MMac, 1.417% MACs, 64, 64, kernel_size=(3, 3), stride=(1, 1), padding=(1, 1), bias=False)
              (bn): BatchNorm2d(128, 0.000% Params, 3.28 MMac, 0.005% MACs, 64, eps=0.001, momentum=0.03, affine=True, track_running_stats=True)
              (act): SiLU(0, 0.000% Params, 0.0 Mac, 0.000% MACs, inplace=True)
            )
          )
        )
      )
      (3): Conv(
        295.42 k, 1.022% Params, 1.89 GMac, 2.839% MACs, 
        (conv): Conv2d(294.91 k, 1.020% Params, 1.89 GMac, 2.835% MACs, 128, 256, kernel_size=(3, 3), stride=(2, 2), padding=(1, 1), bias=False)
        (bn): BatchNorm2d(512, 0.002% Params, 3.28 MMac, 0.005% MACs, 256, eps=0.001, momentum=0.03, affine=True, track_running_stats=True)
        (act): SiLU(0, 0.000% Params, 0.0 Mac, 0.000% MACs, inplace=True)
      )
      (4): C2f(
        2.1 M, 7.266% Params, 13.45 GMac, 20.196% MACs, 
        (cv1): Conv(
          66.05 k, 0.228% Params, 422.71 MMac, 0.635% MACs, 
          (conv): Conv2d(65.54 k, 0.227% Params, 419.43 MMac, 0.630% MACs, 256, 256, kernel_size=(1, 1), stride=(1, 1), bias=False)
          (bn): BatchNorm2d(512, 0.002% Params, 3.28 MMac, 0.005% MACs, 256, eps=0.001, momentum=0.03, affine=True, track_running_stats=True)
          (act): SiLU(0, 0.000% Params, 0.0 Mac, 0.000% MACs, inplace=True)
        )
        (cv2): Conv(
          262.66 k, 0.908% Params, 1.68 GMac, 2.524% MACs, 
          (conv): Conv2d(262.14 k, 0.907% Params, 1.68 GMac, 2.520% MACs, 1024, 256, kernel_size=(1, 1), stride=(1, 1), bias=False)
          (bn): BatchNorm2d(512, 0.002% Params, 3.28 MMac, 0.005% MACs, 256, eps=0.001, momentum=0.03, affine=True, track_running_stats=True)
          (act): SiLU(0, 0.000% Params, 0.0 Mac, 0.000% MACs, inplace=True)
        )
        (m): ModuleList(
          (0-5): 6 x Bottleneck(
            295.42 k, 1.022% Params, 1.89 GMac, 2.839% MACs, 
            (cv1): Conv(
              147.71 k, 0.511% Params, 945.36 MMac, 1.420% MACs, 
              (conv): Conv2d(147.46 k, 0.510% Params, 943.72 MMac, 1.417% MACs, 128, 128, kernel_size=(3, 3), stride=(1, 1), padding=(1, 1), bias=False)
              (bn): BatchNorm2d(256, 0.001% Params, 1.64 MMac, 0.002% MACs, 128, eps=0.001, momentum=0.03, affine=True, track_running_stats=True)
              (act): SiLU(0, 0.000% Params, 0.0 Mac, 0.000% MACs, inplace=True)
            )
            (cv2): Conv(
              147.71 k, 0.511% Params, 945.36 MMac, 1.420% MACs, 
              (conv): Conv2d(147.46 k, 0.510% Params, 943.72 MMac, 1.417% MACs, 128, 128, kernel_size=(3, 3), stride=(1, 1), padding=(1, 1), bias=False)
              (bn): BatchNorm2d(256, 0.001% Params, 1.64 MMac, 0.002% MACs, 128, eps=0.001, momentum=0.03, affine=True, track_running_stats=True)
              (act): SiLU(0, 0.000% Params, 0.0 Mac, 0.000% MACs, inplace=True)
            )
          )
        )
      )
      (5): SCDown(
        137.73 k, 0.476% Params, 854.43 MMac, 1.283% MACs, 
        (cv1): Conv(
          132.1 k, 0.457% Params, 845.41 MMac, 1.270% MACs, 
          (conv): Conv2d(131.07 k, 0.453% Params, 838.86 MMac, 1.260% MACs, 256, 512, kernel_size=(1, 1), stride=(1, 1), bias=False)
          (bn): BatchNorm2d(1.02 k, 0.004% Params, 6.55 MMac, 0.010% MACs, 512, eps=0.001, momentum=0.03, affine=True, track_running_stats=True)
          (act): SiLU(0, 0.000% Params, 0.0 Mac, 0.000% MACs, inplace=True)
        )
        (cv2): Conv(
          5.63 k, 0.019% Params, 9.01 MMac, 0.014% MACs, 
          (conv): Conv2d(4.61 k, 0.016% Params, 7.37 MMac, 0.011% MACs, 512, 512, kernel_size=(3, 3), stride=(2, 2), padding=(1, 1), groups=512, bias=False)
          (bn): BatchNorm2d(1.02 k, 0.004% Params, 1.64 MMac, 0.002% MACs, 512, eps=0.001, momentum=0.03, affine=True, track_running_stats=True)
          (act): Identity(0, 0.000% Params, 0.0 Mac, 0.000% MACs, )
        )
      )
      (6): C2f(
        8.4 M, 29.037% Params, 13.43 GMac, 20.176% MACs, 
        (cv1): Conv(
          263.17 k, 0.910% Params, 421.07 MMac, 0.632% MACs, 
          (conv): Conv2d(262.14 k, 0.907% Params, 419.43 MMac, 0.630% MACs, 512, 512, kernel_size=(1, 1), stride=(1, 1), bias=False)
          (bn): BatchNorm2d(1.02 k, 0.004% Params, 1.64 MMac, 0.002% MACs, 512, eps=0.001, momentum=0.03, affine=True, track_running_stats=True)
          (act): SiLU(0, 0.000% Params, 0.0 Mac, 0.000% MACs, inplace=True)
        )
        (cv2): Conv(
          1.05 M, 3.630% Params, 1.68 GMac, 2.522% MACs, 
          (conv): Conv2d(1.05 M, 3.626% Params, 1.68 GMac, 2.520% MACs, 2048, 512, kernel_size=(1, 1), stride=(1, 1), bias=False)
          (bn): BatchNorm2d(1.02 k, 0.004% Params, 1.64 MMac, 0.002% MACs, 512, eps=0.001, momentum=0.03, affine=True, track_running_stats=True)
          (act): SiLU(0, 0.000% Params, 0.0 Mac, 0.000% MACs, inplace=True)
        )
        (m): ModuleList(
          (0-5): 6 x Bottleneck(
            1.18 M, 4.083% Params, 1.89 GMac, 2.837% MACs, 
            (cv1): Conv(
              590.34 k, 2.041% Params, 944.54 MMac, 1.418% MACs, 
              (conv): Conv2d(589.82 k, 2.040% Params, 943.72 MMac, 1.417% MACs, 256, 256, kernel_size=(3, 3), stride=(1, 1), padding=(1, 1), bias=False)
              (bn): BatchNorm2d(512, 0.002% Params, 819.2 KMac, 0.001% MACs, 256, eps=0.001, momentum=0.03, affine=True, track_running_stats=True)
              (act): SiLU(0, 0.000% Params, 0.0 Mac, 0.000% MACs, inplace=True)
            )
            (cv2): Conv(
              590.34 k, 2.041% Params, 944.54 MMac, 1.418% MACs, 
              (conv): Conv2d(589.82 k, 2.040% Params, 943.72 MMac, 1.417% MACs, 256, 256, kernel_size=(3, 3), stride=(1, 1), padding=(1, 1), bias=False)
              (bn): BatchNorm2d(512, 0.002% Params, 819.2 KMac, 0.001% MACs, 256, eps=0.001, momentum=0.03, affine=True, track_running_stats=True)
              (act): SiLU(0, 0.000% Params, 0.0 Mac, 0.000% MACs, inplace=True)
            )
          )
        )
      )
      (7): SCDown(
        268.8 k, 0.930% Params, 423.32 MMac, 0.636% MACs, 
        (cv1): Conv(
          263.17 k, 0.910% Params, 421.07 MMac, 0.632% MACs, 
          (conv): Conv2d(262.14 k, 0.907% Params, 419.43 MMac, 0.630% MACs, 512, 512, kernel_size=(1, 1), stride=(1, 1), bias=False)
          (bn): BatchNorm2d(1.02 k, 0.004% Params, 1.64 MMac, 0.002% MACs, 512, eps=0.001, momentum=0.03, affine=True, track_running_stats=True)
          (act): SiLU(0, 0.000% Params, 0.0 Mac, 0.000% MACs, inplace=True)
        )
        (cv2): Conv(
          5.63 k, 0.019% Params, 2.25 MMac, 0.003% MACs, 
          (conv): Conv2d(4.61 k, 0.016% Params, 1.84 MMac, 0.003% MACs, 512, 512, kernel_size=(3, 3), stride=(2, 2), padding=(1, 1), groups=512, bias=False)
          (bn): BatchNorm2d(1.02 k, 0.004% Params, 409.6 KMac, 0.001% MACs, 512, eps=0.001, momentum=0.03, affine=True, track_running_stats=True)
          (act): Identity(0, 0.000% Params, 0.0 Mac, 0.000% MACs, )
        )
      )
      (8): C2fCIB(
        1.74 M, 6.032% Params, 697.75 MMac, 1.048% MACs, 
        (cv1): Conv(
          263.17 k, 0.910% Params, 105.27 MMac, 0.158% MACs, 
          (conv): Conv2d(262.14 k, 0.907% Params, 104.86 MMac, 0.157% MACs, 512, 512, kernel_size=(1, 1), stride=(1, 1), bias=False)
          (bn): BatchNorm2d(1.02 k, 0.004% Params, 409.6 KMac, 0.001% MACs, 512, eps=0.001, momentum=0.03, affine=True, track_running_stats=True)
          (act): SiLU(0, 0.000% Params, 0.0 Mac, 0.000% MACs, inplace=True)
        )
        (cv2): Conv(
          656.38 k, 2.270% Params, 262.55 MMac, 0.394% MACs, 
          (conv): Conv2d(655.36 k, 2.266% Params, 262.14 MMac, 0.394% MACs, 1280, 512, kernel_size=(1, 1), stride=(1, 1), bias=False)
          (bn): BatchNorm2d(1.02 k, 0.004% Params, 409.6 KMac, 0.001% MACs, 512, eps=0.001, momentum=0.03, affine=True, track_running_stats=True)
          (act): SiLU(0, 0.000% Params, 0.0 Mac, 0.000% MACs, inplace=True)
        )
        (m): ModuleList(
          (0-2): 3 x CIB(
            274.94 k, 0.951% Params, 109.98 MMac, 0.165% MACs, 
            (cv1): Sequential(
              274.94 k, 0.951% Params, 109.98 MMac, 0.165% MACs, 
              (0): Conv(
                2.82 k, 0.010% Params, 1.13 MMac, 0.002% MACs, 
                (conv): Conv2d(2.3 k, 0.008% Params, 921.6 KMac, 0.001% MACs, 256, 256, kernel_size=(3, 3), stride=(1, 1), padding=(1, 1), groups=256, bias=False)
                (bn): BatchNorm2d(512, 0.002% Params, 204.8 KMac, 0.000% MACs, 256, eps=0.001, momentum=0.03, affine=True, track_running_stats=True)
                (act): SiLU(0, 0.000% Params, 0.0 Mac, 0.000% MACs, inplace=True)
              )
              (1): Conv(
                132.1 k, 0.457% Params, 52.84 MMac, 0.079% MACs, 
                (conv): Conv2d(131.07 k, 0.453% Params, 52.43 MMac, 0.079% MACs, 256, 512, kernel_size=(1, 1), stride=(1, 1), bias=False)
                (bn): BatchNorm2d(1.02 k, 0.004% Params, 409.6 KMac, 0.001% MACs, 512, eps=0.001, momentum=0.03, affine=True, track_running_stats=True)
                (act): SiLU(0, 0.000% Params, 0.0 Mac, 0.000% MACs, inplace=True)
              )
              (2): Conv(
                5.63 k, 0.019% Params, 2.25 MMac, 0.003% MACs, 
                (conv): Conv2d(4.61 k, 0.016% Params, 1.84 MMac, 0.003% MACs, 512, 512, kernel_size=(3, 3), stride=(1, 1), padding=(1, 1), groups=512, bias=False)
                (bn): BatchNorm2d(1.02 k, 0.004% Params, 409.6 KMac, 0.001% MACs, 512, eps=0.001, momentum=0.03, affine=True, track_running_stats=True)
                (act): SiLU(0, 0.000% Params, 0.0 Mac, 0.000% MACs, inplace=True)
              )
              (3): Conv(
                131.58 k, 0.455% Params, 52.63 MMac, 0.079% MACs, 
                (conv): Conv2d(131.07 k, 0.453% Params, 52.43 MMac, 0.079% MACs, 512, 256, kernel_size=(1, 1), stride=(1, 1), bias=False)
                (bn): BatchNorm2d(512, 0.002% Params, 204.8 KMac, 0.000% MACs, 256, eps=0.001, momentum=0.03, affine=True, track_running_stats=True)
                (act): SiLU(0, 0.000% Params, 0.0 Mac, 0.000% MACs, inplace=True)
              )
              (4): Conv(
                2.82 k, 0.010% Params, 1.13 MMac, 0.002% MACs, 
                (conv): Conv2d(2.3 k, 0.008% Params, 921.6 KMac, 0.001% MACs, 256, 256, kernel_size=(3, 3), stride=(1, 1), padding=(1, 1), groups=256, bias=False)
                (bn): BatchNorm2d(512, 0.002% Params, 204.8 KMac, 0.000% MACs, 256, eps=0.001, momentum=0.03, affine=True, track_running_stats=True)
                (act): SiLU(0, 0.000% Params, 0.0 Mac, 0.000% MACs, inplace=True)
              )
            )
          )
        )
      )
      (9): SPPF(
        656.9 k, 2.272% Params, 263.07 MMac, 0.395% MACs, 
        (cv1): Conv(
          131.58 k, 0.455% Params, 52.63 MMac, 0.079% MACs, 
          (conv): Conv2d(131.07 k, 0.453% Params, 52.43 MMac, 0.079% MACs, 512, 256, kernel_size=(1, 1), stride=(1, 1), bias=False)
          (bn): BatchNorm2d(512, 0.002% Params, 204.8 KMac, 0.000% MACs, 256, eps=0.001, momentum=0.03, affine=True, track_running_stats=True)
          (act): SiLU(0, 0.000% Params, 0.0 Mac, 0.000% MACs, inplace=True)
        )
        (cv2): Conv(
          525.31 k, 1.817% Params, 210.12 MMac, 0.316% MACs, 
          (conv): Conv2d(524.29 k, 1.813% Params, 209.72 MMac, 0.315% MACs, 1024, 512, kernel_size=(1, 1), stride=(1, 1), bias=False)
          (bn): BatchNorm2d(1.02 k, 0.004% Params, 409.6 KMac, 0.001% MACs, 512, eps=0.001, momentum=0.03, affine=True, track_running_stats=True)
          (act): SiLU(0, 0.000% Params, 0.0 Mac, 0.000% MACs, inplace=True)
        )
        (m): MaxPool2d(0, 0.000% Params, 307.2 KMac, 0.000% MACs, kernel_size=5, stride=1, padding=2, dilation=1, ceil_mode=False)
      )
      (10): PSA(
        990.98 k, 3.427% Params, 396.39 MMac, 0.595% MACs, 
        (cv1): Conv(
          263.17 k, 0.910% Params, 105.27 MMac, 0.158% MACs, 
          (conv): Conv2d(262.14 k, 0.907% Params, 104.86 MMac, 0.157% MACs, 512, 512, kernel_size=(1, 1), stride=(1, 1), bias=False)
          (bn): BatchNorm2d(1.02 k, 0.004% Params, 409.6 KMac, 0.001% MACs, 512, eps=0.001, momentum=0.03, affine=True, track_running_stats=True)
          (act): SiLU(0, 0.000% Params, 0.0 Mac, 0.000% MACs, inplace=True)
        )
        (cv2): Conv(
          263.17 k, 0.910% Params, 105.27 MMac, 0.158% MACs, 
          (conv): Conv2d(262.14 k, 0.907% Params, 104.86 MMac, 0.157% MACs, 512, 512, kernel_size=(1, 1), stride=(1, 1), bias=False)
          (bn): BatchNorm2d(1.02 k, 0.004% Params, 409.6 KMac, 0.001% MACs, 512, eps=0.001, momentum=0.03, affine=True, track_running_stats=True)
          (act): SiLU(0, 0.000% Params, 0.0 Mac, 0.000% MACs, inplace=True)
        )
        (attn): Attention(
          200.96 k, 0.695% Params, 80.38 MMac, 0.121% MACs, 
          (qkv): Conv(
            132.1 k, 0.457% Params, 52.84 MMac, 0.079% MACs, 
            (conv): Conv2d(131.07 k, 0.453% Params, 52.43 MMac, 0.079% MACs, 256, 512, kernel_size=(1, 1), stride=(1, 1), bias=False)
            (bn): BatchNorm2d(1.02 k, 0.004% Params, 409.6 KMac, 0.001% MACs, 512, eps=0.001, momentum=0.03, affine=True, track_running_stats=True)
            (act): Identity(0, 0.000% Params, 0.0 Mac, 0.000% MACs, )
          )
          (proj): Conv(
            66.05 k, 0.228% Params, 26.42 MMac, 0.040% MACs, 
            (conv): Conv2d(65.54 k, 0.227% Params, 26.21 MMac, 0.039% MACs, 256, 256, kernel_size=(1, 1), stride=(1, 1), bias=False)
            (bn): BatchNorm2d(512, 0.002% Params, 204.8 KMac, 0.000% MACs, 256, eps=0.001, momentum=0.03, affine=True, track_running_stats=True)
            (act): Identity(0, 0.000% Params, 0.0 Mac, 0.000% MACs, )
          )
          (pe): Conv(
            2.82 k, 0.010% Params, 1.13 MMac, 0.002% MACs, 
            (conv): Conv2d(2.3 k, 0.008% Params, 921.6 KMac, 0.001% MACs, 256, 256, kernel_size=(3, 3), stride=(1, 1), padding=(1, 1), groups=256, bias=False)
            (bn): BatchNorm2d(512, 0.002% Params, 204.8 KMac, 0.000% MACs, 256, eps=0.001, momentum=0.03, affine=True, track_running_stats=True)
            (act): Identity(0, 0.000% Params, 0.0 Mac, 0.000% MACs, )
          )
        )
        (ffn): Sequential(
          263.68 k, 0.912% Params, 105.47 MMac, 0.158% MACs, 
          (0): Conv(
            132.1 k, 0.457% Params, 52.84 MMac, 0.079% MACs, 
            (conv): Conv2d(131.07 k, 0.453% Params, 52.43 MMac, 0.079% MACs, 256, 512, kernel_size=(1, 1), stride=(1, 1), bias=False)
            (bn): BatchNorm2d(1.02 k, 0.004% Params, 409.6 KMac, 0.001% MACs, 512, eps=0.001, momentum=0.03, affine=True, track_running_stats=True)
            (act): SiLU(0, 0.000% Params, 0.0 Mac, 0.000% MACs, inplace=True)
          )
          (1): Conv(
            131.58 k, 0.455% Params, 52.63 MMac, 0.079% MACs, 
            (conv): Conv2d(131.07 k, 0.453% Params, 52.43 MMac, 0.079% MACs, 512, 256, kernel_size=(1, 1), stride=(1, 1), bias=False)
            (bn): BatchNorm2d(512, 0.002% Params, 204.8 KMac, 0.000% MACs, 256, eps=0.001, momentum=0.03, affine=True, track_running_stats=True)
            (act): Identity(0, 0.000% Params, 0.0 Mac, 0.000% MACs, )
          )
        )
      )
      (11): SpatialAlignTransnormer(
        2.37 M, 8.191% Params, 948.63 MMac, 1.425% MACs, 
        (upsample): Upsample(0, 0.000% Params, 819.2 KMac, 0.001% MACs, scale_factor=2.0, mode='bilinear')
        (high_to_low_embed): Sequential(
          263.68 k, 0.912% Params, 105.47 MMac, 0.158% MACs, 
          (0): Conv2d(262.66 k, 0.908% Params, 105.06 MMac, 0.158% MACs, 512, 512, kernel_size=(1, 1), stride=(1, 1))
          (1): BatchNorm2d(1.02 k, 0.004% Params, 409.6 KMac, 0.001% MACs, 512, eps=0.001, momentum=0.03, affine=True, track_running_stats=True)
        )
        (q_proj): Sequential(
          263.68 k, 0.912% Params, 105.27 MMac, 0.158% MACs, 
          (0): Linear(262.66 k, 0.908% Params, 105.06 MMac, 0.158% MACs, in_features=512, out_features=512, bias=True)
          (1): LayerNorm(1.02 k, 0.004% Params, 204.8 KMac, 0.000% MACs, (512,), eps=1e-05, elementwise_affine=True)
        )
        (k_proj): Sequential(
          263.68 k, 0.912% Params, 105.27 MMac, 0.158% MACs, 
          (0): Linear(262.66 k, 0.908% Params, 105.06 MMac, 0.158% MACs, in_features=512, out_features=512, bias=True)
          (1): LayerNorm(1.02 k, 0.004% Params, 204.8 KMac, 0.000% MACs, (512,), eps=1e-05, elementwise_affine=True)
        )
        (v_proj): Linear(262.66 k, 0.908% Params, 105.06 MMac, 0.158% MACs, in_features=512, out_features=512, bias=True)
        (out_proj): Linear(262.66 k, 0.908% Params, 105.06 MMac, 0.158% MACs, in_features=512, out_features=512, bias=True)
        (attn_norm): RMSNorm(0, 0.000% Params, 0.0 Mac, 0.000% MACs, (16,), eps=None, elementwise_affine=True)
        (linear1): Linear(525.31 k, 1.817% Params, 210.12 MMac, 0.316% MACs, in_features=512, out_features=1024, bias=True)
        (dropout): Dropout(0, 0.000% Params, 0.0 Mac, 0.000% MACs, p=0.0, inplace=False)
        (linear2): Linear(524.8 k, 1.815% Params, 209.92 MMac, 0.315% MACs, in_features=1024, out_features=512, bias=True)
        (activation): GELU(0, 0.000% Params, 409.6 KMac, 0.001% MACs, approximate='none')
        (norm1): LayerNorm(1.02 k, 0.004% Params, 204.8 KMac, 0.000% MACs, (512,), eps=1e-05, elementwise_affine=True)
        (norm2): LayerNorm(1.02 k, 0.004% Params, 204.8 KMac, 0.000% MACs, (512,), eps=1e-05, elementwise_affine=True)
        (dropout1): Dropout(0, 0.000% Params, 0.0 Mac, 0.000% MACs, p=0.0, inplace=False)
        (dropout2): Dropout(0, 0.000% Params, 0.0 Mac, 0.000% MACs, p=0.0, inplace=False)
        (avg_pool_high): Identity(0, 0.000% Params, 0.0 Mac, 0.000% MACs, )
        (avg_pool_low): AvgPool2d(0, 0.000% Params, 819.2 KMac, 0.001% MACs, kernel_size=2, stride=2, padding=0)
      )
      (12): C2fCIB(
        2.01 M, 6.939% Params, 3.21 GMac, 4.821% MACs, 
        (cv1): Conv(
          525.31 k, 1.817% Params, 840.5 MMac, 1.262% MACs, 
          (conv): Conv2d(524.29 k, 1.813% Params, 838.86 MMac, 1.260% MACs, 1024, 512, kernel_size=(1, 1), stride=(1, 1), bias=False)
          (bn): BatchNorm2d(1.02 k, 0.004% Params, 1.64 MMac, 0.002% MACs, 512, eps=0.001, momentum=0.03, affine=True, track_running_stats=True)
          (act): SiLU(0, 0.000% Params, 0.0 Mac, 0.000% MACs, inplace=True)
        )
        (cv2): Conv(
          656.38 k, 2.270% Params, 1.05 GMac, 1.577% MACs, 
          (conv): Conv2d(655.36 k, 2.266% Params, 1.05 GMac, 1.575% MACs, 1280, 512, kernel_size=(1, 1), stride=(1, 1), bias=False)
          (bn): BatchNorm2d(1.02 k, 0.004% Params, 1.64 MMac, 0.002% MACs, 512, eps=0.001, momentum=0.03, affine=True, track_running_stats=True)
          (act): SiLU(0, 0.000% Params, 0.0 Mac, 0.000% MACs, inplace=True)
        )
        (m): ModuleList(
          (0-2): 3 x CIB(
            274.94 k, 0.951% Params, 439.91 MMac, 0.661% MACs, 
            (cv1): Sequential(
              274.94 k, 0.951% Params, 439.91 MMac, 0.661% MACs, 
              (0): Conv(
                2.82 k, 0.010% Params, 4.51 MMac, 0.007% MACs, 
                (conv): Conv2d(2.3 k, 0.008% Params, 3.69 MMac, 0.006% MACs, 256, 256, kernel_size=(3, 3), stride=(1, 1), padding=(1, 1), groups=256, bias=False)
                (bn): BatchNorm2d(512, 0.002% Params, 819.2 KMac, 0.001% MACs, 256, eps=0.001, momentum=0.03, affine=True, track_running_stats=True)
                (act): SiLU(0, 0.000% Params, 0.0 Mac, 0.000% MACs, inplace=True)
              )
              (1): Conv(
                132.1 k, 0.457% Params, 211.35 MMac, 0.317% MACs, 
                (conv): Conv2d(131.07 k, 0.453% Params, 209.72 MMac, 0.315% MACs, 256, 512, kernel_size=(1, 1), stride=(1, 1), bias=False)
                (bn): BatchNorm2d(1.02 k, 0.004% Params, 1.64 MMac, 0.002% MACs, 512, eps=0.001, momentum=0.03, affine=True, track_running_stats=True)
                (act): SiLU(0, 0.000% Params, 0.0 Mac, 0.000% MACs, inplace=True)
              )
              (2): Conv(
                5.63 k, 0.019% Params, 9.01 MMac, 0.014% MACs, 
                (conv): Conv2d(4.61 k, 0.016% Params, 7.37 MMac, 0.011% MACs, 512, 512, kernel_size=(3, 3), stride=(1, 1), padding=(1, 1), groups=512, bias=False)
                (bn): BatchNorm2d(1.02 k, 0.004% Params, 1.64 MMac, 0.002% MACs, 512, eps=0.001, momentum=0.03, affine=True, track_running_stats=True)
                (act): SiLU(0, 0.000% Params, 0.0 Mac, 0.000% MACs, inplace=True)
              )
              (3): Conv(
                131.58 k, 0.455% Params, 210.53 MMac, 0.316% MACs, 
                (conv): Conv2d(131.07 k, 0.453% Params, 209.72 MMac, 0.315% MACs, 512, 256, kernel_size=(1, 1), stride=(1, 1), bias=False)
                (bn): BatchNorm2d(512, 0.002% Params, 819.2 KMac, 0.001% MACs, 256, eps=0.001, momentum=0.03, affine=True, track_running_stats=True)
                (act): SiLU(0, 0.000% Params, 0.0 Mac, 0.000% MACs, inplace=True)
              )
              (4): Conv(
                2.82 k, 0.010% Params, 4.51 MMac, 0.007% MACs, 
                (conv): Conv2d(2.3 k, 0.008% Params, 3.69 MMac, 0.006% MACs, 256, 256, kernel_size=(3, 3), stride=(1, 1), padding=(1, 1), groups=256, bias=False)
                (bn): BatchNorm2d(512, 0.002% Params, 819.2 KMac, 0.001% MACs, 256, eps=0.001, momentum=0.03, affine=True, track_running_stats=True)
                (act): SiLU(0, 0.000% Params, 0.0 Mac, 0.000% MACs, inplace=True)
              )
            )
          )
        )
      )
      (13): SpatialAlignTransnormer(
        659.97 k, 2.282% Params, 427.32 MMac, 0.642% MACs, 
        (upsample): Upsample(0, 0.000% Params, 3.28 MMac, 0.005% MACs, scale_factor=2.0, mode='bilinear')
        (high_to_low_embed): Sequential(
          131.84 k, 0.456% Params, 210.94 MMac, 0.317% MACs, 
          (0): Conv2d(131.33 k, 0.454% Params, 210.12 MMac, 0.316% MACs, 512, 256, kernel_size=(1, 1), stride=(1, 1))
          (1): BatchNorm2d(512, 0.002% Params, 819.2 KMac, 0.001% MACs, 256, eps=0.001, momentum=0.03, affine=True, track_running_stats=True)
        )
        (q_proj): Sequential(
          66.3 k, 0.229% Params, 26.42 MMac, 0.040% MACs, 
          (0): Linear(65.79 k, 0.228% Params, 26.32 MMac, 0.040% MACs, in_features=256, out_features=256, bias=True)
          (1): LayerNorm(512, 0.002% Params, 102.4 KMac, 0.000% MACs, (256,), eps=1e-05, elementwise_affine=True)
        )
        (k_proj): Sequential(
          66.3 k, 0.229% Params, 26.42 MMac, 0.040% MACs, 
          (0): Linear(65.79 k, 0.228% Params, 26.32 MMac, 0.040% MACs, in_features=256, out_features=256, bias=True)
          (1): LayerNorm(512, 0.002% Params, 102.4 KMac, 0.000% MACs, (256,), eps=1e-05, elementwise_affine=True)
        )
        (v_proj): Linear(65.79 k, 0.228% Params, 26.32 MMac, 0.040% MACs, in_features=256, out_features=256, bias=True)
        (out_proj): Linear(65.79 k, 0.228% Params, 26.32 MMac, 0.040% MACs, in_features=256, out_features=256, bias=True)
        (attn_norm): RMSNorm(0, 0.000% Params, 0.0 Mac, 0.000% MACs, (16,), eps=None, elementwise_affine=True)
        (linear1): Linear(131.58 k, 0.455% Params, 52.63 MMac, 0.079% MACs, in_features=256, out_features=512, bias=True)
        (dropout): Dropout(0, 0.000% Params, 0.0 Mac, 0.000% MACs, p=0.0, inplace=False)
        (linear2): Linear(131.33 k, 0.454% Params, 52.53 MMac, 0.079% MACs, in_features=512, out_features=256, bias=True)
        (activation): GELU(0, 0.000% Params, 204.8 KMac, 0.000% MACs, approximate='none')
        (norm1): LayerNorm(512, 0.002% Params, 102.4 KMac, 0.000% MACs, (256,), eps=1e-05, elementwise_affine=True)
        (norm2): LayerNorm(512, 0.002% Params, 102.4 KMac, 0.000% MACs, (256,), eps=1e-05, elementwise_affine=True)
        (dropout1): Dropout(0, 0.000% Params, 0.0 Mac, 0.000% MACs, p=0.0, inplace=False)
        (dropout2): Dropout(0, 0.000% Params, 0.0 Mac, 0.000% MACs, p=0.0, inplace=False)
        (avg_pool_high): AvgPool2d(0, 0.000% Params, 409.6 KMac, 0.001% MACs, kernel_size=2, stride=2, padding=0)
        (avg_pool_low): AvgPool2d(0, 0.000% Params, 1.64 MMac, 0.002% MACs, kernel_size=4, stride=4, padding=0)
      )
      (14): C2f(
        1.25 M, 4.315% Params, 7.99 GMac, 11.993% MACs, 
        (cv1): Conv(
          197.12 k, 0.682% Params, 1.26 GMac, 1.895% MACs, 
          (conv): Conv2d(196.61 k, 0.680% Params, 1.26 GMac, 1.890% MACs, 768, 256, kernel_size=(1, 1), stride=(1, 1), bias=False)
          (bn): BatchNorm2d(512, 0.002% Params, 3.28 MMac, 0.005% MACs, 256, eps=0.001, momentum=0.03, affine=True, track_running_stats=True)
          (act): SiLU(0, 0.000% Params, 0.0 Mac, 0.000% MACs, inplace=True)
        )
        (cv2): Conv(
          164.35 k, 0.568% Params, 1.05 GMac, 1.580% MACs, 
          (conv): Conv2d(163.84 k, 0.567% Params, 1.05 GMac, 1.575% MACs, 640, 256, kernel_size=(1, 1), stride=(1, 1), bias=False)
          (bn): BatchNorm2d(512, 0.002% Params, 3.28 MMac, 0.005% MACs, 256, eps=0.001, momentum=0.03, affine=True, track_running_stats=True)
          (act): SiLU(0, 0.000% Params, 0.0 Mac, 0.000% MACs, inplace=True)
        )
        (m): ModuleList(
          (0-2): 3 x Bottleneck(
            295.42 k, 1.022% Params, 1.89 GMac, 2.839% MACs, 
            (cv1): Conv(
              147.71 k, 0.511% Params, 945.36 MMac, 1.420% MACs, 
              (conv): Conv2d(147.46 k, 0.510% Params, 943.72 MMac, 1.417% MACs, 128, 128, kernel_size=(3, 3), stride=(1, 1), padding=(1, 1), bias=False)
              (bn): BatchNorm2d(256, 0.001% Params, 1.64 MMac, 0.002% MACs, 128, eps=0.001, momentum=0.03, affine=True, track_running_stats=True)
              (act): SiLU(0, 0.000% Params, 0.0 Mac, 0.000% MACs, inplace=True)
            )
            (cv2): Conv(
              147.71 k, 0.511% Params, 945.36 MMac, 1.420% MACs, 
              (conv): Conv2d(147.46 k, 0.510% Params, 943.72 MMac, 1.417% MACs, 128, 128, kernel_size=(3, 3), stride=(1, 1), padding=(1, 1), bias=False)
              (bn): BatchNorm2d(256, 0.001% Params, 1.64 MMac, 0.002% MACs, 128, eps=0.001, momentum=0.03, affine=True, track_running_stats=True)
              (act): SiLU(0, 0.000% Params, 0.0 Mac, 0.000% MACs, inplace=True)
            )
          )
        )
      )
      (15): Conv(
        590.34 k, 2.041% Params, 944.54 MMac, 1.418% MACs, 
        (conv): Conv2d(589.82 k, 2.040% Params, 943.72 MMac, 1.417% MACs, 256, 256, kernel_size=(3, 3), stride=(2, 2), padding=(1, 1), bias=False)
…
          (bn): BatchNorm2d(1.02 k, 0.004% Params, 409.6 KMac, 0.001% MACs, 512, eps=0.001, momentum=0.03, affine=True, track_running_stats=True)
          (act): SiLU(0, 0.000% Params, 0.0 Mac, 0.000% MACs, inplace=True)
        )
        (cv2): Conv(
          656.38 k, 2.270% Params, 262.55 MMac, 0.394% MACs, 
          (conv): Conv2d(655.36 k, 2.266% Params, 262.14 MMac, 0.394% MACs, 1280, 512, kernel_size=(1, 1), stride=(1, 1), bias=False)
          (bn): BatchNorm2d(1.02 k, 0.004% Params, 409.6 KMac, 0.001% MACs, 512, eps=0.001, momentum=0.03, affine=True, track_running_stats=True)
          (act): SiLU(0, 0.000% Params, 0.0 Mac, 0.000% MACs, inplace=True)
        )
        (m): ModuleList(
          (0-2): 3 x CIB(
            274.94 k, 0.951% Params, 109.98 MMac, 0.165% MACs, 
            (cv1): Sequential(
              274.94 k, 0.951% Params, 109.98 MMac, 0.165% MACs, 
              (0): Conv(
                2.82 k, 0.010% Params, 1.13 MMac, 0.002% MACs, 
                (conv): Conv2d(2.3 k, 0.008% Params, 921.6 KMac, 0.001% MACs, 256, 256, kernel_size=(3, 3), stride=(1, 1), padding=(1, 1), groups=256, bias=False)
                (bn): BatchNorm2d(512, 0.002% Params, 204.8 KMac, 0.000% MACs, 256, eps=0.001, momentum=0.03, affine=True, track_running_stats=True)
                (act): SiLU(0, 0.000% Params, 0.0 Mac, 0.000% MACs, inplace=True)
              )
              (1): Conv(
                132.1 k, 0.457% Params, 52.84 MMac, 0.079% MACs, 
                (conv): Conv2d(131.07 k, 0.453% Params, 52.43 MMac, 0.079% MACs, 256, 512, kernel_size=(1, 1), stride=(1, 1), bias=False)
                (bn): BatchNorm2d(1.02 k, 0.004% Params, 409.6 KMac, 0.001% MACs, 512, eps=0.001, momentum=0.03, affine=True, track_running_stats=True)
                (act): SiLU(0, 0.000% Params, 0.0 Mac, 0.000% MACs, inplace=True)
              )
              (2): Conv(
                5.63 k, 0.019% Params, 2.25 MMac, 0.003% MACs, 
                (conv): Conv2d(4.61 k, 0.016% Params, 1.84 MMac, 0.003% MACs, 512, 512, kernel_size=(3, 3), stride=(1, 1), padding=(1, 1), groups=512, bias=False)
                (bn): BatchNorm2d(1.02 k, 0.004% Params, 409.6 KMac, 0.001% MACs, 512, eps=0.001, momentum=0.03, affine=True, track_running_stats=True)
                (act): SiLU(0, 0.000% Params, 0.0 Mac, 0.000% MACs, inplace=True)
              )
              (3): Conv(
                131.58 k, 0.455% Params, 52.63 MMac, 0.079% MACs, 
                (conv): Conv2d(131.07 k, 0.453% Params, 52.43 MMac, 0.079% MACs, 512, 256, kernel_size=(1, 1), stride=(1, 1), bias=False)
                (bn): BatchNorm2d(512, 0.002% Params, 204.8 KMac, 0.000% MACs, 256, eps=0.001, momentum=0.03, affine=True, track_running_stats=True)
                (act): SiLU(0, 0.000% Params, 0.0 Mac, 0.000% MACs, inplace=True)
              )
              (4): Conv(
                2.82 k, 0.010% Params, 1.13 MMac, 0.002% MACs, 
                (conv): Conv2d(2.3 k, 0.008% Params, 921.6 KMac, 0.001% MACs, 256, 256, kernel_size=(3, 3), stride=(1, 1), padding=(1, 1), groups=256, bias=False)
                (bn): BatchNorm2d(512, 0.002% Params, 204.8 KMac, 0.000% MACs, 256, eps=0.001, momentum=0.03, affine=True, track_running_stats=True)
                (act): SiLU(0, 0.000% Params, 0.0 Mac, 0.000% MACs, inplace=True)
              )
            )
          )
        )
      )
      (9): SPPF(
        656.9 k, 2.272% Params, 263.07 MMac, 0.395% MACs, 
        (cv1): Conv(
          131.58 k, 0.455% Params, 52.63 MMac, 0.079% MACs, 
          (conv): Conv2d(131.07 k, 0.453% Params, 52.43 MMac, 0.079% MACs, 512, 256, kernel_size=(1, 1), stride=(1, 1), bias=False)
          (bn): BatchNorm2d(512, 0.002% Params, 204.8 KMac, 0.000% MACs, 256, eps=0.001, momentum=0.03, affine=True, track_running_stats=True)
          (act): SiLU(0, 0.000% Params, 0.0 Mac, 0.000% MACs, inplace=True)
        )
        (cv2): Conv(
          525.31 k, 1.817% Params, 210.12 MMac, 0.316% MACs, 
          (conv): Conv2d(524.29 k, 1.813% Params, 209.72 MMac, 0.315% MACs, 1024, 512, kernel_size=(1, 1), stride=(1, 1), bias=False)
          (bn): BatchNorm2d(1.02 k, 0.004% Params, 409.6 KMac, 0.001% MACs, 512, eps=0.001, momentum=0.03, affine=True, track_running_stats=True)
          (act): SiLU(0, 0.000% Params, 0.0 Mac, 0.000% MACs, inplace=True)
        )
        (m): MaxPool2d(0, 0.000% Params, 307.2 KMac, 0.000% MACs, kernel_size=5, stride=1, padding=2, dilation=1, ceil_mode=False)
      )
      (10): PSA(
        990.98 k, 3.427% Params, 396.39 MMac, 0.595% MACs, 
        (cv1): Conv(
          263.17 k, 0.910% Params, 105.27 MMac, 0.158% MACs, 
          (conv): Conv2d(262.14 k, 0.907% Params, 104.86 MMac, 0.157% MACs, 512, 512, kernel_size=(1, 1), stride=(1, 1), bias=False)
          (bn): BatchNorm2d(1.02 k, 0.004% Params, 409.6 KMac, 0.001% MACs, 512, eps=0.001, momentum=0.03, affine=True, track_running_stats=True)
          (act): SiLU(0, 0.000% Params, 0.0 Mac, 0.000% MACs, inplace=True)
        )
        (cv2): Conv(
          263.17 k, 0.910% Params, 105.27 MMac, 0.158% MACs, 
          (conv): Conv2d(262.14 k, 0.907% Params, 104.86 MMac, 0.157% MACs, 512, 512, kernel_size=(1, 1), stride=(1, 1), bias=False)
          (bn): BatchNorm2d(1.02 k, 0.004% Params, 409.6 KMac, 0.001% MACs, 512, eps=0.001, momentum=0.03, affine=True, track_running_stats=True)
          (act): SiLU(0, 0.000% Params, 0.0 Mac, 0.000% MACs, inplace=True)
        )
        (attn): Attention(
          200.96 k, 0.695% Params, 80.38 MMac, 0.121% MACs, 
          (qkv): Conv(
            132.1 k, 0.457% Params, 52.84 MMac, 0.079% MACs, 
            (conv): Conv2d(131.07 k, 0.453% Params, 52.43 MMac, 0.079% MACs, 256, 512, kernel_size=(1, 1), stride=(1, 1), bias=False)
            (bn): BatchNorm2d(1.02 k, 0.004% Params, 409.6 KMac, 0.001% MACs, 512, eps=0.001, momentum=0.03, affine=True, track_running_stats=True)
            (act): Identity(0, 0.000% Params, 0.0 Mac, 0.000% MACs, )
          )
          (proj): Conv(
            66.05 k, 0.228% Params, 26.42 MMac, 0.040% MACs, 
            (conv): Conv2d(65.54 k, 0.227% Params, 26.21 MMac, 0.039% MACs, 256, 256, kernel_size=(1, 1), stride=(1, 1), bias=False)
            (bn): BatchNorm2d(512, 0.002% Params, 204.8 KMac, 0.000% MACs, 256, eps=0.001, momentum=0.03, affine=True, track_running_stats=True)
            (act): Identity(0, 0.000% Params, 0.0 Mac, 0.000% MACs, )
          )
          (pe): Conv(
            2.82 k, 0.010% Params, 1.13 MMac, 0.002% MACs, 
            (conv): Conv2d(2.3 k, 0.008% Params, 921.6 KMac, 0.001% MACs, 256, 256, kernel_size=(3, 3), stride=(1, 1), padding=(1, 1), groups=256, bias=False)
            (bn): BatchNorm2d(512, 0.002% Params, 204.8 KMac, 0.000% MACs, 256, eps=0.001, momentum=0.03, affine=True, track_running_stats=True)
            (act): Identity(0, 0.000% Params, 0.0 Mac, 0.000% MACs, )
          )
        )
        (ffn): Sequential(
          263.68 k, 0.912% Params, 105.47 MMac, 0.158% MACs, 
          (0): Conv(
            132.1 k, 0.457% Params, 52.84 MMac, 0.079% MACs, 
            (conv): Conv2d(131.07 k, 0.453% Params, 52.43 MMac, 0.079% MACs, 256, 512, kernel_size=(1, 1), stride=(1, 1), bias=False)
            (bn): BatchNorm2d(1.02 k, 0.004% Params, 409.6 KMac, 0.001% MACs, 512, eps=0.001, momentum=0.03, affine=True, track_running_stats=True)
            (act): SiLU(0, 0.000% Params, 0.0 Mac, 0.000% MACs, inplace=True)
          )
          (1): Conv(
            131.58 k, 0.455% Params, 52.63 MMac, 0.079% MACs, 
            (conv): Conv2d(131.07 k, 0.453% Params, 52.43 MMac, 0.079% MACs, 512, 256, kernel_size=(1, 1), stride=(1, 1), bias=False)
            (bn): BatchNorm2d(512, 0.002% Params, 204.8 KMac, 0.000% MACs, 256, eps=0.001, momentum=0.03, affine=True, track_running_stats=True)
            (act): Identity(0, 0.000% Params, 0.0 Mac, 0.000% MACs, )
          )
        )
      )
      (11): SpatialAlignTransnormer(
        2.37 M, 8.191% Params, 948.63 MMac, 1.425% MACs, 
        (upsample): Upsample(0, 0.000% Params, 819.2 KMac, 0.001% MACs, scale_factor=2.0, mode='bilinear')
        (high_to_low_embed): Sequential(
          263.68 k, 0.912% Params, 105.47 MMac, 0.158% MACs, 
          (0): Conv2d(262.66 k, 0.908% Params, 105.06 MMac, 0.158% MACs, 512, 512, kernel_size=(1, 1), stride=(1, 1))
          (1): BatchNorm2d(1.02 k, 0.004% Params, 409.6 KMac, 0.001% MACs, 512, eps=0.001, momentum=0.03, affine=True, track_running_stats=True)
        )
        (q_proj): Sequential(
          263.68 k, 0.912% Params, 105.27 MMac, 0.158% MACs, 
          (0): Linear(262.66 k, 0.908% Params, 105.06 MMac, 0.158% MACs, in_features=512, out_features=512, bias=True)
          (1): LayerNorm(1.02 k, 0.004% Params, 204.8 KMac, 0.000% MACs, (512,), eps=1e-05, elementwise_affine=True)
        )
        (k_proj): Sequential(
          263.68 k, 0.912% Params, 105.27 MMac, 0.158% MACs, 
          (0): Linear(262.66 k, 0.908% Params, 105.06 MMac, 0.158% MACs, in_features=512, out_features=512, bias=True)
          (1): LayerNorm(1.02 k, 0.004% Params, 204.8 KMac, 0.000% MACs, (512,), eps=1e-05, elementwise_affine=True)
        )
        (v_proj): Linear(262.66 k, 0.908% Params, 105.06 MMac, 0.158% MACs, in_features=512, out_features=512, bias=True)
        (out_proj): Linear(262.66 k, 0.908% Params, 105.06 MMac, 0.158% MACs, in_features=512, out_features=512, bias=True)
        (attn_norm): RMSNorm(0, 0.000% Params, 0.0 Mac, 0.000% MACs, (16,), eps=None, elementwise_affine=True)
        (linear1): Linear(525.31 k, 1.817% Params, 210.12 MMac, 0.316% MACs, in_features=512, out_features=1024, bias=True)
        (dropout): Dropout(0, 0.000% Params, 0.0 Mac, 0.000% MACs, p=0.0, inplace=False)
        (linear2): Linear(524.8 k, 1.815% Params, 209.92 MMac, 0.315% MACs, in_features=1024, out_features=512, bias=True)
        (activation): GELU(0, 0.000% Params, 409.6 KMac, 0.001% MACs, approximate='none')
        (norm1): LayerNorm(1.02 k, 0.004% Params, 204.8 KMac, 0.000% MACs, (512,), eps=1e-05, elementwise_affine=True)
        (norm2): LayerNorm(1.02 k, 0.004% Params, 204.8 KMac, 0.000% MACs, (512,), eps=1e-05, elementwise_affine=True)
        (dropout1): Dropout(0, 0.000% Params, 0.0 Mac, 0.000% MACs, p=0.0, inplace=False)
        (dropout2): Dropout(0, 0.000% Params, 0.0 Mac, 0.000% MACs, p=0.0, inplace=False)
        (avg_pool_high): Identity(0, 0.000% Params, 0.0 Mac, 0.000% MACs, )
        (avg_pool_low): AvgPool2d(0, 0.000% Params, 819.2 KMac, 0.001% MACs, kernel_size=2, stride=2, padding=0)
      )
      (12): C2fCIB(
        2.01 M, 6.939% Params, 3.21 GMac, 4.821% MACs, 
        (cv1): Conv(
          525.31 k, 1.817% Params, 840.5 MMac, 1.262% MACs, 
          (conv): Conv2d(524.29 k, 1.813% Params, 838.86 MMac, 1.260% MACs, 1024, 512, kernel_size=(1, 1), stride=(1, 1), bias=False)
          (bn): BatchNorm2d(1.02 k, 0.004% Params, 1.64 MMac, 0.002% MACs, 512, eps=0.001, momentum=0.03, affine=True, track_running_stats=True)
          (act): SiLU(0, 0.000% Params, 0.0 Mac, 0.000% MACs, inplace=True)
        )
        (cv2): Conv(
          656.38 k, 2.270% Params, 1.05 GMac, 1.577% MACs, 
          (conv): Conv2d(655.36 k, 2.266% Params, 1.05 GMac, 1.575% MACs, 1280, 512, kernel_size=(1, 1), stride=(1, 1), bias=False)
          (bn): BatchNorm2d(1.02 k, 0.004% Params, 1.64 MMac, 0.002% MACs, 512, eps=0.001, momentum=0.03, affine=True, track_running_stats=True)
          (act): SiLU(0, 0.000% Params, 0.0 Mac, 0.000% MACs, inplace=True)
        )
        (m): ModuleList(
          (0-2): 3 x CIB(
            274.94 k, 0.951% Params, 439.91 MMac, 0.661% MACs, 
            (cv1): Sequential(
              274.94 k, 0.951% Params, 439.91 MMac, 0.661% MACs, 
              (0): Conv(
                2.82 k, 0.010% Params, 4.51 MMac, 0.007% MACs, 
                (conv): Conv2d(2.3 k, 0.008% Params, 3.69 MMac, 0.006% MACs, 256, 256, kernel_size=(3, 3), stride=(1, 1), padding=(1, 1), groups=256, bias=False)
                (bn): BatchNorm2d(512, 0.002% Params, 819.2 KMac, 0.001% MACs, 256, eps=0.001, momentum=0.03, affine=True, track_running_stats=True)
                (act): SiLU(0, 0.000% Params, 0.0 Mac, 0.000% MACs, inplace=True)
              )
              (1): Conv(
                132.1 k, 0.457% Params, 211.35 MMac, 0.317% MACs, 
                (conv): Conv2d(131.07 k, 0.453% Params, 209.72 MMac, 0.315% MACs, 256, 512, kernel_size=(1, 1), stride=(1, 1), bias=False)
                (bn): BatchNorm2d(1.02 k, 0.004% Params, 1.64 MMac, 0.002% MACs, 512, eps=0.001, momentum=0.03, affine=True, track_running_stats=True)
                (act): SiLU(0, 0.000% Params, 0.0 Mac, 0.000% MACs, inplace=True)
              )
              (2): Conv(
                5.63 k, 0.019% Params, 9.01 MMac, 0.014% MACs, 
                (conv): Conv2d(4.61 k, 0.016% Params, 7.37 MMac, 0.011% MACs, 512, 512, kernel_size=(3, 3), stride=(1, 1), padding=(1, 1), groups=512, bias=False)
                (bn): BatchNorm2d(1.02 k, 0.004% Params, 1.64 MMac, 0.002% MACs, 512, eps=0.001, momentum=0.03, affine=True, track_running_stats=True)
                (act): SiLU(0, 0.000% Params, 0.0 Mac, 0.000% MACs, inplace=True)
              )
              (3): Conv(
                131.58 k, 0.455% Params, 210.53 MMac, 0.316% MACs, 
                (conv): Conv2d(131.07 k, 0.453% Params, 209.72 MMac, 0.315% MACs, 512, 256, kernel_size=(1, 1), stride=(1, 1), bias=False)
                (bn): BatchNorm2d(512, 0.002% Params, 819.2 KMac, 0.001% MACs, 256, eps=0.001, momentum=0.03, affine=True, track_running_stats=True)
                (act): SiLU(0, 0.000% Params, 0.0 Mac, 0.000% MACs, inplace=True)
              )
              (4): Conv(
                2.82 k, 0.010% Params, 4.51 MMac, 0.007% MACs, 
                (conv): Conv2d(2.3 k, 0.008% Params, 3.69 MMac, 0.006% MACs, 256, 256, kernel_size=(3, 3), stride=(1, 1), padding=(1, 1), groups=256, bias=False)
                (bn): BatchNorm2d(512, 0.002% Params, 819.2 KMac, 0.001% MACs, 256, eps=0.001, momentum=0.03, affine=True, track_running_stats=True)
                (act): SiLU(0, 0.000% Params, 0.0 Mac, 0.000% MACs, inplace=True)
              )
            )
          )
        )
      )
      (13): SpatialAlignTransnormer(
        659.97 k, 2.282% Params, 427.32 MMac, 0.642% MACs, 
        (upsample): Upsample(0, 0.000% Params, 3.28 MMac, 0.005% MACs, scale_factor=2.0, mode='bilinear')
        (high_to_low_embed): Sequential(
          131.84 k, 0.456% Params, 210.94 MMac, 0.317% MACs, 
          (0): Conv2d(131.33 k, 0.454% Params, 210.12 MMac, 0.316% MACs, 512, 256, kernel_size=(1, 1), stride=(1, 1))
          (1): BatchNorm2d(512, 0.002% Params, 819.2 KMac, 0.001% MACs, 256, eps=0.001, momentum=0.03, affine=True, track_running_stats=True)
        )
        (q_proj): Sequential(
          66.3 k, 0.229% Params, 26.42 MMac, 0.040% MACs, 
          (0): Linear(65.79 k, 0.228% Params, 26.32 MMac, 0.040% MACs, in_features=256, out_features=256, bias=True)
          (1): LayerNorm(512, 0.002% Params, 102.4 KMac, 0.000% MACs, (256,), eps=1e-05, elementwise_affine=True)
        )
        (k_proj): Sequential(
          66.3 k, 0.229% Params, 26.42 MMac, 0.040% MACs, 
          (0): Linear(65.79 k, 0.228% Params, 26.32 MMac, 0.040% MACs, in_features=256, out_features=256, bias=True)
          (1): LayerNorm(512, 0.002% Params, 102.4 KMac, 0.000% MACs, (256,), eps=1e-05, elementwise_affine=True)
        )
        (v_proj): Linear(65.79 k, 0.228% Params, 26.32 MMac, 0.040% MACs, in_features=256, out_features=256, bias=True)
        (out_proj): Linear(65.79 k, 0.228% Params, 26.32 MMac, 0.040% MACs, in_features=256, out_features=256, bias=True)
        (attn_norm): RMSNorm(0, 0.000% Params, 0.0 Mac, 0.000% MACs, (16,), eps=None, elementwise_affine=True)
        (linear1): Linear(131.58 k, 0.455% Params, 52.63 MMac, 0.079% MACs, in_features=256, out_features=512, bias=True)
        (dropout): Dropout(0, 0.000% Params, 0.0 Mac, 0.000% MACs, p=0.0, inplace=False)
        (linear2): Linear(131.33 k, 0.454% Params, 52.53 MMac, 0.079% MACs, in_features=512, out_features=256, bias=True)
        (activation): GELU(0, 0.000% Params, 204.8 KMac, 0.000% MACs, approximate='none')
        (norm1): LayerNorm(512, 0.002% Params, 102.4 KMac, 0.000% MACs, (256,), eps=1e-05, elementwise_affine=True)
        (norm2): LayerNorm(512, 0.002% Params, 102.4 KMac, 0.000% MACs, (256,), eps=1e-05, elementwise_affine=True)
        (dropout1): Dropout(0, 0.000% Params, 0.0 Mac, 0.000% MACs, p=0.0, inplace=False)
        (dropout2): Dropout(0, 0.000% Params, 0.0 Mac, 0.000% MACs, p=0.0, inplace=False)
        (avg_pool_high): AvgPool2d(0, 0.000% Params, 409.6 KMac, 0.001% MACs, kernel_size=2, stride=2, padding=0)
        (avg_pool_low): AvgPool2d(0, 0.000% Params, 1.64 MMac, 0.002% MACs, kernel_size=4, stride=4, padding=0)
      )
      (14): C2f(
        1.25 M, 4.315% Params, 7.99 GMac, 11.993% MACs, 
        (cv1): Conv(
          197.12 k, 0.682% Params, 1.26 GMac, 1.895% MACs, 
          (conv): Conv2d(196.61 k, 0.680% Params, 1.26 GMac, 1.890% MACs, 768, 256, kernel_size=(1, 1), stride=(1, 1), bias=False)
          (bn): BatchNorm2d(512, 0.002% Params, 3.28 MMac, 0.005% MACs, 256, eps=0.001, momentum=0.03, affine=True, track_running_stats=True)
          (act): SiLU(0, 0.000% Params, 0.0 Mac, 0.000% MACs, inplace=True)
        )
        (cv2): Conv(
          164.35 k, 0.568% Params, 1.05 GMac, 1.580% MACs, 
          (conv): Conv2d(163.84 k, 0.567% Params, 1.05 GMac, 1.575% MACs, 640, 256, kernel_size=(1, 1), stride=(1, 1), bias=False)
          (bn): BatchNorm2d(512, 0.002% Params, 3.28 MMac, 0.005% MACs, 256, eps=0.001, momentum=0.03, affine=True, track_running_stats=True)
          (act): SiLU(0, 0.000% Params, 0.0 Mac, 0.000% MACs, inplace=True)
        )
        (m): ModuleList(
          (0-2): 3 x Bottleneck(
            295.42 k, 1.022% Params, 1.89 GMac, 2.839% MACs, 
            (cv1): Conv(
              147.71 k, 0.511% Params, 945.36 MMac, 1.420% MACs, 
              (conv): Conv2d(147.46 k, 0.510% Params, 943.72 MMac, 1.417% MACs, 128, 128, kernel_size=(3, 3), stride=(1, 1), padding=(1, 1), bias=False)
              (bn): BatchNorm2d(256, 0.001% Params, 1.64 MMac, 0.002% MACs, 128, eps=0.001, momentum=0.03, affine=True, track_running_stats=True)
              (act): SiLU(0, 0.000% Params, 0.0 Mac, 0.000% MACs, inplace=True)
            )
            (cv2): Conv(
              147.71 k, 0.511% Params, 945.36 MMac, 1.420% MACs, 
              (conv): Conv2d(147.46 k, 0.510% Params, 943.72 MMac, 1.417% MACs, 128, 128, kernel_size=(3, 3), stride=(1, 1), padding=(1, 1), bias=False)
              (bn): BatchNorm2d(256, 0.001% Params, 1.64 MMac, 0.002% MACs, 128, eps=0.001, momentum=0.03, affine=True, track_running_stats=True)
              (act): SiLU(0, 0.000% Params, 0.0 Mac, 0.000% MACs, inplace=True)
            )
          )
        )
      )
      (15): Conv(
        590.34 k, 2.041% Params, 944.54 MMac, 1.418% MACs, 
        (conv): Conv2d(589.82 k, 2.040% Params, 943.72 MMac, 1.417% MACs, 256, 256, kernel_size=(3, 3), stride=(2, 2), padding=(1, 1), bias=False)
        (bn): BatchNorm2d(512, 0.002% Params, 819.2 KMac, 0.001% MACs, 256, eps=0.001, momentum=0.03, affine=True, track_running_stats=True)
        (act): SiLU(0, 0.000% Params, 0.0 Mac, 0.000% MACs, inplace=True)
      )
      (16): Concat(0, 0.000% Params, 0.0 Mac, 0.000% MACs, )
      (17): C2fCIB(
        1.88 M, 6.486% Params, 3.0 GMac, 4.506% MACs, 
        (cv1): Conv(
          394.24 k, 1.363% Params, 630.78 MMac, 0.947% MACs, 
          (conv): Conv2d(393.22 k, 1.360% Params, 629.15 MMac, 0.945% MACs, 768, 512, kernel_size=(1, 1), stride=(1, 1), bias=False)
          (bn): BatchNorm2d(1.02 k, 0.004% Params, 1.64 MMac, 0.002% MACs, 512, eps=0.001, momentum=0.03, affine=True, track_running_stats=True)
          (act): SiLU(0, 0.000% Params, 0.0 Mac, 0.000% MACs, inplace=True)
        )
        (cv2): Conv(
          656.38 k, 2.270% Params, 1.05 GMac, 1.577% MACs, 
          (conv): Conv2d(655.36 k, 2.266% Params, 1.05 GMac, 1.575% MACs, 1280, 512, kernel_size=(1, 1), stride=(1, 1), bias=False)
          (bn): BatchNorm2d(1.02 k, 0.004% Params, 1.64 MMac, 0.002% MACs, 512, eps=0.001, momentum=0.03, affine=True, track_running_stats=True)
          (act): SiLU(0, 0.000% Params, 0.0 Mac, 0.000% MACs, inplace=True)
        )
        (m): ModuleList(
          (0-2): 3 x CIB(
            274.94 k, 0.951% Params, 439.91 MMac, 0.661% MACs, 
            (cv1): Sequential(
              274.94 k, 0.951% Params, 439.91 MMac, 0.661% MACs, 
              (0): Conv(
                2.82 k, 0.010% Params, 4.51 MMac, 0.007% MACs, 
                (conv): Conv2d(2.3 k, 0.008% Params, 3.69 MMac, 0.006% MACs, 256, 256, kernel_size=(3, 3), stride=(1, 1), padding=(1, 1), groups=256, bias=False)
                (bn): BatchNorm2d(512, 0.002% Params, 819.2 KMac, 0.001% MACs, 256, eps=0.001, momentum=0.03, affine=True, track_running_stats=True)
                (act): SiLU(0, 0.000% Params, 0.0 Mac, 0.000% MACs, inplace=True)
              )
              (1): Conv(
                132.1 k, 0.457% Params, 211.35 MMac, 0.317% MACs, 
                (conv): Conv2d(131.07 k, 0.453% Params, 209.72 MMac, 0.315% MACs, 256, 512, kernel_size=(1, 1), stride=(1, 1), bias=False)
                (bn): BatchNorm2d(1.02 k, 0.004% Params, 1.64 MMac, 0.002% MACs, 512, eps=0.001, momentum=0.03, affine=True, track_running_stats=True)
                (act): SiLU(0, 0.000% Params, 0.0 Mac, 0.000% MACs, inplace=True)
              )
              (2): Conv(
                5.63 k, 0.019% Params, 9.01 MMac, 0.014% MACs, 
                (conv): Conv2d(4.61 k, 0.016% Params, 7.37 MMac, 0.011% MACs, 512, 512, kernel_size=(3, 3), stride=(1, 1), padding=(1, 1), groups=512, bias=False)
                (bn): BatchNorm2d(1.02 k, 0.004% Params, 1.64 MMac, 0.002% MACs, 512, eps=0.001, momentum=0.03, affine=True, track_running_stats=True)
                (act): SiLU(0, 0.000% Params, 0.0 Mac, 0.000% MACs, inplace=True)
              )
              (3): Conv(
                131.58 k, 0.455% Params, 210.53 MMac, 0.316% MACs, 
                (conv): Conv2d(131.07 k, 0.453% Params, 209.72 MMac, 0.315% MACs, 512, 256, kernel_size=(1, 1), stride=(1, 1), bias=False)
                (bn): BatchNorm2d(512, 0.002% Params, 819.2 KMac, 0.001% MACs, 256, eps=0.001, momentum=0.03, affine=True, track_running_stats=True)
                (act): SiLU(0, 0.000% Params, 0.0 Mac, 0.000% MACs, inplace=True)
              )
              (4): Conv(
                2.82 k, 0.010% Params, 4.51 MMac, 0.007% MACs, 
                (conv): Conv2d(2.3 k, 0.008% Params, 3.69 MMac, 0.006% MACs, 256, 256, kernel_size=(3, 3), stride=(1, 1), padding=(1, 1), groups=256, bias=False)
                (bn): BatchNorm2d(512, 0.002% Params, 819.2 KMac, 0.001% MACs, 256, eps=0.001, momentum=0.03, affine=True, track_running_stats=True)
                (act): SiLU(0, 0.000% Params, 0.0 Mac, 0.000% MACs, inplace=True)
              )
            )
          )
        )
      )
      (18): SCDown(
        268.8 k, 0.930% Params, 423.32 MMac, 0.636% MACs, 
        (cv1): Conv(
          263.17 k, 0.910% Params, 421.07 MMac, 0.632% MACs, 
          (conv): Conv2d(262.14 k, 0.907% Params, 419.43 MMac, 0.630% MACs, 512, 512, kernel_size=(1, 1), stride=(1, 1), bias=False)
          (bn): BatchNorm2d(1.02 k, 0.004% Params, 1.64 MMac, 0.002% MACs, 512, eps=0.001, momentum=0.03, affine=True, track_running_stats=True)
          (act): SiLU(0, 0.000% Params, 0.0 Mac, 0.000% MACs, inplace=True)
        )
        (cv2): Conv(
          5.63 k, 0.019% Params, 2.25 MMac, 0.003% MACs, 
          (conv): Conv2d(4.61 k, 0.016% Params, 1.84 MMac, 0.003% MACs, 512, 512, kernel_size=(3, 3), stride=(2, 2), padding=(1, 1), groups=512, bias=False)
          (bn): BatchNorm2d(1.02 k, 0.004% Params, 409.6 KMac, 0.001% MACs, 512, eps=0.001, momentum=0.03, affine=True, track_running_stats=True)
          (act): Identity(0, 0.000% Params, 0.0 Mac, 0.000% MACs, )
        )
      )
      (19): Concat(0, 0.000% Params, 0.0 Mac, 0.000% MACs, )
      (20): C2fCIB(
        2.01 M, 6.939% Params, 802.61 MMac, 1.205% MACs, 
        (cv1): Conv(
          525.31 k, 1.817% Params, 210.12 MMac, 0.316% MACs, 
          (conv): Conv2d(524.29 k, 1.813% Params, 209.72 MMac, 0.315% MACs, 1024, 512, kernel_size=(1, 1), stride=(1, 1), bias=False)
          (bn): BatchNorm2d(1.02 k, 0.004% Params, 409.6 KMac, 0.001% MACs, 512, eps=0.001, momentum=0.03, affine=True, track_running_stats=True)
          (act): SiLU(0, 0.000% Params, 0.0 Mac, 0.000% MACs, inplace=True)
        )
        (cv2): Conv(
          656.38 k, 2.270% Params, 262.55 MMac, 0.394% MACs, 
          (conv): Conv2d(655.36 k, 2.266% Params, 262.14 MMac, 0.394% MACs, 1280, 512, kernel_size=(1, 1), stride=(1, 1), bias=False)
          (bn): BatchNorm2d(1.02 k, 0.004% Params, 409.6 KMac, 0.001% MACs, 512, eps=0.001, momentum=0.03, affine=True, track_running_stats=True)
          (act): SiLU(0, 0.000% Params, 0.0 Mac, 0.000% MACs, inplace=True)
        )
        (m): ModuleList(
          (0-2): 3 x CIB(
            274.94 k, 0.951% Params, 109.98 MMac, 0.165% MACs, 
            (cv1): Sequential(
              274.94 k, 0.951% Params, 109.98 MMac, 0.165% MACs, 
              (0): Conv(
                2.82 k, 0.010% Params, 1.13 MMac, 0.002% MACs, 
                (conv): Conv2d(2.3 k, 0.008% Params, 921.6 KMac, 0.001% MACs, 256, 256, kernel_size=(3, 3), stride=(1, 1), padding=(1, 1), groups=256, bias=False)
                (bn): BatchNorm2d(512, 0.002% Params, 204.8 KMac, 0.000% MACs, 256, eps=0.001, momentum=0.03, affine=True, track_running_stats=True)
                (act): SiLU(0, 0.000% Params, 0.0 Mac, 0.000% MACs, inplace=True)
              )
              (1): Conv(
                132.1 k, 0.457% Params, 52.84 MMac, 0.079% MACs, 
                (conv): Conv2d(131.07 k, 0.453% Params, 52.43 MMac, 0.079% MACs, 256, 512, kernel_size=(1, 1), stride=(1, 1), bias=False)
                (bn): BatchNorm2d(1.02 k, 0.004% Params, 409.6 KMac, 0.001% MACs, 512, eps=0.001, momentum=0.03, affine=True, track_running_stats=True)
                (act): SiLU(0, 0.000% Params, 0.0 Mac, 0.000% MACs, inplace=True)
              )
              (2): Conv(
                5.63 k, 0.019% Params, 2.25 MMac, 0.003% MACs, 
                (conv): Conv2d(4.61 k, 0.016% Params, 1.84 MMac, 0.003% MACs, 512, 512, kernel_size=(3, 3), stride=(1, 1), padding=(1, 1), groups=512, bias=False)
                (bn): BatchNorm2d(1.02 k, 0.004% Params, 409.6 KMac, 0.001% MACs, 512, eps=0.001, momentum=0.03, affine=True, track_running_stats=True)
                (act): SiLU(0, 0.000% Params, 0.0 Mac, 0.000% MACs, inplace=True)
              )
              (3): Conv(
                131.58 k, 0.455% Params, 52.63 MMac, 0.079% MACs, 
                (conv): Conv2d(131.07 k, 0.453% Params, 52.43 MMac, 0.079% MACs, 512, 256, kernel_size=(1, 1), stride=(1, 1), bias=False)
                (bn): BatchNorm2d(512, 0.002% Params, 204.8 KMac, 0.000% MACs, 256, eps=0.001, momentum=0.03, affine=True, track_running_stats=True)
                (act): SiLU(0, 0.000% Params, 0.0 Mac, 0.000% MACs, inplace=True)
              )
              (4): Conv(
                2.82 k, 0.010% Params, 1.13 MMac, 0.002% MACs, 
                (conv): Conv2d(2.3 k, 0.008% Params, 921.6 KMac, 0.001% MACs, 256, 256, kernel_size=(3, 3), stride=(1, 1), padding=(1, 1), groups=256, bias=False)
                (bn): BatchNorm2d(512, 0.002% Params, 204.8 KMac, 0.000% MACs, 256, eps=0.001, momentum=0.03, affine=True, track_running_stats=True)
                (act): SiLU(0, 0.000% Params, 0.0 Mac, 0.000% MACs, inplace=True)
              )
            )
          )
        )
      )
      (21): v10Detect(
        2.95 M, 10.186% Params, 6.69 GMac, 10.053% MACs, 
        (cv2): ModuleList(
          (0): Sequential(
            188.74 k, 0.653% Params, 1.21 GMac, 1.814% MACs, 
            (0): Conv(
              147.58 k, 0.510% Params, 944.54 MMac, 1.418% MACs, 
              (conv): Conv2d(147.46 k, 0.510% Params, 943.72 MMac, 1.417% MACs, 256, 64, kernel_size=(3, 3), stride=(1, 1), padding=(1, 1), bias=False)
              (bn): BatchNorm2d(128, 0.000% Params, 819.2 KMac, 0.001% MACs, 64, eps=0.001, momentum=0.03, affine=True, track_running_stats=True)
              (act): SiLU(0, 0.000% Params, 0.0 Mac, 0.000% MACs, inplace=True)
            )
            (1): Conv(
              36.99 k, 0.128% Params, 236.75 MMac, 0.356% MACs, 
              (conv): Conv2d(36.86 k, 0.127% Params, 235.93 MMac, 0.354% MACs, 64, 64, kernel_size=(3, 3), stride=(1, 1), padding=(1, 1), bias=False)
              (bn): BatchNorm2d(128, 0.000% Params, 819.2 KMac, 0.001% MACs, 64, eps=0.001, momentum=0.03, affine=True, track_running_stats=True)
              (act): SiLU(0, 0.000% Params, 0.0 Mac, 0.000% MACs, inplace=True)
            )
            (2): Conv2d(4.16 k, 0.014% Params, 26.62 MMac, 0.040% MACs, 64, 64, kernel_size=(1, 1), stride=(1, 1))
          )
          (1): Sequential(
            336.19 k, 1.163% Params, 537.91 MMac, 0.808% MACs, 
            (0): Conv(
              295.04 k, 1.020% Params, 472.06 MMac, 0.709% MACs, 
              (conv): Conv2d(294.91 k, 1.020% Params, 471.86 MMac, 0.709% MACs, 512, 64, kernel_size=(3, 3), stride=(1, 1), padding=(1, 1), bias=False)
              (bn): BatchNorm2d(128, 0.000% Params, 204.8 KMac, 0.000% MACs, 64, eps=0.001, momentum=0.03, affine=True, track_running_stats=True)
              (act): SiLU(0, 0.000% Params, 0.0 Mac, 0.000% MACs, inplace=True)
            )
            (1): Conv(
              36.99 k, 0.128% Params, 59.19 MMac, 0.089% MACs, 
              (conv): Conv2d(36.86 k, 0.127% Params, 58.98 MMac, 0.089% MACs, 64, 64, kernel_size=(3, 3), stride=(1, 1), padding=(1, 1), bias=False)
              (bn): BatchNorm2d(128, 0.000% Params, 204.8 KMac, 0.000% MACs, 64, eps=0.001, momentum=0.03, affine=True, track_running_stats=True)
              (act): SiLU(0, 0.000% Params, 0.0 Mac, 0.000% MACs, inplace=True)
            )
            (2): Conv2d(4.16 k, 0.014% Params, 6.66 MMac, 0.010% MACs, 64, 64, kernel_size=(1, 1), stride=(1, 1))
          )
          (2): Sequential(
            336.19 k, 1.163% Params, 134.48 MMac, 0.202% MACs, 
            (0): Conv(
              295.04 k, 1.020% Params, 118.02 MMac, 0.177% MACs, 
              (conv): Conv2d(294.91 k, 1.020% Params, 117.96 MMac, 0.177% MACs, 512, 64, kernel_size=(3, 3), stride=(1, 1), padding=(1, 1), bias=False)
              (bn): BatchNorm2d(128, 0.000% Params, 51.2 KMac, 0.000% MACs, 64, eps=0.001, momentum=0.03, affine=True, track_running_stats=True)
              (act): SiLU(0, 0.000% Params, 0.0 Mac, 0.000% MACs, inplace=True)
            )
            (1): Conv(
              36.99 k, 0.128% Params, 14.8 MMac, 0.022% MACs, 
              (conv): Conv2d(36.86 k, 0.127% Params, 14.75 MMac, 0.022% MACs, 64, 64, kernel_size=(3, 3), stride=(1, 1), padding=(1, 1), bias=False)
              (bn): BatchNorm2d(128, 0.000% Params, 51.2 KMac, 0.000% MACs, 64, eps=0.001, momentum=0.03, affine=True, track_running_stats=True)
              (act): SiLU(0, 0.000% Params, 0.0 Mac, 0.000% MACs, inplace=True)
            )
            (2): Conv2d(4.16 k, 0.014% Params, 1.66 MMac, 0.002% MACs, 64, 64, kernel_size=(1, 1), stride=(1, 1))
          )
        )
        (cv3): ModuleList(
          (0): Sequential(
            158.29 k, 0.547% Params, 1.01 GMac, 1.521% MACs, 
            (0): Sequential(
              68.86 k, 0.238% Params, 440.73 MMac, 0.662% MACs, 
              (0): Conv(
                2.82 k, 0.010% Params, 18.02 MMac, 0.027% MACs, 
                (conv): Conv2d(2.3 k, 0.008% Params, 14.75 MMac, 0.022% MACs, 256, 256, kernel_size=(3, 3), stride=(1, 1), padding=(1, 1), groups=256, bias=False)
                (bn): BatchNorm2d(512, 0.002% Params, 3.28 MMac, 0.005% MACs, 256, eps=0.001, momentum=0.03, affine=True, track_running_stats=True)
                (act): SiLU(0, 0.000% Params, 0.0 Mac, 0.000% MACs, inplace=True)
              )
              (1): Conv(
                66.05 k, 0.228% Params, 422.71 MMac, 0.635% MACs, 
                (conv): Conv2d(65.54 k, 0.227% Params, 419.43 MMac, 0.630% MACs, 256, 256, kernel_size=(1, 1), stride=(1, 1), bias=False)
                (bn): BatchNorm2d(512, 0.002% Params, 3.28 MMac, 0.005% MACs, 256, eps=0.001, momentum=0.03, affine=True, track_running_stats=True)
                (act): SiLU(0, 0.000% Params, 0.0 Mac, 0.000% MACs, inplace=True)
              )
            )
            (1): Sequential(
              68.86 k, 0.238% Params, 440.73 MMac, 0.662% MACs, 
              (0): Conv(
                2.82 k, 0.010% Params, 18.02 MMac, 0.027% MACs, 
                (conv): Conv2d(2.3 k, 0.008% Params, 14.75 MMac, 0.022% MACs, 256, 256, kernel_size=(3, 3), stride=(1, 1), padding=(1, 1), groups=256, bias=False)
                (bn): BatchNorm2d(512, 0.002% Params, 3.28 MMac, 0.005% MACs, 256, eps=0.001, momentum=0.03, affine=True, track_running_stats=True)
                (act): SiLU(0, 0.000% Params, 0.0 Mac, 0.000% MACs, inplace=True)
              )
              (1): Conv(
                66.05 k, 0.228% Params, 422.71 MMac, 0.635% MACs, 
                (conv): Conv2d(65.54 k, 0.227% Params, 419.43 MMac, 0.630% MACs, 256, 256, kernel_size=(1, 1), stride=(1, 1), bias=False)
                (bn): BatchNorm2d(512, 0.002% Params, 3.28 MMac, 0.005% MACs, 256, eps=0.001, momentum=0.03, affine=True, track_running_stats=True)
                (act): SiLU(0, 0.000% Params, 0.0 Mac, 0.000% MACs, inplace=True)
              )
            )
            (2): Conv2d(20.56 k, 0.071% Params, 131.58 MMac, 0.198% MACs, 256, 80, kernel_size=(1, 1), stride=(1, 1))
          )
          (1): Sequential(
            226.64 k, 0.784% Params, 362.62 MMac, 0.545% MACs, 
            (0): Sequential(
              137.22 k, 0.475% Params, 219.55 MMac, 0.330% MACs, 
              (0): Conv(
                5.63 k, 0.019% Params, 9.01 MMac, 0.014% MACs, 
                (conv): Conv2d(4.61 k, 0.016% Params, 7.37 MMac, 0.011% MACs, 512, 512, kernel_size=(3, 3), stride=(1, 1), padding=(1, 1), groups=512, bias=False)
                (bn): BatchNorm2d(1.02 k, 0.004% Params, 1.64 MMac, 0.002% MACs, 512, eps=0.001, momentum=0.03, affine=True, track_running_stats=True)
                (act): SiLU(0, 0.000% Params, 0.0 Mac, 0.000% MACs, inplace=True)
              )
              (1): Conv(
                131.58 k, 0.455% Params, 210.53 MMac, 0.316% MACs, 
                (conv): Conv2d(131.07 k, 0.453% Params, 209.72 MMac, 0.315% MACs, 512, 256, kernel_size=(1, 1), stride=(1, 1), bias=False)
                (bn): BatchNorm2d(512, 0.002% Params, 819.2 KMac, 0.001% MACs, 256, eps=0.001, momentum=0.03, affine=True, track_running_stats=True)
                (act): SiLU(0, 0.000% Params, 0.0 Mac, 0.000% MACs, inplace=True)
              )
            )
            (1): Sequential(
              68.86 k, 0.238% Params, 110.18 MMac, 0.165% MACs, 
              (0): Conv(
                2.82 k, 0.010% Params, 4.51 MMac, 0.007% MACs, 
                (conv): Conv2d(2.3 k, 0.008% Params, 3.69 MMac, 0.006% MACs, 256, 256, kernel_size=(3, 3), stride=(1, 1), padding=(1, 1), groups=256, bias=False)
                (bn): BatchNorm2d(512, 0.002% Params, 819.2 KMac, 0.001% MACs, 256, eps=0.001, momentum=0.03, affine=True, track_running_stats=True)
                (act): SiLU(0, 0.000% Params, 0.0 Mac, 0.000% MACs, inplace=True)
              )
              (1): Conv(
                66.05 k, 0.228% Params, 105.68 MMac, 0.159% MACs, 
                (conv): Conv2d(65.54 k, 0.227% Params, 104.86 MMac, 0.157% MACs, 256, 256, kernel_size=(1, 1), stride=(1, 1), bias=False)
                (bn): BatchNorm2d(512, 0.002% Params, 819.2 KMac, 0.001% MACs, 256, eps=0.001, momentum=0.03, affine=True, track_running_stats=True)
                (act): SiLU(0, 0.000% Params, 0.0 Mac, 0.000% MACs, inplace=True)
              )
            )
            (2): Conv2d(20.56 k, 0.071% Params, 32.9 MMac, 0.049% MACs, 256, 80, kernel_size=(1, 1), stride=(1, 1))
          )
          (2): Sequential(
            226.64 k, 0.784% Params, 90.66 MMac, 0.136% MACs, 
            (0): Sequential(
              137.22 k, 0.475% Params, 54.89 MMac, 0.082% MACs, 
              (0): Conv(
                5.63 k, 0.019% Params, 2.25 MMac, 0.003% MACs, 
                (conv): Conv2d(4.61 k, 0.016% Params, 1.84 MMac, 0.003% MACs, 512, 512, kernel_size=(3, 3), stride=(1, 1), padding=(1, 1), groups=512, bias=False)
                (bn): BatchNorm2d(1.02 k, 0.004% Params, 409.6 KMac, 0.001% MACs, 512, eps=0.001, momentum=0.03, affine=True, track_running_stats=True)
                (act): SiLU(0, 0.000% Params, 0.0 Mac, 0.000% MACs, inplace=True)
              )
              (1): Conv(
                131.58 k, 0.455% Params, 52.63 MMac, 0.079% MACs, 
                (conv): Conv2d(131.07 k, 0.453% Params, 52.43 MMac, 0.079% MACs, 512, 256, kernel_size=(1, 1), stride=(1, 1), bias=False)
                (bn): BatchNorm2d(512, 0.002% Params, 204.8 KMac, 0.000% MACs, 256, eps=0.001, momentum=0.03, affine=True, track_running_stats=True)
                (act): SiLU(0, 0.000% Params, 0.0 Mac, 0.000% MACs, inplace=True)
              )
            )
            (1): Sequential(
              68.86 k, 0.238% Params, 27.55 MMac, 0.041% MACs, 
              (0): Conv(
                2.82 k, 0.010% Params, 1.13 MMac, 0.002% MACs, 
                (conv): Conv2d(2.3 k, 0.008% Params, 921.6 KMac, 0.001% MACs, 256, 256, kernel_size=(3, 3), stride=(1, 1), padding=(1, 1), groups=256, bias=False)
                (bn): BatchNorm2d(512, 0.002% Params, 204.8 KMac, 0.000% MACs, 256, eps=0.001, momentum=0.03, affine=True, track_running_stats=True)
                (act): SiLU(0, 0.000% Params, 0.0 Mac, 0.000% MACs, inplace=True)
              )
              (1): Conv(
                66.05 k, 0.228% Params, 26.42 MMac, 0.040% MACs, 
                (conv): Conv2d(65.54 k, 0.227% Params, 26.21 MMac, 0.039% MACs, 256, 256, kernel_size=(1, 1), stride=(1, 1), bias=False)
                (bn): BatchNorm2d(512, 0.002% Params, 204.8 KMac, 0.000% MACs, 256, eps=0.001, momentum=0.03, affine=True, track_running_stats=True)
                (act): SiLU(0, 0.000% Params, 0.0 Mac, 0.000% MACs, inplace=True)
              )
            )
            (2): Conv2d(20.56 k, 0.071% Params, 8.22 MMac, 0.012% MACs, 256, 80, kernel_size=(1, 1), stride=(1, 1))
          )
        )
        (dfl): DFL(
          0, 0.000% Params, 537.6 KMac, 0.001% MACs, 
          (conv): Conv2d(0, 0.000% Params, 537.6 KMac, 0.001% MACs, 16, 1, kernel_size=(1, 1), stride=(1, 1), bias=False)
        )
        (one2one_cv2): ModuleList(
          (0): Sequential(
            188.74 k, 0.653% Params, 1.21 GMac, 1.814% MACs, 
            (0): Conv(
              147.58 k, 0.510% Params, 944.54 MMac, 1.418% MACs, 
              (conv): Conv2d(147.46 k, 0.510% Params, 943.72 MMac, 1.417% MACs, 256, 64, kernel_size=(3, 3), stride=(1, 1), padding=(1, 1), bias=False)
              (bn): BatchNorm2d(128, 0.000% Params, 819.2 KMac, 0.001% MACs, 64, eps=0.001, momentum=0.03, affine=True, track_running_stats=True)
              (act): SiLU(0, 0.000% Params, 0.0 Mac, 0.000% MACs, inplace=True)
            )
            (1): Conv(
              36.99 k, 0.128% Params, 236.75 MMac, 0.356% MACs, 
              (conv): Conv2d(36.86 k, 0.127% Params, 235.93 MMac, 0.354% MACs, 64, 64, kernel_size=(3, 3), stride=(1, 1), padding=(1, 1), bias=False)
              (bn): BatchNorm2d(128, 0.000% Params, 819.2 KMac, 0.001% MACs, 64, eps=0.001, momentum=0.03, affine=True, track_running_stats=True)
              (act): SiLU(0, 0.000% Params, 0.0 Mac, 0.000% MACs, inplace=True)
            )
            (2): Conv2d(4.16 k, 0.014% Params, 26.62 MMac, 0.040% MACs, 64, 64, kernel_size=(1, 1), stride=(1, 1))
          )
          (1): Sequential(
            336.19 k, 1.163% Params, 537.91 MMac, 0.808% MACs, 
            (0): Conv(
              295.04 k, 1.020% Params, 472.06 MMac, 0.709% MACs, 
              (conv): Conv2d(294.91 k, 1.020% Params, 471.86 MMac, 0.709% MACs, 512, 64, kernel_size=(3, 3), stride=(1, 1), padding=(1, 1), bias=False)
              (bn): BatchNorm2d(128, 0.000% Params, 204.8 KMac, 0.000% MACs, 64, eps=0.001, momentum=0.03, affine=True, track_running_stats=True)
              (act): SiLU(0, 0.000% Params, 0.0 Mac, 0.000% MACs, inplace=True)
            )
            (1): Conv(
              36.99 k, 0.128% Params, 59.19 MMac, 0.089% MACs, 
              (conv): Conv2d(36.86 k, 0.127% Params, 58.98 MMac, 0.089% MACs, 64, 64, kernel_size=(3, 3), stride=(1, 1), padding=(1, 1), bias=False)
              (bn): BatchNorm2d(128, 0.000% Params, 204.8 KMac, 0.000% MACs, 64, eps=0.001, momentum=0.03, affine=True, track_running_stats=True)
              (act): SiLU(0, 0.000% Params, 0.0 Mac, 0.000% MACs, inplace=True)
            )
            (2): Conv2d(4.16 k, 0.014% Params, 6.66 MMac, 0.010% MACs, 64, 64, kernel_size=(1, 1), stride=(1, 1))
          )
          (2): Sequential(
            336.19 k, 1.163% Params, 134.48 MMac, 0.202% MACs, 
            (0): Conv(
              295.04 k, 1.020% Params, 118.02 MMac, 0.177% MACs, 
              (conv): Conv2d(294.91 k, 1.020% Params, 117.96 MMac, 0.177% MACs, 512, 64, kernel_size=(3, 3), stride=(1, 1), padding=(1, 1), bias=False)
              (bn): BatchNorm2d(128, 0.000% Params, 51.2 KMac, 0.000% MACs, 64, eps=0.001, momentum=0.03, affine=True, track_running_stats=True)
              (act): SiLU(0, 0.000% Params, 0.0 Mac, 0.000% MACs, inplace=True)
            )
            (1): Conv(
              36.99 k, 0.128% Params, 14.8 MMac, 0.022% MACs, 
              (conv): Conv2d(36.86 k, 0.127% Params, 14.75 MMac, 0.022% MACs, 64, 64, kernel_size=(3, 3), stride=(1, 1), padding=(1, 1), bias=False)
              (bn): BatchNorm2d(128, 0.000% Params, 51.2 KMac, 0.000% MACs, 64, eps=0.001, momentum=0.03, affine=True, track_running_stats=True)
              (act): SiLU(0, 0.000% Params, 0.0 Mac, 0.000% MACs, inplace=True)
            )
            (2): Conv2d(4.16 k, 0.014% Params, 1.66 MMac, 0.002% MACs, 64, 64, kernel_size=(1, 1), stride=(1, 1))
          )
        )
        (one2one_cv3): ModuleList(
          (0): Sequential(
            158.29 k, 0.547% Params, 1.01 GMac, 1.521% MACs, 
            (0): Sequential(
              68.86 k, 0.238% Params, 440.73 MMac, 0.662% MACs, 
              (0): Conv(
                2.82 k, 0.010% Params, 18.02 MMac, 0.027% MACs, 
                (conv): Conv2d(2.3 k, 0.008% Params, 14.75 MMac, 0.022% MACs, 256, 256, kernel_size=(3, 3), stride=(1, 1), padding=(1, 1), groups=256, bias=False)
                (bn): BatchNorm2d(512, 0.002% Params, 3.28 MMac, 0.005% MACs, 256, eps=0.001, momentum=0.03, affine=True, track_running_stats=True)
                (act): SiLU(0, 0.000% Params, 0.0 Mac, 0.000% MACs, inplace=True)
              )
              (1): Conv(
                66.05 k, 0.228% Params, 422.71 MMac, 0.635% MACs, 
                (conv): Conv2d(65.54 k, 0.227% Params, 419.43 MMac, 0.630% MACs, 256, 256, kernel_size=(1, 1), stride=(1, 1), bias=False)
                (bn): BatchNorm2d(512, 0.002% Params, 3.28 MMac, 0.005% MACs, 256, eps=0.001, momentum=0.03, affine=True, track_running_stats=True)
                (act): SiLU(0, 0.000% Params, 0.0 Mac, 0.000% MACs, inplace=True)
              )
            )
            (1): Sequential(
              68.86 k, 0.238% Params, 440.73 MMac, 0.662% MACs, 
              (0): Conv(
                2.82 k, 0.010% Params, 18.02 MMac, 0.027% MACs, 
                (conv): Conv2d(2.3 k, 0.008% Params, 14.75 MMac, 0.022% MACs, 256, 256, kernel_size=(3, 3), stride=(1, 1), padding=(1, 1), groups=256, bias=False)
                (bn): BatchNorm2d(512, 0.002% Params, 3.28 MMac, 0.005% MACs, 256, eps=0.001, momentum=0.03, affine=True, track_running_stats=True)
                (act): SiLU(0, 0.000% Params, 0.0 Mac, 0.000% MACs, inplace=True)
              )
              (1): Conv(
                66.05 k, 0.228% Params, 422.71 MMac, 0.635% MACs, 
                (conv): Conv2d(65.54 k, 0.227% Params, 419.43 MMac, 0.630% MACs, 256, 256, kernel_size=(1, 1), stride=(1, 1), bias=False)
                (bn): BatchNorm2d(512, 0.002% Params, 3.28 MMac, 0.005% MACs, 256, eps=0.001, momentum=0.03, affine=True, track_running_stats=True)
                (act): SiLU(0, 0.000% Params, 0.0 Mac, 0.000% MACs, inplace=True)
              )
            )
            (2): Conv2d(20.56 k, 0.071% Params, 131.58 MMac, 0.198% MACs, 256, 80, kernel_size=(1, 1), stride=(1, 1))
          )
          (1): Sequential(
            226.64 k, 0.784% Params, 362.62 MMac, 0.545% MACs, 
            (0): Sequential(
              137.22 k, 0.475% Params, 219.55 MMac, 0.330% MACs, 
              (0): Conv(
                5.63 k, 0.019% Params, 9.01 MMac, 0.014% MACs, 
                (conv): Conv2d(4.61 k, 0.016% Params, 7.37 MMac, 0.011% MACs, 512, 512, kernel_size=(3, 3), stride=(1, 1), padding=(1, 1), groups=512, bias=False)
                (bn): BatchNorm2d(1.02 k, 0.004% Params, 1.64 MMac, 0.002% MACs, 512, eps=0.001, momentum=0.03, affine=True, track_running_stats=True)
                (act): SiLU(0, 0.000% Params, 0.0 Mac, 0.000% MACs, inplace=True)
              )
              (1): Conv(
                131.58 k, 0.455% Params, 210.53 MMac, 0.316% MACs, 
                (conv): Conv2d(131.07 k, 0.453% Params, 209.72 MMac, 0.315% MACs, 512, 256, kernel_size=(1, 1), stride=(1, 1), bias=False)
                (bn): BatchNorm2d(512, 0.002% Params, 819.2 KMac, 0.001% MACs, 256, eps=0.001, momentum=0.03, affine=True, track_running_stats=True)
                (act): SiLU(0, 0.000% Params, 0.0 Mac, 0.000% MACs, inplace=True)
              )
            )
            (1): Sequential(
              68.86 k, 0.238% Params, 110.18 MMac, 0.165% MACs, 
              (0): Conv(
                2.82 k, 0.010% Params, 4.51 MMac, 0.007% MACs, 
                (conv): Conv2d(2.3 k, 0.008% Params, 3.69 MMac, 0.006% MACs, 256, 256, kernel_size=(3, 3), stride=(1, 1), padding=(1, 1), groups=256, bias=False)
                (bn): BatchNorm2d(512, 0.002% Params, 819.2 KMac, 0.001% MACs, 256, eps=0.001, momentum=0.03, affine=True, track_running_stats=True)
                (act): SiLU(0, 0.000% Params, 0.0 Mac, 0.000% MACs, inplace=True)
              )
              (1): Conv(
                66.05 k, 0.228% Params, 105.68 MMac, 0.159% MACs, 
                (conv): Conv2d(65.54 k, 0.227% Params, 104.86 MMac, 0.157% MACs, 256, 256, kernel_size=(1, 1), stride=(1, 1), bias=False)
                (bn): BatchNorm2d(512, 0.002% Params, 819.2 KMac, 0.001% MACs, 256, eps=0.001, momentum=0.03, affine=True, track_running_stats=True)
                (act): SiLU(0, 0.000% Params, 0.0 Mac, 0.000% MACs, inplace=True)
              )
            )
            (2): Conv2d(20.56 k, 0.071% Params, 32.9 MMac, 0.049% MACs, 256, 80, kernel_size=(1, 1), stride=(1, 1))
          )
          (2): Sequential(
            226.64 k, 0.784% Params, 90.66 MMac, 0.136% MACs, 
            (0): Sequential(
              137.22 k, 0.475% Params, 54.89 MMac, 0.082% MACs, 
              (0): Conv(
                5.63 k, 0.019% Params, 2.25 MMac, 0.003% MACs, 
                (conv): Conv2d(4.61 k, 0.016% Params, 1.84 MMac, 0.003% MACs, 512, 512, kernel_size=(3, 3), stride=(1, 1), padding=(1, 1), groups=512, bias=False)
                (bn): BatchNorm2d(1.02 k, 0.004% Params, 409.6 KMac, 0.001% MACs, 512, eps=0.001, momentum=0.03, affine=True, track_running_stats=True)
                (act): SiLU(0, 0.000% Params, 0.0 Mac, 0.000% MACs, inplace=True)
              )
              (1): Conv(
                131.58 k, 0.455% Params, 52.63 MMac, 0.079% MACs, 
                (conv): Conv2d(131.07 k, 0.453% Params, 52.43 MMac, 0.079% MACs, 512, 256, kernel_size=(1, 1), stride=(1, 1), bias=False)
                (bn): BatchNorm2d(512, 0.002% Params, 204.8 KMac, 0.000% MACs, 256, eps=0.001, momentum=0.03, affine=True, track_running_stats=True)
                (act): SiLU(0, 0.000% Params, 0.0 Mac, 0.000% MACs, inplace=True)
              )
            )
            (1): Sequential(
              68.86 k, 0.238% Params, 27.55 MMac, 0.041% MACs, 
              (0): Conv(
                2.82 k, 0.010% Params, 1.13 MMac, 0.002% MACs, 
                (conv): Conv2d(2.3 k, 0.008% Params, 921.6 KMac, 0.001% MACs, 256, 256, kernel_size=(3, 3), stride=(1, 1), padding=(1, 1), groups=256, bias=False)
                (bn): BatchNorm2d(512, 0.002% Params, 204.8 KMac, 0.000% MACs, 256, eps=0.001, momentum=0.03, affine=True, track_running_stats=True)
                (act): SiLU(0, 0.000% Params, 0.0 Mac, 0.000% MACs, inplace=True)
              )
              (1): Conv(
                66.05 k, 0.228% Params, 26.42 MMac, 0.040% MACs, 
                (conv): Conv2d(65.54 k, 0.227% Params, 26.21 MMac, 0.039% MACs, 256, 256, kernel_size=(1, 1), stride=(1, 1), bias=False)
                (bn): BatchNorm2d(512, 0.002% Params, 204.8 KMac, 0.000% MACs, 256, eps=0.001, momentum=0.03, affine=True, track_running_stats=True)
                (act): SiLU(0, 0.000% Params, 0.0 Mac, 0.000% MACs, inplace=True)
              )
            )
            (2): Conv2d(20.56 k, 0.071% Params, 8.22 MMac, 0.012% MACs, 256, 80, kernel_size=(1, 1), stride=(1, 1))
          )
        )
      )
    )
  )
)
FLOPs: 66.59 GMac, Params: 28.92 M
self.args.nbs: 256
FLOPs: 66.59 GMac, Params: 28.92 M
self.args.nbs: 256
[rank2]:[W715 13:44:55.550322435 reducer.cpp:1430] Warning: find_unused_parameters=True was specified in DDP constructor, but did not find any unused paramete
…
