…
/home/hslee/SONeck/vision/references/detection/train.py:425: FutureWarning: `torch.cuda.amp.GradScaler(args...)` is deprecated. Please use `torch.amp.GradScaler('cuda', args...)` instead.
  scaler = torch.cuda.amp.GradScaler() if args.amp else None
/home/hslee/SONeck/vision/references/detection/train.py:425: FutureWarning: `torch.cuda.amp.GradScaler(args...)` is deprecated. Please use `torch.amp.GradScaler('cuda', args...)` instead.
  scaler = torch.cuda.amp.GradScaler() if args.amp else None
model: DistributedDataParallel(
  (module): FCOS(
    (backbone): BackboneWithFPN(
      (body): IntermediateLayerGetter(
        (conv1): Conv2d(3, 64, kernel_size=(7, 7), stride=(2, 2), padding=(3, 3), bias=False)
        (bn1): FrozenBatchNorm2d(64, eps=1e-05)
        (relu): ReLU(inplace=True)
        (maxpool): MaxPool2d(kernel_size=3, stride=2, padding=1, dilation=1, ceil_mode=False)
        (layer1): Sequential(
          (0): Bottleneck(
            (conv1): Conv2d(64, 64, kernel_size=(1, 1), stride=(1, 1), bias=False)
            (bn1): FrozenBatchNorm2d(64, eps=1e-05)
            (conv2): Conv2d(64, 64, kernel_size=(3, 3), stride=(1, 1), padding=(1, 1), bias=False)
            (bn2): FrozenBatchNorm2d(64, eps=1e-05)
            (conv3): Conv2d(64, 256, kernel_size=(1, 1), stride=(1, 1), bias=False)
            (bn3): FrozenBatchNorm2d(256, eps=1e-05)
            (relu): ReLU(inplace=True)
            (downsample): Sequential(
              (0): Conv2d(64, 256, kernel_size=(1, 1), stride=(1, 1), bias=False)
              (1): FrozenBatchNorm2d(256, eps=1e-05)
            )
          )
          (1): Bottleneck(
            (conv1): Conv2d(256, 64, kernel_size=(1, 1), stride=(1, 1), bias=False)
            (bn1): FrozenBatchNorm2d(64, eps=1e-05)
            (conv2): Conv2d(64, 64, kernel_size=(3, 3), stride=(1, 1), padding=(1, 1), bias=False)
            (bn2): FrozenBatchNorm2d(64, eps=1e-05)
            (conv3): Conv2d(64, 256, kernel_size=(1, 1), stride=(1, 1), bias=False)
            (bn3): FrozenBatchNorm2d(256, eps=1e-05)
            (relu): ReLU(inplace=True)
          )
          (2): Bottleneck(
            (conv1): Conv2d(256, 64, kernel_size=(1, 1), stride=(1, 1), bias=False)
            (bn1): FrozenBatchNorm2d(64, eps=1e-05)
            (conv2): Conv2d(64, 64, kernel_size=(3, 3), stride=(1, 1), padding=(1, 1), bias=False)
            (bn2): FrozenBatchNorm2d(64, eps=1e-05)
            (conv3): Conv2d(64, 256, kernel_size=(1, 1), stride=(1, 1), bias=False)
            (bn3): FrozenBatchNorm2d(256, eps=1e-05)
            (relu): ReLU(inplace=True)
          )
        )
        (layer2): Sequential(
          (0): Bottleneck(
            (conv1): Conv2d(256, 128, kernel_size=(1, 1), stride=(1, 1), bias=False)
            (bn1): FrozenBatchNorm2d(128, eps=1e-05)
            (conv2): Conv2d(128, 128, kernel_size=(3, 3), stride=(2, 2), padding=(1, 1), bias=False)
            (bn2): FrozenBatchNorm2d(128, eps=1e-05)
            (conv3): Conv2d(128, 512, kernel_size=(1, 1), stride=(1, 1), bias=False)
            (bn3): FrozenBatchNorm2d(512, eps=1e-05)
            (relu): ReLU(inplace=True)
            (downsample): Sequential(
              (0): Conv2d(256, 512, kernel_size=(1, 1), stride=(2, 2), bias=False)
              (1): FrozenBatchNorm2d(512, eps=1e-05)
            )
          )
          (1): Bottleneck(
            (conv1): Conv2d(512, 128, kernel_size=(1, 1), stride=(1, 1), bias=False)
            (bn1): FrozenBatchNorm2d(128, eps=1e-05)
            (conv2): Conv2d(128, 128, kernel_size=(3, 3), stride=(1, 1), padding=(1, 1), bias=False)
            (bn2): FrozenBatchNorm2d(128, eps=1e-05)
            (conv3): Conv2d(128, 512, kernel_size=(1, 1), stride=(1, 1), bias=False)
            (bn3): FrozenBatchNorm2d(512, eps=1e-05)
            (relu): ReLU(inplace=True)
          )
          (2): Bottleneck(
            (conv1): Conv2d(512, 128, kernel_size=(1, 1), stride=(1, 1), bias=False)
            (bn1): FrozenBatchNorm2d(128, eps=1e-05)
            (conv2): Conv2d(128, 128, kernel_size=(3, 3), stride=(1, 1), padding=(1, 1), bias=False)
            (bn2): FrozenBatchNorm2d(128, eps=1e-05)
            (conv3): Conv2d(128, 512, kernel_size=(1, 1), stride=(1, 1), bias=False)
            (bn3): FrozenBatchNorm2d(512, eps=1e-05)
            (relu): ReLU(inplace=True)
          )
          (3): Bottleneck(
            (conv1): Conv2d(512, 128, kernel_size=(1, 1), stride=(1, 1), bias=False)
            (bn1): FrozenBatchNorm2d(128, eps=1e-05)
            (conv2): Conv2d(128, 128, kernel_size=(3, 3), stride=(1, 1), padding=(1, 1), bias=False)
            (bn2): FrozenBatchNorm2d(128, eps=1e-05)
            (conv3): Conv2d(128, 512, kernel_size=(1, 1), stride=(1, 1), bias=False)
            (bn3): FrozenBatchNorm2d(512, eps=1e-05)
            (relu): ReLU(inplace=True)
          )
        )
        (layer3): Sequential(
          (0): Bottleneck(
            (conv1): Conv2d(512, 256, kernel_size=(1, 1), stride=(1, 1), bias=False)
            (bn1): FrozenBatchNorm2d(256, eps=1e-05)
            (conv2): Conv2d(256, 256, kernel_size=(3, 3), stride=(2, 2), padding=(1, 1), bias=False)
            (bn2): FrozenBatchNorm2d(256, eps=1e-05)
            (conv3): Conv2d(256, 1024, kernel_size=(1, 1), stride=(1, 1), bias=False)
            (bn3): FrozenBatchNorm2d(1024, eps=1e-05)
            (relu): ReLU(inplace=True)
            (downsample): Sequential(
              (0): Conv2d(512, 1024, kernel_size=(1, 1), stride=(2, 2), bias=False)
              (1): FrozenBatchNorm2d(1024, eps=1e-05)
            )
          )
          (1): Bottleneck(
            (conv1): Conv2d(1024, 256, kernel_size=(1, 1), stride=(1, 1), bias=False)
            (bn1): FrozenBatchNorm2d(256, eps=1e-05)
            (conv2): Conv2d(256, 256, kernel_size=(3, 3), stride=(1, 1), padding=(1, 1), bias=False)
            (bn2): FrozenBatchNorm2d(256, eps=1e-05)
            (conv3): Conv2d(256, 1024, kernel_size=(1, 1), stride=(1, 1), bias=False)
            (bn3): FrozenBatchNorm2d(1024, eps=1e-05)
            (relu): ReLU(inplace=True)
          )
          (2): Bottleneck(
            (conv1): Conv2d(1024, 256, kernel_size=(1, 1), stride=(1, 1), bias=False)
            (bn1): FrozenBatchNorm2d(256, eps=1e-05)
            (conv2): Conv2d(256, 256, kernel_size=(3, 3), stride=(1, 1), padding=(1, 1), bias=False)
            (bn2): FrozenBatchNorm2d(256, eps=1e-05)
            (conv3): Conv2d(256, 1024, kernel_size=(1, 1), stride=(1, 1), bias=False)
            (bn3): FrozenBatchNorm2d(1024, eps=1e-05)
            (relu): ReLU(inplace=True)
          )
          (3): Bottleneck(
            (conv1): Conv2d(1024, 256, kernel_size=(1, 1), stride=(1, 1), bias=False)
            (bn1): FrozenBatchNorm2d(256, eps=1e-05)
            (conv2): Conv2d(256, 256, kernel_size=(3, 3), stride=(1, 1), padding=(1, 1), bias=False)
            (bn2): FrozenBatchNorm2d(256, eps=1e-05)
            (conv3): Conv2d(256, 1024, kernel_size=(1, 1), stride=(1, 1), bias=False)
            (bn3): FrozenBatchNorm2d(1024, eps=1e-05)
            (relu): ReLU(inplace=True)
          )
          (4): Bottleneck(
            (conv1): Conv2d(1024, 256, kernel_size=(1, 1), stride=(1, 1), bias=False)
            (bn1): FrozenBatchNorm2d(256, eps=1e-05)
            (conv2): Conv2d(256, 256, kernel_size=(3, 3), stride=(1, 1), padding=(1, 1), bias=False)
            (bn2): FrozenBatchNorm2d(256, eps=1e-05)
            (conv3): Conv2d(256, 1024, kernel_size=(1, 1), stride=(1, 1), bias=False)
            (bn3): FrozenBatchNorm2d(1024, eps=1e-05)
            (relu): ReLU(inplace=True)
          )
          (5): Bottleneck(
            (conv1): Conv2d(1024, 256, kernel_size=(1, 1), stride=(1, 1), bias=False)
            (bn1): FrozenBatchNorm2d(256, eps=1e-05)
            (conv2): Conv2d(256, 256, kernel_size=(3, 3), stride=(1, 1), padding=(1, 1), bias=False)
            (bn2): FrozenBatchNorm2d(256, eps=1e-05)
            (conv3): Conv2d(256, 1024, kernel_size=(1, 1), stride=(1, 1), bias=False)
            (bn3): FrozenBatchNorm2d(1024, eps=1e-05)
            (relu): ReLU(inplace=True)
          )
        )
        (layer4): Sequential(
          (0): Bottleneck(
            (conv1): Conv2d(1024, 512, kernel_size=(1, 1), stride=(1, 1), bias=False)
            (bn1): FrozenBatchNorm2d(512, eps=1e-05)
            (conv2): Conv2d(512, 512, kernel_size=(3, 3), stride=(2, 2), padding=(1, 1), bias=False)
            (bn2): FrozenBatchNorm2d(512, eps=1e-05)
            (conv3): Conv2d(512, 2048, kernel_size=(1, 1), stride=(1, 1), bias=False)
            (bn3): FrozenBatchNorm2d(2048, eps=1e-05)
            (relu): ReLU(inplace=True)
            (downsample): Sequential(
              (0): Conv2d(1024, 2048, kernel_size=(1, 1), stride=(2, 2), bias=False)
              (1): FrozenBatchNorm2d(2048, eps=1e-05)
            )
          )
          (1): Bottleneck(
            (conv1): Conv2d(2048, 512, kernel_size=(1, 1), stride=(1, 1), bias=False)
            (bn1): FrozenBatchNorm2d(512, eps=1e-05)
            (conv2): Conv2d(512, 512, kernel_size=(3, 3), stride=(1, 1), padding=(1, 1), bias=False)
            (bn2): FrozenBatchNorm2d(512, eps=1e-05)
            (conv3): Conv2d(512, 2048, kernel_size=(1, 1), stride=(1, 1), bias=False)
            (bn3): FrozenBatchNorm2d(2048, eps=1e-05)
            (relu): ReLU(inplace=True)
          )
          (2): Bottleneck(
            (conv1): Conv2d(2048, 512, kernel_size=(1, 1), stride=(1, 1), bias=False)
            (bn1): FrozenBatchNorm2d(512, eps=1e-05)
            (conv2): Conv2d(512, 512, kernel_size=(3, 3), stride=(1, 1), padding=(1, 1), bias=False)
            (bn2): FrozenBatchNorm2d(512, eps=1e-05)
            (conv3): Conv2d(512, 2048, kernel_size=(1, 1), stride=(1, 1), bias=False)
            (bn3): FrozenBatchNorm2d(2048, eps=1e-05)
            (relu): ReLU(inplace=True)
          )
        )
      )
      (fpn): FeaturePyramidNetwork(
        (inner_blocks): ModuleList(
          (0): Conv2dNormActivation(
            (0): Conv2d(512, 256, kernel_size=(1, 1), stride=(1, 1))
          )
          (1): Conv2dNormActivation(
            (0): Conv2d(1024, 256, kernel_size=(1, 1), stride=(1, 1))
          )
          (2): Conv2dNormActivation(
            (0): Conv2d(2048, 256, kernel_size=(1, 1), stride=(1, 1))
          )
        )
        (layer_blocks): ModuleList(
          (0-2): 3 x Conv2dNormActivation(
            (0): Conv2d(256, 256, kernel_size=(3, 3), stride=(1, 1), padding=(1, 1))
          )
        )
        (sa_cross_attn): ModuleList(
          (0): SpatialAlignTransNormer(
            (q_proj): Linear(in_features=256, out_features=256, bias=True)
            (k_proj): Linear(in_features=256, out_features=256, bias=True)
            (v_proj): Linear(in_features=256, out_features=256, bias=True)
            (out_proj): Linear(in_features=256, out_features=256, bias=True)
            (attn_norm): RMSNorm((32,), eps=None, elementwise_affine=True)
            (linear1): Linear(in_features=256, out_features=1024, bias=True)
            (dropout): Dropout(p=0.0, inplace=False)
            (linear2): Linear(in_features=1024, out_features=256, bias=True)
            (activation): GELU(approximate='none')
            (norm1): LayerNorm((256,), eps=1e-05, elementwise_affine=True)
            (norm2): LayerNorm((256,), eps=1e-05, elementwise_affine=True)
            (dropout1): Dropout(p=0.0, inplace=False)
            (dropout2): Dropout(p=0.0, inplace=False)
            (avg_pool_high): Identity()
            (avg_pool_low): AvgPool2d(kernel_size=2, stride=2, padding=0)
          )
          (1): SpatialAlignTransNormer(
            (q_proj): Linear(in_features=256, out_features=256, bias=True)
            (k_proj): Linear(in_features=256, out_features=256, bias=True)
            (v_proj): Linear(in_features=256, out_features=256, bias=True)
            (out_proj): Linear(in_features=256, out_features=256, bias=True)
            (attn_norm): RMSNorm((32,), eps=None, elementwise_affine=True)
            (linear1): Linear(in_features=256, out_features=1024, bias=True)
            (dropout): Dropout(p=0.0, inplace=False)
            (linear2): Linear(in_features=1024, out_features=256, bias=True)
            (activation): GELU(approximate='none')
            (norm1): LayerNorm((256,), eps=1e-05, elementwise_affine=True)
            (norm2): LayerNorm((256,), eps=1e-05, elementwise_affine=True)
            (dropout1): Dropout(p=0.0, inplace=False)
            (dropout2): Dropout(p=0.0, inplace=False)
            (avg_pool_high): AvgPool2d(kernel_size=2, stride=2, padding=0)
            (avg_pool_low): AvgPool2d(kernel_size=4, stride=4, padding=0)
          )
        )
        (extra_blocks): LastLevelP6P7(
          (p6): Conv2d(256, 256, kernel_size=(3, 3), stride=(2, 2), padding=(1, 1))
          (p7): Conv2d(256, 256, kernel_size=(3, 3), stride=(2, 2), padding=(1, 1))
        )
      )
    )
    (anchor_generator): AnchorGenerator()
    (head): FCOSHead(
      (classification_head): FCOSClassificationHead(
        (conv): Sequential(
          (0): Conv2d(256, 256, kernel_size=(3, 3), stride=(1, 1), padding=(1, 1))
          (1): GroupNorm(32, 256, eps=1e-05, affine=True)
          (2): ReLU()
          (3): Conv2d(256, 256, kernel_size=(3, 3), stride=(1, 1), padding=(1, 1))
          (4): GroupNorm(32, 256, eps=1e-05, affine=True)
          (5): ReLU()
          (6): Conv2d(256, 256, kernel_size=(3, 3), stride=(1, 1), padding=(1, 1))
          (7): GroupNorm(32, 256, eps=1e-05, affine=True)
          (8): ReLU()
          (9): Conv2d(256, 256, kernel_size=(3, 3), stride=(1, 1), padding=(1, 1))
          (10): GroupNorm(32, 256, eps=1e-05, affine=True)
          (11): ReLU()
        )
        (cls_logits): Conv2d(256, 91, kernel_size=(3, 3), stride=(1, 1), padding=(1, 1))
      )
      (regression_head): FCOSRegressionHead(
        (conv): Sequential(
          (0): Conv2d(256, 256, kernel_size=(3, 3), stride=(1, 1), padding=(1, 1))
          (1): GroupNorm(32, 256, eps=1e-05, affine=True)
          (2): ReLU()
          (3): Conv2d(256, 256, kernel_size=(3, 3), stride=(1, 1), padding=(1, 1))
          (4): GroupNorm(32, 256, eps=1e-05, affine=True)
          (5): ReLU()
          (6): Conv2d(256, 256, kernel_size=(3, 3), stride=(1, 1), padding=(1, 1))
          (7): GroupNorm(32, 256, eps=1e-05, affine=True)
          (8): ReLU()
          (9): Conv2d(256, 256, kernel_size=(3, 3), stride=(1, 1), padding=(1, 1))
          (10): GroupNorm(32, 256, eps=1e-05, affine=True)
          (11): ReLU()
        )
        (bbox_reg): Conv2d(256, 4, kernel_size=(3, 3), stride=(1, 1), padding=(1, 1))
        (bbox_ctrness): Conv2d(256, 1, kernel_size=(3, 3), stride=(1, 1), padding=(1, 1))
      )
    )
    (transform): GeneralizedRCNNTransform(
        Normalize(mean=[0.485, 0.456, 0.406], std=[0.229, 0.224, 0.225])
        Resize(min_size=(800,), max_size=1333, mode='bilinear')
    )
  )
)
Warning: module FrozenBatchNorm2d is treated as a zero-op.
Warning: module Bottleneck is treated as a zero-op.
Warning: module IntermediateLayerGetter is treated as a zero-op.
…
Warning: module FCOSRegressionHead is treated as a zero-op.
Warning: module FCOSHead is treated as a zero-op.
Warning: module GeneralizedRCNNTransform is treated as a zero-op.
Warning: module FCOS is treated as a zero-op.
Warning: module DistributedDataParallel is treated as a zero-op.
DistributedDataParallel(
  33.63 M, 100.000% Params, 129.45 GMac, 99.866% MACs, 
  (module): FCOS(
    33.63 M, 100.000% Params, 129.45 GMac, 99.866% MACs, 
    (backbone): BackboneWithFPN(
      28.68 M, 85.291% Params, 63.43 GMac, 48.932% MACs, 
      (body): IntermediateLayerGetter(
        23.23 M, 69.089% Params, 52.26 GMac, 40.321% MACs, 
        (conv1): Conv2d(0, 0.000% Params, 1.51 GMac, 1.161% MACs, 3, 64, kernel_size=(7, 7), stride=(2, 2), padding=(3, 3), bias=False)
        (bn1): FrozenBatchNorm2d(64, eps=1e-05)
        (relu): ReLU(0, 0.000% Params, 10.24 MMac, 0.008% MACs, inplace=True)
        (maxpool): MaxPool2d(0, 0.000% Params, 10.24 MMac, 0.008% MACs, kernel_size=3, stride=2, padding=1, dilation=1, ceil_mode=False)
        (layer1): Sequential(
          0, 0.000% Params, 8.57 GMac, 6.608% MACs, 
          (0): Bottleneck(
            0, 0.000% Params, 2.96 GMac, 2.287% MACs, 
            (conv1): Conv2d(0, 0.000% Params, 163.84 MMac, 0.126% MACs, 64, 64, kernel_size=(1, 1), stride=(1, 1), bias=False)
            (bn1): FrozenBatchNorm2d(64, eps=1e-05)
            (conv2): Conv2d(0, 0.000% Params, 1.47 GMac, 1.138% MACs, 64, 64, kernel_size=(3, 3), stride=(1, 1), padding=(1, 1), bias=False)
            (bn2): FrozenBatchNorm2d(64, eps=1e-05)
            (conv3): Conv2d(0, 0.000% Params, 655.36 MMac, 0.506% MACs, 64, 256, kernel_size=(1, 1), stride=(1, 1), bias=False)
            (bn3): FrozenBatchNorm2d(256, eps=1e-05)
            (relu): ReLU(0, 0.000% Params, 15.36 MMac, 0.012% MACs, inplace=True)
            (downsample): Sequential(
              0, 0.000% Params, 655.36 MMac, 0.506% MACs, 
              (0): Conv2d(0, 0.000% Params, 655.36 MMac, 0.506% MACs, 64, 256, kernel_size=(1, 1), stride=(1, 1), bias=False)
              (1): FrozenBatchNorm2d(256, eps=1e-05)
            )
          )
          (1): Bottleneck(
            0, 0.000% Params, 2.8 GMac, 2.161% MACs, 
            (conv1): Conv2d(0, 0.000% Params, 655.36 MMac, 0.506% MACs, 256, 64, kernel_size=(1, 1), stride=(1, 1), bias=False)
            (bn1): FrozenBatchNorm2d(64, eps=1e-05)
            (conv2): Conv2d(0, 0.000% Params, 1.47 GMac, 1.138% MACs, 64, 64, kernel_size=(3, 3), stride=(1, 1), padding=(1, 1), bias=False)
            (bn2): FrozenBatchNorm2d(64, eps=1e-05)
            (conv3): Conv2d(0, 0.000% Params, 655.36 MMac, 0.506% MACs, 64, 256, kernel_size=(1, 1), stride=(1, 1), bias=False)
            (bn3): FrozenBatchNorm2d(256, eps=1e-05)
            (relu): ReLU(0, 0.000% Params, 15.36 MMac, 0.012% MACs, inplace=True)
          )
          (2): Bottleneck(
            0, 0.000% Params, 2.8 GMac, 2.161% MACs, 
            (conv1): Conv2d(0, 0.000% Params, 655.36 MMac, 0.506% MACs, 256, 64, kernel_size=(1, 1), stride=(1, 1), bias=False)
            (bn1): FrozenBatchNorm2d(64, eps=1e-05)
            (conv2): Conv2d(0, 0.000% Params, 1.47 GMac, 1.138% MACs, 64, 64, kernel_size=(3, 3), stride=(1, 1), padding=(1, 1), bias=False)
            (bn2): FrozenBatchNorm2d(64, eps=1e-05)
            (conv3): Conv2d(0, 0.000% Params, 655.36 MMac, 0.506% MACs, 64, 256, kernel_size=(1, 1), stride=(1, 1), bias=False)
            (bn3): FrozenBatchNorm2d(256, eps=1e-05)
            (relu): ReLU(0, 0.000% Params, 15.36 MMac, 0.012% MACs, inplace=True)
          )
        )
        (layer2): Sequential(
          1.21 M, 3.606% Params, 13.14 GMac, 10.138% MACs, 
          (0): Bottleneck(
            376.83 k, 1.121% Params, 4.76 GMac, 3.674% MACs, 
            (conv1): Conv2d(32.77 k, 0.097% Params, 1.31 GMac, 1.011% MACs, 256, 128, kernel_size=(1, 1), stride=(1, 1), bias=False)
            (bn1): FrozenBatchNorm2d(128, eps=1e-05)
            (conv2): Conv2d(147.46 k, 0.439% Params, 1.47 GMac, 1.138% MACs, 128, 128, kernel_size=(3, 3), stride=(2, 2), padding=(1, 1), bias=False)
            (bn2): FrozenBatchNorm2d(128, eps=1e-05)
            (conv3): Conv2d(65.54 k, 0.195% Params, 655.36 MMac, 0.506% MACs, 128, 512, kernel_size=(1, 1), stride=(1, 1), bias=False)
            (bn3): FrozenBatchNorm2d(512, eps=1e-05)
            (relu): ReLU(0, 0.000% Params, 11.52 MMac, 0.009% MACs, inplace=True)
            (downsample): Sequential(
              131.07 k, 0.390% Params, 1.31 GMac, 1.011% MACs, 
              (0): Conv2d(131.07 k, 0.390% Params, 1.31 GMac, 1.011% MACs, 256, 512, kernel_size=(1, 1), stride=(2, 2), bias=False)
              (1): FrozenBatchNorm2d(512, eps=1e-05)
            )
          )
          (1): Bottleneck(
            278.53 k, 0.828% Params, 2.79 GMac, 2.155% MACs, 
            (conv1): Conv2d(65.54 k, 0.195% Params, 655.36 MMac, 0.506% MACs, 512, 128, kernel_size=(1, 1), stride=(1, 1), bias=False)
            (bn1): FrozenBatchNorm2d(128, eps=1e-05)
            (conv2): Conv2d(147.46 k, 0.439% Params, 1.47 GMac, 1.138% MACs, 128, 128, kernel_size=(3, 3), stride=(1, 1), padding=(1, 1), bias=False)
            (bn2): FrozenBatchNorm2d(128, eps=1e-05)
            (conv3): Conv2d(65.54 k, 0.195% Params, 655.36 MMac, 0.506% MACs, 128, 512, kernel_size=(1, 1), stride=(1, 1), bias=False)
            (bn3): FrozenBatchNorm2d(512, eps=1e-05)
            (relu): ReLU(0, 0.000% Params, 7.68 MMac, 0.006% MACs, inplace=True)
          )
          (2): Bottleneck(
            278.53 k, 0.828% Params, 2.79 GMac, 2.155% MACs, 
            (conv1): Conv2d(65.54 k, 0.195% Params, 655.36 MMac, 0.506% MACs, 512, 128, kernel_size=(1, 1), stride=(1, 1), bias=False)
            (bn1): FrozenBatchNorm2d(128, eps=1e-05)
            (conv2): Conv2d(147.46 k, 0.439% Params, 1.47 GMac, 1.138% MACs, 128, 128, kernel_size=(3, 3), stride=(1, 1), padding=(1, 1), bias=False)
            (bn2): FrozenBatchNorm2d(128, eps=1e-05)
            (conv3): Conv2d(65.54 k, 0.195% Params, 655.36 MMac, 0.506% MACs, 128, 512, kernel_size=(1, 1), stride=(1, 1), bias=False)
            (bn3): FrozenBatchNorm2d(512, eps=1e-05)
            (relu): ReLU(0, 0.000% Params, 7.68 MMac, 0.006% MACs, inplace=True)
          )
          (3): Bottleneck(
            278.53 k, 0.828% Params, 2.79 GMac, 2.155% MACs, 
            (conv1): Conv2d(65.54 k, 0.195% Params, 655.36 MMac, 0.506% MACs, 512, 128, kernel_size=(1, 1), stride=(1, 1), bias=False)
            (bn1): FrozenBatchNorm2d(128, eps=1e-05)
            (conv2): Conv2d(147.46 k, 0.439% Params, 1.47 GMac, 1.138% MACs, 128, 128, kernel_size=(3, 3), stride=(1, 1), padding=(1, 1), bias=False)
            (bn2): FrozenBatchNorm2d(128, eps=1e-05)
            (conv3): Conv2d(65.54 k, 0.195% Params, 655.36 MMac, 0.506% MACs, 128, 512, kernel_size=(1, 1), stride=(1, 1), bias=False)
            (bn3): FrozenBatchNorm2d(512, eps=1e-05)
            (relu): ReLU(0, 0.000% Params, 7.68 MMac, 0.006% MACs, inplace=True)
          )
        )
        (layer3): Sequential(
          7.08 M, 21.048% Params, 18.7 GMac, 14.429% MACs, 
          (0): Bottleneck(
            1.51 M, 4.483% Params, 4.76 GMac, 3.670% MACs, 
            (conv1): Conv2d(131.07 k, 0.390% Params, 1.31 GMac, 1.011% MACs, 512, 256, kernel_size=(1, 1), stride=(1, 1), bias=False)
            (bn1): FrozenBatchNorm2d(256, eps=1e-05)
            (conv2): Conv2d(589.82 k, 1.754% Params, 1.47 GMac, 1.138% MACs, 256, 256, kernel_size=(3, 3), stride=(2, 2), padding=(1, 1), bias=False)
            (bn2): FrozenBatchNorm2d(256, eps=1e-05)
            (conv3): Conv2d(262.14 k, 0.780% Params, 655.36 MMac, 0.506% MACs, 256, 1024, kernel_size=(1, 1), stride=(1, 1), bias=False)
            (bn3): FrozenBatchNorm2d(1024, eps=1e-05)
            (relu): ReLU(0, 0.000% Params, 5.76 MMac, 0.004% MACs, inplace=True)
            (downsample): Sequential(
              524.29 k, 1.559% Params, 1.31 GMac, 1.011% MACs, 
              (0): Conv2d(524.29 k, 1.559% Params, 1.31 GMac, 1.011% MACs, 512, 1024, kernel_size=(1, 1), stride=(2, 2), bias=False)
              (1): FrozenBatchNorm2d(1024, eps=1e-05)
            )
          )
          (1): Bottleneck(
            1.11 M, 3.313% Params, 2.79 GMac, 2.152% MACs, 
            (conv1): Conv2d(262.14 k, 0.780% Params, 655.36 MMac, 0.506% MACs, 1024, 256, kernel_size=(1, 1), stride=(1, 1), bias=False)
            (bn1): FrozenBatchNorm2d(256, eps=1e-05)
            (conv2): Conv2d(589.82 k, 1.754% Params, 1.47 GMac, 1.138% MACs, 256, 256, kernel_size=(3, 3), stride=(1, 1), padding=(1, 1), bias=False)
            (bn2): FrozenBatchNorm2d(256, eps=1e-05)
            (conv3): Conv2d(262.14 k, 0.780% Params, 655.36 MMac, 0.506% MACs, 256, 1024, kernel_size=(1, 1), stride=(1, 1), bias=False)
            (bn3): FrozenBatchNorm2d(1024, eps=1e-05)
            (relu): ReLU(0, 0.000% Params, 3.84 MMac, 0.003% MACs, inplace=True)
          )
          (2): Bottleneck(
            1.11 M, 3.313% Params, 2.79 GMac, 2.152% MACs, 
            (conv1): Conv2d(262.14 k, 0.780% Params, 655.36 MMac, 0.506% MACs, 1024, 256, kernel_size=(1, 1), stride=(1, 1), bias=False)
            (bn1): FrozenBatchNorm2d(256, eps=1e-05)
            (conv2): Conv2d(589.82 k, 1.754% Params, 1.47 GMac, 1.138% MACs, 256, 256, kernel_size=(3, 3), stride=(1, 1), padding=(1, 1), bias=False)
            (bn2): FrozenBatchNorm2d(256, eps=1e-05)
            (conv3): Conv2d(262.14 k, 0.780% Params, 655.36 MMac, 0.506% MACs, 256, 1024, kernel_size=(1, 1), stride=(1, 1), bias=False)
            (bn3): FrozenBatchNorm2d(1024, eps=1e-05)
            (relu): ReLU(0, 0.000% Params, 3.84 MMac, 0.003% MACs, inplace=True)
          )
          (3): Bottleneck(
            1.11 M, 3.313% Params, 2.79 GMac, 2.152% MACs, 
            (conv1): Conv2d(262.14 k, 0.780% Params, 655.36 MMac, 0.506% MACs, 1024, 256, kernel_size=(1, 1), stride=(1, 1), bias=False)
            (bn1): FrozenBatchNorm2d(256, eps=1e-05)
            (conv2): Conv2d(589.82 k, 1.754% Params, 1.47 GMac, 1.138% MACs, 256, 256, kernel_size=(3, 3), stride=(1, 1), padding=(1, 1), bias=False)
            (bn2): FrozenBatchNorm2d(256, eps=1e-05)
            (conv3): Conv2d(262.14 k, 0.780% Params, 655.36 MMac, 0.506% MACs, 256, 1024, kernel_size=(1, 1), stride=(1, 1), bias=False)
            (bn3): FrozenBatchNorm2d(1024, eps=1e-05)
            (relu): ReLU(0, 0.000% Params, 3.84 MMac, 0.003% MACs, inplace=True)
          )
          (4): Bottleneck(
            1.11 M, 3.313% Params, 2.79 GMac, 2.152% MACs, 
            (conv1): Conv2d(262.14 k, 0.780% Params, 655.36 MMac, 0.506% MACs, 1024, 256, kernel_size=(1, 1), stride=(1, 1), bias=False)
            (bn1): FrozenBatchNorm2d(256, eps=1e-05)
            (conv2): Conv2d(589.82 k, 1.754% Params, 1.47 GMac, 1.138% MACs, 256, 256, kernel_size=(3, 3), stride=(1, 1), padding=(1, 1), bias=False)
            (bn2): FrozenBatchNorm2d(256, eps=1e-05)
            (conv3): Conv2d(262.14 k, 0.780% Params, 655.36 MMac, 0.506% MACs, 256, 1024, kernel_size=(1, 1), stride=(1, 1), bias=False)
            (bn3): FrozenBatchNorm2d(1024, eps=1e-05)
            (relu): ReLU(0, 0.000% Params, 3.84 MMac, 0.003% MACs, inplace=True)
          )
          (5): Bottleneck(
            1.11 M, 3.313% Params, 2.79 GMac, 2.152% MACs, 
            (conv1): Conv2d(262.14 k, 0.780% Params, 655.36 MMac, 0.506% MACs, 1024, 256, kernel_size=(1, 1), stride=(1, 1), bias=False)
            (bn1): FrozenBatchNorm2d(256, eps=1e-05)
            (conv2): Conv2d(589.82 k, 1.754% Params, 1.47 GMac, 1.138% MACs, 256, 256, kernel_size=(3, 3), stride=(1, 1), padding=(1, 1), bias=False)
            (bn2): FrozenBatchNorm2d(256, eps=1e-05)
            (conv3): Conv2d(262.14 k, 0.780% Params, 655.36 MMac, 0.506% MACs, 256, 1024, kernel_size=(1, 1), stride=(1, 1), bias=False)
            (bn3): FrozenBatchNorm2d(1024, eps=1e-05)
            (relu): ReLU(0, 0.000% Params, 3.84 MMac, 0.003% MACs, inplace=True)
          )
        )
        (layer4): Sequential(
          14.94 M, 44.435% Params, 10.33 GMac, 7.968% MACs, 
          (0): Bottleneck(
            6.03 M, 17.930% Params, 4.75 GMac, 3.668% MACs, 
            (conv1): Conv2d(524.29 k, 1.559% Params, 1.31 GMac, 1.011% MACs, 1024, 512, kernel_size=(1, 1), stride=(1, 1), bias=False)
            (bn1): FrozenBatchNorm2d(512, eps=1e-05)
            (conv2): Conv2d(2.36 M, 7.016% Params, 1.47 GMac, 1.138% MACs, 512, 512, kernel_size=(3, 3), stride=(2, 2), padding=(1, 1), bias=False)
            (bn2): FrozenBatchNorm2d(512, eps=1e-05)
            (conv3): Conv2d(1.05 M, 3.118% Params, 655.36 MMac, 0.506% MACs, 512, 2048, kernel_size=(1, 1), stride=(1, 1), bias=False)
            (bn3): FrozenBatchNorm2d(2048, eps=1e-05)
            (relu): ReLU(0, 0.000% Params, 2.88 MMac, 0.002% MACs, inplace=True)
            (downsample): Sequential(
              2.1 M, 6.237% Params, 1.31 GMac, 1.011% MACs, 
              (0): Conv2d(2.1 M, 6.237% Params, 1.31 GMac, 1.011% MACs, 1024, 2048, kernel_size=(1, 1), stride=(2, 2), bias=False)
              (1): FrozenBatchNorm2d(2048, eps=1e-05)
            )
          )
          (1): Bottleneck(
            4.46 M, 13.253% Params, 2.79 GMac, 2.150% MACs, 
            (conv1): Conv2d(1.05 M, 3.118% Params, 655.36 MMac, 0.506% MACs, 2048, 512, kernel_size=(1, 1), stride=(1, 1), bias=False)
            (bn1): FrozenBatchNorm2d(512, eps=1e-05)
            (conv2): Conv2d(2.36 M, 7.016% Params, 1.47 GMac, 1.138% MACs, 512, 512, kernel_size=(3, 3), stride=(1, 1), padding=(1, 1), bias=False)
            (bn2): FrozenBatchNorm2d(512, eps=1e-05)
            (conv3): Conv2d(1.05 M, 3.118% Params, 655.36 MMac, 0.506% MACs, 512, 2048, kernel_size=(1, 1), stride=(1, 1), bias=False)
            (bn3): FrozenBatchNorm2d(2048, eps=1e-05)
            (relu): ReLU(0, 0.000% Params, 1.92 MMac, 0.001% MACs, inplace=True)
          )
          (2): Bottleneck(
            4.46 M, 13.253% Params, 2.79 GMac, 2.150% MACs, 
            (conv1): Conv2d(1.05 M, 3.118% Params, 655.36 MMac, 0.506% MACs, 2048, 512, kernel_size=(1, 1), stride=(1, 1), bias=False)
            (bn1): FrozenBatchNorm2d(512, eps=1e-05)
            (conv2): Conv2d(2.36 M, 7.016% Params, 1.47 GMac, 1.138% MACs, 512, 512, kernel_size=(3, 3), stride=(1, 1), padding=(1, 1), bias=False)
            (bn2): FrozenBatchNorm2d(512, eps=1e-05)
            (conv3): Conv2d(1.05 M, 3.118% Params, 655.36 MMac, 0.506% MACs, 512, 2048, kernel_size=(1, 1), stride=(1, 1), bias=False)
            (bn3): FrozenBatchNorm2d(2048, eps=1e-05)
            (relu): ReLU(0, 0.000% Params, 1.92 MMac, 0.001% MACs, inplace=True)
          )
        )
      )
      (fpn): FeaturePyramidNetwork(
        5.45 M, 16.202% Params, 11.16 GMac, 8.611% MACs, 
        (inner_blocks): ModuleList(
          (0): Conv2dNormActivation(
            131.33 k, 0.391% Params, 1.31 GMac, 1.013% MACs, 
            (0): Conv2d(131.33 k, 0.391% Params, 1.31 GMac, 1.013% MACs, 512, 256, kernel_size=(1, 1), stride=(1, 1))
          )
          (1): Conv2dNormActivation(
            262.4 k, 0.780% Params, 656.0 MMac, 0.506% MACs, 
            (0): Conv2d(262.4 k, 0.780% Params, 656.0 MMac, 0.506% MACs, 1024, 256, kernel_size=(1, 1), stride=(1, 1))
          )
          (2): Conv2dNormActivation(
            524.54 k, 1.560% Params, 327.84 MMac, 0.253% MACs, 
            (0): Conv2d(524.54 k, 1.560% Params, 327.84 MMac, 0.253% MACs, 2048, 256, kernel_size=(1, 1), stride=(1, 1))
          )
        )
        (layer_blocks): ModuleList(
          (0): Conv2dNormActivation(
            590.08 k, 1.755% Params, 5.9 GMac, 4.552% MACs, 
            (0): Conv2d(590.08 k, 1.755% Params, 5.9 GMac, 4.552% MACs, 256, 256, kernel_size=(3, 3), stride=(1, 1), padding=(1, 1))
          )
          (1): Conv2dNormActivation(
            590.08 k, 1.755% Params, 1.48 GMac, 1.138% MACs, 
            (0): Conv2d(590.08 k, 1.755% Params, 1.48 GMac, 1.138% MACs, 256, 256, kernel_size=(3, 3), stride=(1, 1), padding=(1, 1))
          )
          (2): Conv2dNormActivation(
            590.08 k, 1.755% Params, 368.8 MMac, 0.285% MACs, 
            (0): Conv2d(590.08 k, 1.755% Params, 368.8 MMac, 0.285% MACs, 256, 256, kernel_size=(3, 3), stride=(1, 1), padding=(1, 1))
          )
        )
        (sa_cross_attn): ModuleList(
          (0): SpatialAlignTransNormer(
            789.76 k, 2.349% Params, 494.56 MMac, 0.382% MACs, 
            (q_proj): Linear(65.79 k, 0.196% Params, 41.12 MMac, 0.032% MACs, in_features=256, out_features=256, bias=True)
            (k_proj): Linear(65.79 k, 0.196% Params, 41.12 MMac, 0.032% MACs, in_features=256, out_features=256, bias=True)
            (v_proj): Linear(65.79 k, 0.196% Params, 41.12 MMac, 0.032% MACs, in_features=256, out_features=256, bias=True)
            (out_proj): Linear(65.79 k, 0.196% Params, 41.12 MMac, 0.032% MACs, in_features=256, out_features=256, bias=True)
            (attn_norm): RMSNorm(0, 0.000% Params, 0.0 Mac, 0.000% MACs, (32,), eps=None, elementwise_affine=True)
            (linear1): Linear(263.17 k, 0.783% Params, 164.48 MMac, 0.127% MACs, in_features=256, out_features=1024, bias=True)
            (dropout): Dropout(0, 0.000% Params, 0.0 Mac, 0.000% MACs, p=0.0, inplace=False)
            (linear2): Linear(262.4 k, 0.780% Params, 164.0 MMac, 0.127% MACs, in_features=1024, out_features=256, bias=True)
            (activation): GELU(0, 0.000% Params, 640.0 KMac, 0.000% MACs, approximate='none')
            (norm1): LayerNorm(512, 0.002% Params, 160.0 KMac, 0.000% MACs, (256,), eps=1e-05, elementwise_affine=True)
            (norm2): LayerNorm(512, 0.002% Params, 160.0 KMac, 0.000% MACs, (256,), eps=1e-05, elementwise_affine=True)
            (dropout1): Dropout(0, 0.000% Params, 0.0 Mac, 0.000% MACs, p=0.0, inplace=False)
            (dropout2): Dropout(0, 0.000% Params, 0.0 Mac, 0.000% MACs, p=0.0, inplace=False)
            (avg_pool_high): Identity(0, 0.000% Params, 0.0 Mac, 0.000% MACs, )
            (avg_pool_low): AvgPool2d(0, 0.000% Params, 640.0 KMac, 0.000% MACs, kernel_size=2, stride=2, padding=0)
          )
          (1): SpatialAlignTransNormer(
            789.76 k, 2.349% Params, 497.12 MMac, 0.384% MACs, 
            (q_proj): Linear(65.79 k, 0.196% Params, 41.12 MMac, 0.032% MACs, in_features=256, out_features=256, bias=True)
            (k_proj): Linear(65.79 k, 0.196% Params, 41.12 MMac, 0.032% MACs, in_features=256, out_features=256, bias=True)
            (v_proj): Linear(65.79 k, 0.196% Params, 41.12 MMac, 0.032% MACs, in_features=256, out_features=256, bias=True)
            (out_proj): Linear(65.79 k, 0.196% Params, 41.12 MMac, 0.032% MACs, in_features=256, out_features=256, bias=True)
            (attn_norm): RMSNorm(0, 0.000% Params, 0.0 Mac, 0.000% MACs, (32,), eps=None, elementwise_affine=True)
            (linear1): Linear(263.17 k, 0.783% Params, 164.48 MMac, 0.127% MACs, in_features=256, out_features=1024, bias=True)
            (dropout): Dropout(0, 0.000% Params, 0.0 Mac, 0.000% MACs, p=0.0, inplace=False)
            (linear2): Linear(262.4 k, 0.780% Params, 164.0 MMac, 0.127% MACs, in_features=1024, out_features=256, bias=True)
            (activation): GELU(0, 0.000% Params, 640.0 KMac, 0.000% MACs, approximate='none')
            (norm1): LayerNorm(512, 0.002% Params, 160.0 KMac, 0.000% MACs, (256,), eps=1e-05, elementwise_affine=True)
            (norm2): LayerNorm(512, 0.002% Params, 160.0 KMac, 0.000% MACs, (256,), eps=1e-05, elementwise_affine=True)
            (dropout1): Dropout(0, 0.000% Params, 0.0 Mac, 0.000% MACs, p=0.0, inplace=False)
            (dropout2): Dropout(0, 0.000% Params, 0.0 Mac, 0.000% MACs, p=0.0, inplace=False)
            (avg_pool_high): AvgPool2d(0, 0.000% Params, 640.0 KMac, 0.000% MACs, kernel_size=2, stride=2, padding=0)
            (avg_pool_low): AvgPool2d(0, 0.000% Params, 2.56 MMac, 0.002% MACs, kernel_size=4, stride=4, padding=0)
          )
        )
        (extra_blocks): LastLevelP6P7(
          1.18 M, 3.510% Params, 128.64 MMac, 0.099% MACs, 
          (p6): Conv2d(590.08 k, 1.755% Params, 99.72 MMac, 0.077% MACs, 256, 256, kernel_size=(3, 3), stride=(2, 2), padding=(1, 1))
          (p7): Conv2d(590.08 k, 1.755% Params, 28.91 MMac, 0.022% MACs, 256, 256, kernel_size=(3, 3), stride=(2, 2), padding=(1, 1))
        )
      )
    )
    (anchor_generator): AnchorGenerator(0, 0.000% Params, 0.0 Mac, 0.000% MACs, )
    (head): FCOSHead(
      4.95 M, 14.709% Params, 66.02 GMac, 50.934% MACs, 
      (classification_head): FCOSClassificationHead(
        2.57 M, 7.649% Params, 34.33 GMac, 26.487% MACs, 
        (conv): Sequential(
          2.36 M, 7.025% Params, 31.53 GMac, 24.328% MACs, 
          (0): Conv2d(590.08 k, 1.755% Params, 7.87 GMac, 6.074% MACs, 256, 256, kernel_size=(3, 3), stride=(1, 1), padding=(1, 1))
          (1): GroupNorm(512, 0.002% Params, 6.83 MMac, 0.005% MACs, 32, 256, eps=1e-05, affine=True)
          (2): ReLU(0, 0.000% Params, 3.42 MMac, 0.003% MACs, )
          (3): Conv2d(590.08 k, 1.755% Params, 7.87 GMac, 6.074% MACs, 256, 256, kernel_size=(3, 3), stride=(1, 1), padding=(1, 1))
          (4): GroupNorm(512, 0.002% Params, 6.83 MMac, 0.005% MACs, 32, 256, eps=1e-05, affine=True)
          (5): ReLU(0, 0.000% Params, 3.42 MMac, 0.003% MACs, )
          (6): Conv2d(590.08 k, 1.755% Params, 7.87 GMac, 6.074% MACs, 256, 256, kernel_size=(3, 3), stride=(1, 1), padding=(1, 1))
          (7): GroupNorm(512, 0.002% Params, 6.83 MMac, 0.005% MACs, 32, 256, eps=1e-05, affine=True)
          (8): ReLU(0, 0.000% Params, 3.42 MMac, 0.003% MACs, )
          (9): Conv2d(590.08 k, 1.755% Params, 7.87 GMac, 6.074% MACs, 256, 256, kernel_size=(3, 3), stride=(1, 1), padding=(1, 1))
          (10): GroupNorm(512, 0.002% Params, 6.83 MMac, 0.005% MACs, 32, 256, eps=1e-05, affine=True)
          (11): ReLU(0, 0.000% Params, 3.42 MMac, 0.003% MACs, )
        )
        (cls_logits): Conv2d(209.75 k, 0.624% Params, 2.8 GMac, 2.159% MACs, 256, 91, kernel_size=(3, 3), stride=(1, 1), padding=(1, 1))
      )
      (regression_head): FCOSRegressionHead(
        2.37 M, 7.060% Params, 31.69 GMac, 24.447% MACs, 
        (conv): Sequential(
          2.36 M, 7.025% Params, 31.53 GMac, 24.328% MACs, 
          (0): Conv2d(590.08 k, 1.755% Params, 7.87 GMac, 6.074% MACs, 256, 256, kernel_size=(3, 3), stride=(1, 1), padding=(1, 1))
          (1): GroupNorm(512, 0.002% Params, 6.83 MMac, 0.005% MACs, 32, 256, eps=1e-05, affine=True)
          (2): ReLU(0, 0.000% Params, 3.42 MMac, 0.003% MACs, )
          (3): Conv2d(590.08 k, 1.755% Params, 7.87 GMac, 6.074% MACs, 256, 256, kernel_size=(3, 3), stride=(1, 1), padding=(1, 1))
          (4): GroupNorm(512, 0.002% Params, 6.83 MMac, 0.005% MACs, 32, 256, eps=1e-05, affine=True)
          (5): ReLU(0, 0.000% Params, 3.42 MMac, 0.003% MACs, )
          (6): Conv2d(590.08 k, 1.755% Params, 7.87 GMac, 6.074% MACs, 256, 256, kernel_size=(3, 3), stride=(1, 1), padding=(1, 1))
          (7): GroupNorm(512, 0.002% Params, 6.83 MMac, 0.005% MACs, 32, 256, eps=1e-05, affine=True)
          (8): ReLU(0, 0.000% Params, 3.42 MMac, 0.003% MACs, )
          (9): Conv2d(590.08 k, 1.755% Params, 7.87 GMac, 6.074% MACs, 256, 256, kernel_size=(3, 3), stride=(1, 1), padding=(1, 1))
          (10): GroupNorm(512, 0.002% Params, 6.83 MMac, 0.005% MACs, 32, 256, eps=1e-05, affine=True)
          (11): ReLU(0, 0.000% Params, 3.42 MMac, 0.003% MACs, )
        )
        (bbox_reg): Conv2d(9.22 k, 0.027% Params, 123.02 MMac, 0.095% MACs, 256, 4, kernel_size=(3, 3), stride=(1, 1), padding=(1, 1))
        (bbox_ctrness): Conv2d(2.31 k, 0.007% Params, 30.76 MMac, 0.024% MACs, 256, 1, kernel_size=(3, 3), stride=(1, 1), padding=(1, 1))
      )
    )
    (transform): GeneralizedRCNNTransform(
        Normalize(mean=[0.485, 0.456, 0.406], std=[0.229, 0.224, 0.225])
        Resize(min_size=(800,), max_size=1333, mode='bilinear')
    )
  )
)
FLOPs: 129.62 GMac, Params: 33.63 M
Start training
/home/hslee/SONeck/vision/references/detection/engine.py:41: FutureWarning: `torch.cuda.amp.autocast(args...)` is deprecated. Please use `torch.amp.autocast('cuda', args...)` instead.
…
