…
index created!
Creating data loaders
Using [0, 0.5, 0.6299605249474366, 0.7937005259840997, 1.0, 1.2599210498948732, 1.5874010519681994, 2.0, inf] as bins for aspect ratio quantization
Count of instances per bin: [  104   982 24236  2332  8225 74466  5763  1158]
Creating model
model: DistributedDataParallel(
  (module): FasterRCNN(
    (transform): GeneralizedRCNNTransform(
        Normalize(mean=[0.485, 0.456, 0.406], std=[0.229, 0.224, 0.225])
        Resize(min_size=(800,), max_size=1333, mode='bilinear')
    )
    (backbone): BackboneWithFPN(
      (body): IntermediateLayerGetter(
        (conv1): Conv2d(3, 64, kernel_size=(7, 7), stride=(2, 2), padding=(3, 3), bias=False)
        (bn1): FrozenBatchNorm2d(64, eps=1e-05)
        (relu): ReLU(inplace=True)
        (maxpool): MaxPool2d(kernel_size=3, stride=2, padding=1, dilation=1, ceil_mode=False)
        (layer1): Sequential(
          (0): Bottleneck(
            (conv1): Conv2d(64, 64, kernel_size=(1, 1), stride=(1, 1), bias=False)
            (bn1): FrozenBatchNorm2d(64, eps=1e-05)
            (conv2): Conv2d(64, 64, kernel_size=(3, 3), stride=(1, 1), padding=(1, 1), bias=False)
            (bn2): FrozenBatchNorm2d(64, eps=1e-05)
            (conv3): Conv2d(64, 256, kernel_size=(1, 1), stride=(1, 1), bias=False)
            (bn3): FrozenBatchNorm2d(256, eps=1e-05)
            (relu): ReLU(inplace=True)
            (downsample): Sequential(
              (0): Conv2d(64, 256, kernel_size=(1, 1), stride=(1, 1), bias=False)
              (1): FrozenBatchNorm2d(256, eps=1e-05)
            )
          )
          (1): Bottleneck(
            (conv1): Conv2d(256, 64, kernel_size=(1, 1), stride=(1, 1), bias=False)
            (bn1): FrozenBatchNorm2d(64, eps=1e-05)
            (conv2): Conv2d(64, 64, kernel_size=(3, 3), stride=(1, 1), padding=(1, 1), bias=False)
            (bn2): FrozenBatchNorm2d(64, eps=1e-05)
            (conv3): Conv2d(64, 256, kernel_size=(1, 1), stride=(1, 1), bias=False)
            (bn3): FrozenBatchNorm2d(256, eps=1e-05)
            (relu): ReLU(inplace=True)
          )
          (2): Bottleneck(
            (conv1): Conv2d(256, 64, kernel_size=(1, 1), stride=(1, 1), bias=False)
            (bn1): FrozenBatchNorm2d(64, eps=1e-05)
            (conv2): Conv2d(64, 64, kernel_size=(3, 3), stride=(1, 1), padding=(1, 1), bias=False)
            (bn2): FrozenBatchNorm2d(64, eps=1e-05)
            (conv3): Conv2d(64, 256, kernel_size=(1, 1), stride=(1, 1), bias=False)
            (bn3): FrozenBatchNorm2d(256, eps=1e-05)
            (relu): ReLU(inplace=True)
          )
        )
        (layer2): Sequential(
          (0): Bottleneck(
            (conv1): Conv2d(256, 128, kernel_size=(1, 1), stride=(1, 1), bias=False)
            (bn1): FrozenBatchNorm2d(128, eps=1e-05)
            (conv2): Conv2d(128, 128, kernel_size=(3, 3), stride=(2, 2), padding=(1, 1), bias=False)
            (bn2): FrozenBatchNorm2d(128, eps=1e-05)
            (conv3): Conv2d(128, 512, kernel_size=(1, 1), stride=(1, 1), bias=False)
            (bn3): FrozenBatchNorm2d(512, eps=1e-05)
            (relu): ReLU(inplace=True)
            (downsample): Sequential(
              (0): Conv2d(256, 512, kernel_size=(1, 1), stride=(2, 2), bias=False)
              (1): FrozenBatchNorm2d(512, eps=1e-05)
            )
          )
          (1): Bottleneck(
            (conv1): Conv2d(512, 128, kernel_size=(1, 1), stride=(1, 1), bias=False)
            (bn1): FrozenBatchNorm2d(128, eps=1e-05)
            (conv2): Conv2d(128, 128, kernel_size=(3, 3), stride=(1, 1), padding=(1, 1), bias=False)
            (bn2): FrozenBatchNorm2d(128, eps=1e-05)
            (conv3): Conv2d(128, 512, kernel_size=(1, 1), stride=(1, 1), bias=False)
            (bn3): FrozenBatchNorm2d(512, eps=1e-05)
            (relu): ReLU(inplace=True)
          )
          (2): Bottleneck(
            (conv1): Conv2d(512, 128, kernel_size=(1, 1), stride=(1, 1), bias=False)
            (bn1): FrozenBatchNorm2d(128, eps=1e-05)
            (conv2): Conv2d(128, 128, kernel_size=(3, 3), stride=(1, 1), padding=(1, 1), bias=False)
            (bn2): FrozenBatchNorm2d(128, eps=1e-05)
            (conv3): Conv2d(128, 512, kernel_size=(1, 1), stride=(1, 1), bias=False)
            (bn3): FrozenBatchNorm2d(512, eps=1e-05)
            (relu): ReLU(inplace=True)
          )
          (3): Bottleneck(
            (conv1): Conv2d(512, 128, kernel_size=(1, 1), stride=(1, 1), bias=False)
            (bn1): FrozenBatchNorm2d(128, eps=1e-05)
            (conv2): Conv2d(128, 128, kernel_size=(3, 3), stride=(1, 1), padding=(1, 1), bias=False)
            (bn2): FrozenBatchNorm2d(128, eps=1e-05)
            (conv3): Conv2d(128, 512, kernel_size=(1, 1), stride=(1, 1), bias=False)
            (bn3): FrozenBatchNorm2d(512, eps=1e-05)
            (relu): ReLU(inplace=True)
          )
        )
        (layer3): Sequential(
          (0): Bottleneck(
            (conv1): Conv2d(512, 256, kernel_size=(1, 1), stride=(1, 1), bias=False)
            (bn1): FrozenBatchNorm2d(256, eps=1e-05)
            (conv2): Conv2d(256, 256, kernel_size=(3, 3), stride=(2, 2), padding=(1, 1), bias=False)
            (bn2): FrozenBatchNorm2d(256, eps=1e-05)
            (conv3): Conv2d(256, 1024, kernel_size=(1, 1), stride=(1, 1), bias=False)
            (bn3): FrozenBatchNorm2d(1024, eps=1e-05)
            (relu): ReLU(inplace=True)
            (downsample): Sequential(
              (0): Conv2d(512, 1024, kernel_size=(1, 1), stride=(2, 2), bias=False)
              (1): FrozenBatchNorm2d(1024, eps=1e-05)
            )
          )
          (1): Bottleneck(
            (conv1): Conv2d(1024, 256, kernel_size=(1, 1), stride=(1, 1), bias=False)
            (bn1): FrozenBatchNorm2d(256, eps=1e-05)
            (conv2): Conv2d(256, 256, kernel_size=(3, 3), stride=(1, 1), padding=(1, 1), bias=False)
            (bn2): FrozenBatchNorm2d(256, eps=1e-05)
            (conv3): Conv2d(256, 1024, kernel_size=(1, 1), stride=(1, 1), bias=False)
            (bn3): FrozenBatchNorm2d(1024, eps=1e-05)
            (relu): ReLU(inplace=True)
          )
          (2): Bottleneck(
            (conv1): Conv2d(1024, 256, kernel_size=(1, 1), stride=(1, 1), bias=False)
            (bn1): FrozenBatchNorm2d(256, eps=1e-05)
            (conv2): Conv2d(256, 256, kernel_size=(3, 3), stride=(1, 1), padding=(1, 1), bias=False)
            (bn2): FrozenBatchNorm2d(256, eps=1e-05)
            (conv3): Conv2d(256, 1024, kernel_size=(1, 1), stride=(1, 1), bias=False)
            (bn3): FrozenBatchNorm2d(1024, eps=1e-05)
            (relu): ReLU(inplace=True)
          )
          (3): Bottleneck(
            (conv1): Conv2d(1024, 256, kernel_size=(1, 1), stride=(1, 1), bias=False)
            (bn1): FrozenBatchNorm2d(256, eps=1e-05)
            (conv2): Conv2d(256, 256, kernel_size=(3, 3), stride=(1, 1), padding=(1, 1), bias=False)
            (bn2): FrozenBatchNorm2d(256, eps=1e-05)
            (conv3): Conv2d(256, 1024, kernel_size=(1, 1), stride=(1, 1), bias=False)
            (bn3): FrozenBatchNorm2d(1024, eps=1e-05)
            (relu): ReLU(inplace=True)
          )
          (4): Bottleneck(
            (conv1): Conv2d(1024, 256, kernel_size=(1, 1), stride=(1, 1), bias=False)
            (bn1): FrozenBatchNorm2d(256, eps=1e-05)
            (conv2): Conv2d(256, 256, kernel_size=(3, 3), stride=(1, 1), padding=(1, 1), bias=False)
            (bn2): FrozenBatchNorm2d(256, eps=1e-05)
            (conv3): Conv2d(256, 1024, kernel_size=(1, 1), stride=(1, 1), bias=False)
            (bn3): FrozenBatchNorm2d(1024, eps=1e-05)
            (relu): ReLU(inplace=True)
          )
          (5): Bottleneck(
            (conv1): Conv2d(1024, 256, kernel_size=(1, 1), stride=(1, 1), bias=False)
            (bn1): FrozenBatchNorm2d(256, eps=1e-05)
            (conv2): Conv2d(256, 256, kernel_size=(3, 3), stride=(1, 1), padding=(1, 1), bias=False)
            (bn2): FrozenBatchNorm2d(256, eps=1e-05)
            (conv3): Conv2d(256, 1024, kernel_size=(1, 1), stride=(1, 1), bias=False)
            (bn3): FrozenBatchNorm2d(1024, eps=1e-05)
            (relu): ReLU(inplace=True)
          )
        )
        (layer4): Sequential(
          (0): Bottleneck(
            (conv1): Conv2d(1024, 512, kernel_size=(1, 1), stride=(1, 1), bias=False)
            (bn1): FrozenBatchNorm2d(512, eps=1e-05)
            (conv2): Conv2d(512, 512, kernel_size=(3, 3), stride=(2, 2), padding=(1, 1), bias=False)
            (bn2): FrozenBatchNorm2d(512, eps=1e-05)
            (conv3): Conv2d(512, 2048, kernel_size=(1, 1), stride=(1, 1), bias=False)
            (bn3): FrozenBatchNorm2d(2048, eps=1e-05)
            (relu): ReLU(inplace=True)
            (downsample): Sequential(
              (0): Conv2d(1024, 2048, kernel_size=(1, 1), stride=(2, 2), bias=False)
              (1): FrozenBatchNorm2d(2048, eps=1e-05)
            )
          )
          (1): Bottleneck(
            (conv1): Conv2d(2048, 512, kernel_size=(1, 1), stride=(1, 1), bias=False)
            (bn1): FrozenBatchNorm2d(512, eps=1e-05)
            (conv2): Conv2d(512, 512, kernel_size=(3, 3), stride=(1, 1), padding=(1, 1), bias=False)
            (bn2): FrozenBatchNorm2d(512, eps=1e-05)
            (conv3): Conv2d(512, 2048, kernel_size=(1, 1), stride=(1, 1), bias=False)
            (bn3): FrozenBatchNorm2d(2048, eps=1e-05)
            (relu): ReLU(inplace=True)
          )
          (2): Bottleneck(
            (conv1): Conv2d(2048, 512, kernel_size=(1, 1), stride=(1, 1), bias=False)
            (bn1): FrozenBatchNorm2d(512, eps=1e-05)
            (conv2): Conv2d(512, 512, kernel_size=(3, 3), stride=(1, 1), padding=(1, 1), bias=False)
            (bn2): FrozenBatchNorm2d(512, eps=1e-05)
            (conv3): Conv2d(512, 2048, kernel_size=(1, 1), stride=(1, 1), bias=False)
            (bn3): FrozenBatchNorm2d(2048, eps=1e-05)
            (relu): ReLU(inplace=True)
          )
        )
      )
      (fpn): FeaturePyramidNetwork(
        (inner_blocks): ModuleList(
          (0): Conv2dNormActivation(
            (0): Conv2d(256, 256, kernel_size=(1, 1), stride=(1, 1))
          )
          (1): Conv2dNormActivation(
            (0): Conv2d(512, 256, kernel_size=(1, 1), stride=(1, 1))
          )
          (2): Conv2dNormActivation(
            (0): Conv2d(1024, 256, kernel_size=(1, 1), stride=(1, 1))
          )
          (3): Conv2dNormActivation(
            (0): Conv2d(2048, 256, kernel_size=(1, 1), stride=(1, 1))
          )
        )
        (layer_blocks): ModuleList(
          (0-3): 4 x Conv2dNormActivation(
            (0): Conv2d(256, 256, kernel_size=(3, 3), stride=(1, 1), padding=(1, 1))
          )
        )
        (sni): SNI(
          (us): Upsample(scale_factor=2.0, mode='nearest')
        )
        (extra_blocks): LastLevelMaxPool()
      )
    )
    (rpn): RegionProposalNetwork(
      (anchor_generator): AnchorGenerator()
      (head): RPNHead(
        (conv): Sequential(
          (0): Conv2dNormActivation(
            (0): Conv2d(256, 256, kernel_size=(3, 3), stride=(1, 1), padding=(1, 1))
            (1): ReLU(inplace=True)
          )
        )
        (cls_logits): Conv2d(256, 3, kernel_size=(1, 1), stride=(1, 1))
        (bbox_pred): Conv2d(256, 12, kernel_size=(1, 1), stride=(1, 1))
      )
    )
    (roi_heads): RoIHeads(
      (box_roi_pool): MultiScaleRoIAlign(featmap_names=['0', '1', '2', '3'], output_size=(7, 7), sampling_ratio=2)
      (box_head): TwoMLPHead(
        (fc6): Linear(in_features=12544, out_features=1024, bias=True)
        (fc7): Linear(in_features=1024, out_features=1024, bias=True)
      )
      (box_predictor): FastRCNNPredictor(
        (cls_score): Linear(in_features=1024, out_features=91, bias=True)
        (bbox_pred): Linear(in_features=1024, out_features=364, bias=True)
      )
    )
  )
)
Warning: module GeneralizedRCNNTransform is treated as a zero-op.
Warning: module FrozenBatchNorm2d is treated as a zero-op.
Warning: module Bottleneck is treated as a zero-op.
Warning: module IntermediateLayerGetter is treated as a zero-op.
Warning: module Conv2dNormActivation is treated as a zero-op.
Warning: module SNI is treated as a zero-op.
…
Warning: module DistributedDataParallel is treated as a zero-op.
DistributedDataParallel(
  41.53 M, 100.000% Params, 134.58 GMac, 99.878% MACs, 
  (module): FasterRCNN(
    41.53 M, 100.000% Params, 134.58 GMac, 99.878% MACs, 
    (transform): GeneralizedRCNNTransform(
        Normalize(mean=[0.485, 0.456, 0.406], std=[0.229, 0.224, 0.225])
        Resize(min_size=(800,), max_size=1333, mode='bilinear')
    )
    (backbone): BackboneWithFPN(
      26.58 M, 63.990% Params, 88.55 GMac, 65.719% MACs, 
      (body): IntermediateLayerGetter(
        23.23 M, 55.938% Params, 52.26 GMac, 38.787% MACs, 
        (conv1): Conv2d(0, 0.000% Params, 1.51 GMac, 1.117% MACs, 3, 64, kernel_size=(7, 7), stride=(2, 2), padding=(3, 3), bias=False)
        (bn1): FrozenBatchNorm2d(64, eps=1e-05)
        (relu): ReLU(0, 0.000% Params, 10.24 MMac, 0.008% MACs, inplace=True)
        (maxpool): MaxPool2d(0, 0.000% Params, 10.24 MMac, 0.008% MACs, kernel_size=3, stride=2, padding=1, dilation=1, ceil_mode=False)
        (layer1): Sequential(
          0, 0.000% Params, 8.57 GMac, 6.357% MACs, 
          (0): Bottleneck(
            0, 0.000% Params, 2.96 GMac, 2.200% MACs, 
            (conv1): Conv2d(0, 0.000% Params, 163.84 MMac, 0.122% MACs, 64, 64, kernel_size=(1, 1), stride=(1, 1), bias=False)
            (bn1): FrozenBatchNorm2d(64, eps=1e-05)
            (conv2): Conv2d(0, 0.000% Params, 1.47 GMac, 1.094% MACs, 64, 64, kernel_size=(3, 3), stride=(1, 1), padding=(1, 1), bias=False)
            (bn2): FrozenBatchNorm2d(64, eps=1e-05)
            (conv3): Conv2d(0, 0.000% Params, 655.36 MMac, 0.486% MACs, 64, 256, kernel_size=(1, 1), stride=(1, 1), bias=False)
            (bn3): FrozenBatchNorm2d(256, eps=1e-05)
            (relu): ReLU(0, 0.000% Params, 15.36 MMac, 0.011% MACs, inplace=True)
            (downsample): Sequential(
              0, 0.000% Params, 655.36 MMac, 0.486% MACs, 
              (0): Conv2d(0, 0.000% Params, 655.36 MMac, 0.486% MACs, 64, 256, kernel_size=(1, 1), stride=(1, 1), bias=False)
              (1): FrozenBatchNorm2d(256, eps=1e-05)
            )
          )
          (1): Bottleneck(
            0, 0.000% Params, 2.8 GMac, 2.078% MACs, 
            (conv1): Conv2d(0, 0.000% Params, 655.36 MMac, 0.486% MACs, 256, 64, kernel_size=(1, 1), stride=(1, 1), bias=False)
            (bn1): FrozenBatchNorm2d(64, eps=1e-05)
            (conv2): Conv2d(0, 0.000% Params, 1.47 GMac, 1.094% MACs, 64, 64, kernel_size=(3, 3), stride=(1, 1), padding=(1, 1), bias=False)
            (bn2): FrozenBatchNorm2d(64, eps=1e-05)
            (conv3): Conv2d(0, 0.000% Params, 655.36 MMac, 0.486% MACs, 64, 256, kernel_size=(1, 1), stride=(1, 1), bias=False)
            (bn3): FrozenBatchNorm2d(256, eps=1e-05)
            (relu): ReLU(0, 0.000% Params, 15.36 MMac, 0.011% MACs, inplace=True)
          )
          (2): Bottleneck(
            0, 0.000% Params, 2.8 GMac, 2.078% MACs, 
            (conv1): Conv2d(0, 0.000% Params, 655.36 MMac, 0.486% MACs, 256, 64, kernel_size=(1, 1), stride=(1, 1), bias=False)
            (bn1): FrozenBatchNorm2d(64, eps=1e-05)
            (conv2): Conv2d(0, 0.000% Params, 1.47 GMac, 1.094% MACs, 64, 64, kernel_size=(3, 3), stride=(1, 1), padding=(1, 1), bias=False)
            (bn2): FrozenBatchNorm2d(64, eps=1e-05)
            (conv3): Conv2d(0, 0.000% Params, 655.36 MMac, 0.486% MACs, 64, 256, kernel_size=(1, 1), stride=(1, 1), bias=False)
            (bn3): FrozenBatchNorm2d(256, eps=1e-05)
            (relu): ReLU(0, 0.000% Params, 15.36 MMac, 0.011% MACs, inplace=True)
          )
        )
        (layer2): Sequential(
          1.21 M, 2.919% Params, 13.14 GMac, 9.753% MACs, 
          (0): Bottleneck(
            376.83 k, 0.907% Params, 4.76 GMac, 3.535% MACs, 
            (conv1): Conv2d(32.77 k, 0.079% Params, 1.31 GMac, 0.973% MACs, 256, 128, kernel_size=(1, 1), stride=(1, 1), bias=False)
            (bn1): FrozenBatchNorm2d(128, eps=1e-05)
            (conv2): Conv2d(147.46 k, 0.355% Params, 1.47 GMac, 1.094% MACs, 128, 128, kernel_size=(3, 3), stride=(2, 2), padding=(1, 1), bias=False)
            (bn2): FrozenBatchNorm2d(128, eps=1e-05)
            (conv3): Conv2d(65.54 k, 0.158% Params, 655.36 MMac, 0.486% MACs, 128, 512, kernel_size=(1, 1), stride=(1, 1), bias=False)
            (bn3): FrozenBatchNorm2d(512, eps=1e-05)
            (relu): ReLU(0, 0.000% Params, 11.52 MMac, 0.009% MACs, inplace=True)
            (downsample): Sequential(
              131.07 k, 0.316% Params, 1.31 GMac, 0.973% MACs, 
              (0): Conv2d(131.07 k, 0.316% Params, 1.31 GMac, 0.973% MACs, 256, 512, kernel_size=(1, 1), stride=(2, 2), bias=False)
              (1): FrozenBatchNorm2d(512, eps=1e-05)
            )
          )
          (1): Bottleneck(
            278.53 k, 0.671% Params, 2.79 GMac, 2.073% MACs, 
            (conv1): Conv2d(65.54 k, 0.158% Params, 655.36 MMac, 0.486% MACs, 512, 128, kernel_size=(1, 1), stride=(1, 1), bias=False)
            (bn1): FrozenBatchNorm2d(128, eps=1e-05)
            (conv2): Conv2d(147.46 k, 0.355% Params, 1.47 GMac, 1.094% MACs, 128, 128, kernel_size=(3, 3), stride=(1, 1), padding=(1, 1), bias=False)
            (bn2): FrozenBatchNorm2d(128, eps=1e-05)
            (conv3): Conv2d(65.54 k, 0.158% Params, 655.36 MMac, 0.486% MACs, 128, 512, kernel_size=(1, 1), stride=(1, 1), bias=False)
            (bn3): FrozenBatchNorm2d(512, eps=1e-05)
            (relu): ReLU(0, 0.000% Params, 7.68 MMac, 0.006% MACs, inplace=True)
          )
          (2): Bottleneck(
            278.53 k, 0.671% Params, 2.79 GMac, 2.073% MACs, 
            (conv1): Conv2d(65.54 k, 0.158% Params, 655.36 MMac, 0.486% MACs, 512, 128, kernel_size=(1, 1), stride=(1, 1), bias=False)
            (bn1): FrozenBatchNorm2d(128, eps=1e-05)
            (conv2): Conv2d(147.46 k, 0.355% Params, 1.47 GMac, 1.094% MACs, 128, 128, kernel_size=(3, 3), stride=(1, 1), padding=(1, 1), bias=False)
            (bn2): FrozenBatchNorm2d(128, eps=1e-05)
            (conv3): Conv2d(65.54 k, 0.158% Params, 655.36 MMac, 0.486% MACs, 128, 512, kernel_size=(1, 1), stride=(1, 1), bias=False)
            (bn3): FrozenBatchNorm2d(512, eps=1e-05)
            (relu): ReLU(0, 0.000% Params, 7.68 MMac, 0.006% MACs, inplace=True)
          )
          (3): Bottleneck(
            278.53 k, 0.671% Params, 2.79 GMac, 2.073% MACs, 
            (conv1): Conv2d(65.54 k, 0.158% Params, 655.36 MMac, 0.486% MACs, 512, 128, kernel_size=(1, 1), stride=(1, 1), bias=False)
            (bn1): FrozenBatchNorm2d(128, eps=1e-05)
            (conv2): Conv2d(147.46 k, 0.355% Params, 1.47 GMac, 1.094% MACs, 128, 128, kernel_size=(3, 3), stride=(1, 1), padding=(1, 1), bias=False)
            (bn2): FrozenBatchNorm2d(128, eps=1e-05)
            (conv3): Conv2d(65.54 k, 0.158% Params, 655.36 MMac, 0.486% MACs, 128, 512, kernel_size=(1, 1), stride=(1, 1), bias=False)
            (bn3): FrozenBatchNorm2d(512, eps=1e-05)
            (relu): ReLU(0, 0.000% Params, 7.68 MMac, 0.006% MACs, inplace=True)
          )
        )
        (layer3): Sequential(
          7.08 M, 17.042% Params, 18.7 GMac, 13.880% MACs, 
          (0): Bottleneck(
            1.51 M, 3.629% Params, 4.76 GMac, 3.530% MACs, 
            (conv1): Conv2d(131.07 k, 0.316% Params, 1.31 GMac, 0.973% MACs, 512, 256, kernel_size=(1, 1), stride=(1, 1), bias=False)
            (bn1): FrozenBatchNorm2d(256, eps=1e-05)
            (conv2): Conv2d(589.82 k, 1.420% Params, 1.47 GMac, 1.094% MACs, 256, 256, kernel_size=(3, 3), stride=(2, 2), padding=(1, 1), bias=False)
            (bn2): FrozenBatchNorm2d(256, eps=1e-05)
            (conv3): Conv2d(262.14 k, 0.631% Params, 655.36 MMac, 0.486% MACs, 256, 1024, kernel_size=(1, 1), stride=(1, 1), bias=False)
            (bn3): FrozenBatchNorm2d(1024, eps=1e-05)
            (relu): ReLU(0, 0.000% Params, 5.76 MMac, 0.004% MACs, inplace=True)
            (downsample): Sequential(
              524.29 k, 1.262% Params, 1.31 GMac, 0.973% MACs, 
              (0): Conv2d(524.29 k, 1.262% Params, 1.31 GMac, 0.973% MACs, 512, 1024, kernel_size=(1, 1), stride=(2, 2), bias=False)
              (1): FrozenBatchNorm2d(1024, eps=1e-05)
            )
          )
          (1): Bottleneck(
            1.11 M, 2.682% Params, 2.79 GMac, 2.070% MACs, 
            (conv1): Conv2d(262.14 k, 0.631% Params, 655.36 MMac, 0.486% MACs, 1024, 256, kernel_size=(1, 1), stride=(1, 1), bias=False)
            (bn1): FrozenBatchNorm2d(256, eps=1e-05)
            (conv2): Conv2d(589.82 k, 1.420% Params, 1.47 GMac, 1.094% MACs, 256, 256, kernel_size=(3, 3), stride=(1, 1), padding=(1, 1), bias=False)
            (bn2): FrozenBatchNorm2d(256, eps=1e-05)
            (conv3): Conv2d(262.14 k, 0.631% Params, 655.36 MMac, 0.486% MACs, 256, 1024, kernel_size=(1, 1), stride=(1, 1), bias=False)
            (bn3): FrozenBatchNorm2d(1024, eps=1e-05)
            (relu): ReLU(0, 0.000% Params, 3.84 MMac, 0.003% MACs, inplace=True)
          )
          (2): Bottleneck(
            1.11 M, 2.682% Params, 2.79 GMac, 2.070% MACs, 
            (conv1): Conv2d(262.14 k, 0.631% Params, 655.36 MMac, 0.486% MACs, 1024, 256, kernel_size=(1, 1), stride=(1, 1), bias=False)
            (bn1): FrozenBatchNorm2d(256, eps=1e-05)
            (conv2): Conv2d(589.82 k, 1.420% Params, 1.47 GMac, 1.094% MACs, 256, 256, kernel_size=(3, 3), stride=(1, 1), padding=(1, 1), bias=False)
            (bn2): FrozenBatchNorm2d(256, eps=1e-05)
            (conv3): Conv2d(262.14 k, 0.631% Params, 655.36 MMac, 0.486% MACs, 256, 1024, kernel_size=(1, 1), stride=(1, 1), bias=False)
            (bn3): FrozenBatchNorm2d(1024, eps=1e-05)
            (relu): ReLU(0, 0.000% Params, 3.84 MMac, 0.003% MACs, inplace=True)
          )
          (3): Bottleneck(
            1.11 M, 2.682% Params, 2.79 GMac, 2.070% MACs, 
            (conv1): Conv2d(262.14 k, 0.631% Params, 655.36 MMac, 0.486% MACs, 1024, 256, kernel_size=(1, 1), stride=(1, 1), bias=False)
            (bn1): FrozenBatchNorm2d(256, eps=1e-05)
            (conv2): Conv2d(589.82 k, 1.420% Params, 1.47 GMac, 1.094% MACs, 256, 256, kernel_size=(3, 3), stride=(1, 1), padding=(1, 1), bias=False)
            (bn2): FrozenBatchNorm2d(256, eps=1e-05)
            (conv3): Conv2d(262.14 k, 0.631% Params, 655.36 MMac, 0.486% MACs, 256, 1024, kernel_size=(1, 1), stride=(1, 1), bias=False)
            (bn3): FrozenBatchNorm2d(1024, eps=1e-05)
            (relu): ReLU(0, 0.000% Params, 3.84 MMac, 0.003% MACs, inplace=True)
          )
          (4): Bottleneck(
            1.11 M, 2.682% Params, 2.79 GMac, 2.070% MACs, 
            (conv1): Conv2d(262.14 k, 0.631% Params, 655.36 MMac, 0.486% MACs, 1024, 256, kernel_size=(1, 1), stride=(1, 1), bias=False)
            (bn1): FrozenBatchNorm2d(256, eps=1e-05)
            (conv2): Conv2d(589.82 k, 1.420% Params, 1.47 GMac, 1.094% MACs, 256, 256, kernel_size=(3, 3), stride=(1, 1), padding=(1, 1), bias=False)
            (bn2): FrozenBatchNorm2d(256, eps=1e-05)
            (conv3): Conv2d(262.14 k, 0.631% Params, 655.36 MMac, 0.486% MACs, 256, 1024, kernel_size=(1, 1), stride=(1, 1), bias=False)
            (bn3): FrozenBatchNorm2d(1024, eps=1e-05)
            (relu): ReLU(0, 0.000% Params, 3.84 MMac, 0.003% MACs, inplace=True)
          )
          (5): Bottleneck(
            1.11 M, 2.682% Params, 2.79 GMac, 2.070% MACs, 
            (conv1): Conv2d(262.14 k, 0.631% Params, 655.36 MMac, 0.486% MACs, 1024, 256, kernel_size=(1, 1), stride=(1, 1), bias=False)
            (bn1): FrozenBatchNorm2d(256, eps=1e-05)
            (conv2): Conv2d(589.82 k, 1.420% Params, 1.47 GMac, 1.094% MACs, 256, 256, kernel_size=(3, 3), stride=(1, 1), padding=(1, 1), bias=False)
            (bn2): FrozenBatchNorm2d(256, eps=1e-05)
            (conv3): Conv2d(262.14 k, 0.631% Params, 655.36 MMac, 0.486% MACs, 256, 1024, kernel_size=(1, 1), stride=(1, 1), bias=False)
            (bn3): FrozenBatchNorm2d(1024, eps=1e-05)
            (relu): ReLU(0, 0.000% Params, 3.84 MMac, 0.003% MACs, inplace=True)
          )
        )
        (layer4): Sequential(
          14.94 M, 35.977% Params, 10.33 GMac, 7.665% MACs, 
          (0): Bottleneck(
            6.03 M, 14.517% Params, 4.75 GMac, 3.528% MACs, 
            (conv1): Conv2d(524.29 k, 1.262% Params, 1.31 GMac, 0.973% MACs, 1024, 512, kernel_size=(1, 1), stride=(1, 1), bias=False)
            (bn1): FrozenBatchNorm2d(512, eps=1e-05)
            (conv2): Conv2d(2.36 M, 5.681% Params, 1.47 GMac, 1.094% MACs, 512, 512, kernel_size=(3, 3), stride=(2, 2), padding=(1, 1), bias=False)
            (bn2): FrozenBatchNorm2d(512, eps=1e-05)
            (conv3): Conv2d(1.05 M, 2.525% Params, 655.36 MMac, 0.486% MACs, 512, 2048, kernel_size=(1, 1), stride=(1, 1), bias=False)
            (bn3): FrozenBatchNorm2d(2048, eps=1e-05)
            (relu): ReLU(0, 0.000% Params, 2.88 MMac, 0.002% MACs, inplace=True)
            (downsample): Sequential(
              2.1 M, 5.049% Params, 1.31 GMac, 0.973% MACs, 
              (0): Conv2d(2.1 M, 5.049% Params, 1.31 GMac, 0.973% MACs, 1024, 2048, kernel_size=(1, 1), stride=(2, 2), bias=False)
              (1): FrozenBatchNorm2d(2048, eps=1e-05)
            )
          )
          (1): Bottleneck(
            4.46 M, 10.730% Params, 2.79 GMac, 2.068% MACs, 
            (conv1): Conv2d(1.05 M, 2.525% Params, 655.36 MMac, 0.486% MACs, 2048, 512, kernel_size=(1, 1), stride=(1, 1), bias=False)
            (bn1): FrozenBatchNorm2d(512, eps=1e-05)
            (conv2): Conv2d(2.36 M, 5.681% Params, 1.47 GMac, 1.094% MACs, 512, 512, kernel_size=(3, 3), stride=(1, 1), padding=(1, 1), bias=False)
            (bn2): FrozenBatchNorm2d(512, eps=1e-05)
            (conv3): Conv2d(1.05 M, 2.525% Params, 655.36 MMac, 0.486% MACs, 512, 2048, kernel_size=(1, 1), stride=(1, 1), bias=False)
            (bn3): FrozenBatchNorm2d(2048, eps=1e-05)
            (relu): ReLU(0, 0.000% Params, 1.92 MMac, 0.001% MACs, inplace=True)
          )
          (2): Bottleneck(
            4.46 M, 10.730% Params, 2.79 GMac, 2.068% MACs, 
            (conv1): Conv2d(1.05 M, 2.525% Params, 655.36 MMac, 0.486% MACs, 2048, 512, kernel_size=(1, 1), stride=(1, 1), bias=False)
            (bn1): FrozenBatchNorm2d(512, eps=1e-05)
            (conv2): Conv2d(2.36 M, 5.681% Params, 1.47 GMac, 1.094% MACs, 512, 512, kernel_size=(3, 3), stride=(1, 1), padding=(1, 1), bias=False)
            (bn2): FrozenBatchNorm2d(512, eps=1e-05)
            (conv3): Conv2d(1.05 M, 2.525% Params, 655.36 MMac, 0.486% MACs, 512, 2048, kernel_size=(1, 1), stride=(1, 1), bias=False)
            (bn3): FrozenBatchNorm2d(2048, eps=1e-05)
            (relu): ReLU(0, 0.000% Params, 1.92 MMac, 0.001% MACs, inplace=True)
          )
        )
      )
      (fpn): FeaturePyramidNetwork(
        3.34 M, 8.052% Params, 36.29 GMac, 26.932% MACs, 
        (inner_blocks): ModuleList(
          (0): Conv2dNormActivation(
            65.79 k, 0.158% Params, 2.63 GMac, 1.953% MACs, 
            (0): Conv2d(65.79 k, 0.158% Params, 2.63 GMac, 1.953% MACs, 256, 256, kernel_size=(1, 1), stride=(1, 1))
          )
          (1): Conv2dNormActivation(
            131.33 k, 0.316% Params, 1.31 GMac, 0.975% MACs, 
            (0): Conv2d(131.33 k, 0.316% Params, 1.31 GMac, 0.975% MACs, 512, 256, kernel_size=(1, 1), stride=(1, 1))
          )
          (2): Conv2dNormActivation(
            262.4 k, 0.632% Params, 656.0 MMac, 0.487% MACs, 
            (0): Conv2d(262.4 k, 0.632% Params, 656.0 MMac, 0.487% MACs, 1024, 256, kernel_size=(1, 1), stride=(1, 1))
          )
          (3): Conv2dNormActivation(
            524.54 k, 1.263% Params, 327.84 MMac, 0.243% MACs, 
            (0): Conv2d(524.54 k, 1.263% Params, 327.84 MMac, 0.243% MACs, 2048, 256, kernel_size=(1, 1), stride=(1, 1))
          )
        )
        (layer_blocks): ModuleList(
          (0): Conv2dNormActivation(
            590.08 k, 1.421% Params, 23.6 GMac, 17.517% MACs, 
            (0): Conv2d(590.08 k, 1.421% Params, 23.6 GMac, 17.517% MACs, 256, 256, kernel_size=(3, 3), stride=(1, 1), padding=(1, 1))
          )
          (1): Conv2dNormActivation(
            590.08 k, 1.421% Params, 5.9 GMac, 4.379% MACs, 
            (0): Conv2d(590.08 k, 1.421% Params, 5.9 GMac, 4.379% MACs, 256, 256, kernel_size=(3, 3), stride=(1, 1), padding=(1, 1))
          )
          (2): Conv2dNormActivation(
            590.08 k, 1.421% Params, 1.48 GMac, 1.095% MACs, 
            (0): Conv2d(590.08 k, 1.421% Params, 1.48 GMac, 1.095% MACs, 256, 256, kernel_size=(3, 3), stride=(1, 1), padding=(1, 1))
          )
          (3): Conv2dNormActivation(
            590.08 k, 1.421% Params, 368.8 MMac, 0.274% MACs, 
            (0): Conv2d(590.08 k, 1.421% Params, 368.8 MMac, 0.274% MACs, 256, 256, kernel_size=(3, 3), stride=(1, 1), padding=(1, 1))
          )
        )
        (sni): SNI(
          0, 0.000% Params, 13.44 MMac, 0.010% MACs, 
          (us): Upsample(0, 0.000% Params, 13.44 MMac, 0.010% MACs, scale_factor=2.0, mode='nearest')
        )
        (extra_blocks): LastLevelMaxPool(0, 0.000% Params, 0.0 Mac, 0.000% MACs, )
      )
    )
    (rpn): RegionProposalNetwork(
      593.93 k, 1.430% Params, 31.67 GMac, 23.501% MACs, 
      (anchor_generator): AnchorGenerator(0, 0.000% Params, 0.0 Mac, 0.000% MACs, )
      (head): RPNHead(
        593.93 k, 1.430% Params, 31.67 GMac, 23.501% MACs, 
        (conv): Sequential(
          590.08 k, 1.421% Params, 31.46 GMac, 23.348% MACs, 
          (0): Conv2dNormActivation(
            590.08 k, 1.421% Params, 31.46 GMac, 23.348% MACs, 
            (0): Conv2d(590.08 k, 1.421% Params, 31.45 GMac, 23.338% MACs, 256, 256, kernel_size=(3, 3), stride=(1, 1), padding=(1, 1))
            (1): ReLU(0, 0.000% Params, 13.64 MMac, 0.010% MACs, inplace=True)
          )
        )
        (cls_logits): Conv2d(771, 0.002% Params, 41.09 MMac, 0.030% MACs, 256, 3, kernel_size=(1, 1), stride=(1, 1))
        (bbox_pred): Conv2d(3.08 k, 0.007% Params, 164.36 MMac, 0.122% MACs, 256, 12, kernel_size=(1, 1), stride=(1, 1))
      )
    )
    (roi_heads): RoIHeads(
      14.36 M, 34.580% Params, 14.36 GMac, 10.658% MACs, 
      (box_roi_pool): MultiScaleRoIAlign(featmap_names=['0', '1', '2', '3'], output_size=(7, 7), sampling_ratio=2)
      (box_head): TwoMLPHead(
        13.9 M, 33.457% Params, 13.9 GMac, 10.312% MACs, 
        (fc6): Linear(12.85 M, 30.930% Params, 12.85 GMac, 9.533% MACs, in_features=12544, out_features=1024, bias=True)
        (fc7): Linear(1.05 M, 2.527% Params, 1.05 GMac, 0.779% MACs, in_features=1024, out_features=1024, bias=True)
      )
      (box_predictor): FastRCNNPredictor(
        466.38 k, 1.123% Params, 466.38 MMac, 0.346% MACs, 
        (cls_score): Linear(93.28 k, 0.225% Params, 93.28 MMac, 0.069% MACs, in_features=1024, out_features=91, bias=True)
        (bbox_pred): Linear(373.1 k, 0.898% Params, 373.1 MMac, 0.277% MACs, in_features=1024, out_features=364, bias=True)
      )
    )
  )
)
FLOPs: 134.75 GMac, Params: 41.53 M
Start training
/home/hslee/SONeck/vision/references/detection/engine.py:41: FutureWarning: `torch.cuda.amp.autocast(args...)` is deprecated. Please use `torch.amp.autocast('cuda', args...)` instead.
  with torch.cuda.amp.autocast(enabled=scaler is not None):
…
