…
Loading data
loading annotations into memory...
Done (t=5.07s)
creating index...
index created!
loading annotations into memory...
Done (t=1.42s)
creating index...
index created!
Creating data loaders
Using [0, 0.5, 0.6299605249474366, 0.7937005259840997, 1.0, 1.2599210498948732, 1.5874010519681994, 2.0, inf] as bins for aspect ratio quantization
Count of instances per bin: [  104   982 24236  2332  8225 74466  5763  1158]
Creating model
len(in_channels_list): 3
model: DistributedDataParallel(
  (module): RetinaNet(
    (backbone): BackboneWithFPN(
      (body): IntermediateLayerGetter(
        (conv1): Conv2d(3, 64, kernel_size=(7, 7), stride=(2, 2), padding=(3, 3), bias=False)
        (bn1): FrozenBatchNorm2d(64, eps=1e-05)
        (relu): ReLU(inplace=True)
        (maxpool): MaxPool2d(kernel_size=3, stride=2, padding=1, dilation=1, ceil_mode=False)
        (layer1): Sequential(
          (0): Bottleneck(
            (conv1): Conv2d(64, 64, kernel_size=(1, 1), stride=(1, 1), bias=False)
            (bn1): FrozenBatchNorm2d(64, eps=1e-05)
            (conv2): Conv2d(64, 64, kernel_size=(3, 3), stride=(1, 1), padding=(1, 1), bias=False)
            (bn2): FrozenBatchNorm2d(64, eps=1e-05)
            (conv3): Conv2d(64, 256, kernel_size=(1, 1), stride=(1, 1), bias=False)
            (bn3): FrozenBatchNorm2d(256, eps=1e-05)
            (relu): ReLU(inplace=True)
            (downsample): Sequential(
              (0): Conv2d(64, 256, kernel_size=(1, 1), stride=(1, 1), bias=False)
              (1): FrozenBatchNorm2d(256, eps=1e-05)
            )
          )
          (1): Bottleneck(
            (conv1): Conv2d(256, 64, kernel_size=(1, 1), stride=(1, 1), bias=False)
            (bn1): FrozenBatchNorm2d(64, eps=1e-05)
            (conv2): Conv2d(64, 64, kernel_size=(3, 3), stride=(1, 1), padding=(1, 1), bias=False)
            (bn2): FrozenBatchNorm2d(64, eps=1e-05)
            (conv3): Conv2d(64, 256, kernel_size=(1, 1), stride=(1, 1), bias=False)
            (bn3): FrozenBatchNorm2d(256, eps=1e-05)
            (relu): ReLU(inplace=True)
          )
          (2): Bottleneck(
            (conv1): Conv2d(256, 64, kernel_size=(1, 1), stride=(1, 1), bias=False)
            (bn1): FrozenBatchNorm2d(64, eps=1e-05)
            (conv2): Conv2d(64, 64, kernel_size=(3, 3), stride=(1, 1), padding=(1, 1), bias=False)
            (bn2): FrozenBatchNorm2d(64, eps=1e-05)
            (conv3): Conv2d(64, 256, kernel_size=(1, 1), stride=(1, 1), bias=False)
            (bn3): FrozenBatchNorm2d(256, eps=1e-05)
            (relu): ReLU(inplace=True)
          )
        )
        (layer2): Sequential(
          (0): Bottleneck(
            (conv1): Conv2d(256, 128, kernel_size=(1, 1), stride=(1, 1), bias=False)
            (bn1): FrozenBatchNorm2d(128, eps=1e-05)
            (conv2): Conv2d(128, 128, kernel_size=(3, 3), stride=(2, 2), padding=(1, 1), bias=False)
            (bn2): FrozenBatchNorm2d(128, eps=1e-05)
            (conv3): Conv2d(128, 512, kernel_size=(1, 1), stride=(1, 1), bias=False)
            (bn3): FrozenBatchNorm2d(512, eps=1e-05)
            (relu): ReLU(inplace=True)
            (downsample): Sequential(
              (0): Conv2d(256, 512, kernel_size=(1, 1), stride=(2, 2), bias=False)
              (1): FrozenBatchNorm2d(512, eps=1e-05)
            )
          )
          (1): Bottleneck(
            (conv1): Conv2d(512, 128, kernel_size=(1, 1), stride=(1, 1), bias=False)
            (bn1): FrozenBatchNorm2d(128, eps=1e-05)
            (conv2): Conv2d(128, 128, kernel_size=(3, 3), stride=(1, 1), padding=(1, 1), bias=False)
            (bn2): FrozenBatchNorm2d(128, eps=1e-05)
            (conv3): Conv2d(128, 512, kernel_size=(1, 1), stride=(1, 1), bias=False)
            (bn3): FrozenBatchNorm2d(512, eps=1e-05)
            (relu): ReLU(inplace=True)
          )
          (2): Bottleneck(
            (conv1): Conv2d(512, 128, kernel_size=(1, 1), stride=(1, 1), bias=False)
            (bn1): FrozenBatchNorm2d(128, eps=1e-05)
            (conv2): Conv2d(128, 128, kernel_size=(3, 3), stride=(1, 1), padding=(1, 1), bias=False)
            (bn2): FrozenBatchNorm2d(128, eps=1e-05)
            (conv3): Conv2d(128, 512, kernel_size=(1, 1), stride=(1, 1), bias=False)
            (bn3): FrozenBatchNorm2d(512, eps=1e-05)
            (relu): ReLU(inplace=True)
          )
          (3): Bottleneck(
            (conv1): Conv2d(512, 128, kernel_size=(1, 1), stride=(1, 1), bias=False)
            (bn1): FrozenBatchNorm2d(128, eps=1e-05)
            (conv2): Conv2d(128, 128, kernel_size=(3, 3), stride=(1, 1), padding=(1, 1), bias=False)
            (bn2): FrozenBatchNorm2d(128, eps=1e-05)
            (conv3): Conv2d(128, 512, kernel_size=(1, 1), stride=(1, 1), bias=False)
            (bn3): FrozenBatchNorm2d(512, eps=1e-05)
            (relu): ReLU(inplace=True)
          )
        )
        (layer3): Sequential(
          (0): Bottleneck(
            (conv1): Conv2d(512, 256, kernel_size=(1, 1), stride=(1, 1), bias=False)
            (bn1): FrozenBatchNorm2d(256, eps=1e-05)
            (conv2): Conv2d(256, 256, kernel_size=(3, 3), stride=(2, 2), padding=(1, 1), bias=False)
            (bn2): FrozenBatchNorm2d(256, eps=1e-05)
            (conv3): Conv2d(256, 1024, kernel_size=(1, 1), stride=(1, 1), bias=False)
            (bn3): FrozenBatchNorm2d(1024, eps=1e-05)
            (relu): ReLU(inplace=True)
            (downsample): Sequential(
              (0): Conv2d(512, 1024, kernel_size=(1, 1), stride=(2, 2), bias=False)
              (1): FrozenBatchNorm2d(1024, eps=1e-05)
            )
          )
          (1): Bottleneck(
            (conv1): Conv2d(1024, 256, kernel_size=(1, 1), stride=(1, 1), bias=False)
            (bn1): FrozenBatchNorm2d(256, eps=1e-05)
            (conv2): Conv2d(256, 256, kernel_size=(3, 3), stride=(1, 1), padding=(1, 1), bias=False)
            (bn2): FrozenBatchNorm2d(256, eps=1e-05)
            (conv3): Conv2d(256, 1024, kernel_size=(1, 1), stride=(1, 1), bias=False)
            (bn3): FrozenBatchNorm2d(1024, eps=1e-05)
            (relu): ReLU(inplace=True)
          )
          (2): Bottleneck(
            (conv1): Conv2d(1024, 256, kernel_size=(1, 1), stride=(1, 1), bias=False)
            (bn1): FrozenBatchNorm2d(256, eps=1e-05)
            (conv2): Conv2d(256, 256, kernel_size=(3, 3), stride=(1, 1), padding=(1, 1), bias=False)
            (bn2): FrozenBatchNorm2d(256, eps=1e-05)
            (conv3): Conv2d(256, 1024, kernel_size=(1, 1), stride=(1, 1), bias=False)
            (bn3): FrozenBatchNorm2d(1024, eps=1e-05)
            (relu): ReLU(inplace=True)
          )
          (3): Bottleneck(
            (conv1): Conv2d(1024, 256, kernel_size=(1, 1), stride=(1, 1), bias=False)
            (bn1): FrozenBatchNorm2d(256, eps=1e-05)
            (conv2): Conv2d(256, 256, kernel_size=(3, 3), stride=(1, 1), padding=(1, 1), bias=False)
            (bn2): FrozenBatchNorm2d(256, eps=1e-05)
            (conv3): Conv2d(256, 1024, kernel_size=(1, 1), stride=(1, 1), bias=False)
            (bn3): FrozenBatchNorm2d(1024, eps=1e-05)
            (relu): ReLU(inplace=True)
          )
          (4): Bottleneck(
            (conv1): Conv2d(1024, 256, kernel_size=(1, 1), stride=(1, 1), bias=False)
            (bn1): FrozenBatchNorm2d(256, eps=1e-05)
            (conv2): Conv2d(256, 256, kernel_size=(3, 3), stride=(1, 1), padding=(1, 1), bias=False)
            (bn2): FrozenBatchNorm2d(256, eps=1e-05)
            (conv3): Conv2d(256, 1024, kernel_size=(1, 1), stride=(1, 1), bias=False)
            (bn3): FrozenBatchNorm2d(1024, eps=1e-05)
            (relu): ReLU(inplace=True)
          )
          (5): Bottleneck(
            (conv1): Conv2d(1024, 256, kernel_size=(1, 1), stride=(1, 1), bias=False)
            (bn1): FrozenBatchNorm2d(256, eps=1e-05)
            (conv2): Conv2d(256, 256, kernel_size=(3, 3), stride=(1, 1), padding=(1, 1), bias=False)
            (bn2): FrozenBatchNorm2d(256, eps=1e-05)
            (conv3): Conv2d(256, 1024, kernel_size=(1, 1), stride=(1, 1), bias=False)
            (bn3): FrozenBatchNorm2d(1024, eps=1e-05)
            (relu): ReLU(inplace=True)
          )
        )
        (layer4): Sequential(
          (0): Bottleneck(
            (conv1): Conv2d(1024, 512, kernel_size=(1, 1), stride=(1, 1), bias=False)
            (bn1): FrozenBatchNorm2d(512, eps=1e-05)
            (conv2): Conv2d(512, 512, kernel_size=(3, 3), stride=(2, 2), padding=(1, 1), bias=False)
            (bn2): FrozenBatchNorm2d(512, eps=1e-05)
            (conv3): Conv2d(512, 2048, kernel_size=(1, 1), stride=(1, 1), bias=False)
            (bn3): FrozenBatchNorm2d(2048, eps=1e-05)
            (relu): ReLU(inplace=True)
            (downsample): Sequential(
              (0): Conv2d(1024, 2048, kernel_size=(1, 1), stride=(2, 2), bias=False)
              (1): FrozenBatchNorm2d(2048, eps=1e-05)
            )
          )
          (1): Bottleneck(
            (conv1): Conv2d(2048, 512, kernel_size=(1, 1), stride=(1, 1), bias=False)
            (bn1): FrozenBatchNorm2d(512, eps=1e-05)
            (conv2): Conv2d(512, 512, kernel_size=(3, 3), stride=(1, 1), padding=(1, 1), bias=False)
            (bn2): FrozenBatchNorm2d(512, eps=1e-05)
            (conv3): Conv2d(512, 2048, kernel_size=(1, 1), stride=(1, 1), bias=False)
            (bn3): FrozenBatchNorm2d(2048, eps=1e-05)
            (relu): ReLU(inplace=True)
          )
          (2): Bottleneck(
            (conv1): Conv2d(2048, 512, kernel_size=(1, 1), stride=(1, 1), bias=False)
            (bn1): FrozenBatchNorm2d(512, eps=1e-05)
            (conv2): Conv2d(512, 512, kernel_size=(3, 3), stride=(1, 1), padding=(1, 1), bias=False)
            (bn2): FrozenBatchNorm2d(512, eps=1e-05)
            (conv3): Conv2d(512, 2048, kernel_size=(1, 1), stride=(1, 1), bias=False)
            (bn3): FrozenBatchNorm2d(2048, eps=1e-05)
            (relu): ReLU(inplace=True)
          )
        )
      )
      (fpn): FeaturePyramidNetwork(
        (inner_blocks): ModuleList(
          (0): Conv2dNormActivation(
            (0): Conv2d(512, 256, kernel_size=(1, 1), stride=(1, 1))
          )
          (1): Conv2dNormActivation(
            (0): Conv2d(1024, 256, kernel_size=(1, 1), stride=(1, 1))
          )
          (2): Conv2dNormActivation(
            (0): Conv2d(2048, 256, kernel_size=(1, 1), stride=(1, 1))
          )
        )
        (layer_blocks): ModuleList(
          (0-2): 3 x Conv2dNormActivation(
            (0): Conv2d(256, 256, kernel_size=(3, 3), stride=(1, 1), padding=(1, 1))
          )
        )
        (sa_cross_attn): ModuleList(
          (0): SpatialAlignTransNormer(
            (q_proj): Linear(in_features=256, out_features=256, bias=True)
            (k_proj): Linear(in_features=256, out_features=256, bias=True)
            (v_proj): Linear(in_features=256, out_features=256, bias=True)
            (out_proj): Linear(in_features=256, out_features=256, bias=True)
            (attn_norm): RMSNorm((32,), eps=None, elementwise_affine=True)
            (linear1): Linear(in_features=256, out_features=1024, bias=True)
            (dropout): Dropout(p=0.0, inplace=False)
            (linear2): Linear(in_features=1024, out_features=256, bias=True)
            (activation): GELU(approximate='none')
            (norm1): LayerNorm((256,), eps=1e-05, elementwise_affine=True)
            (norm2): LayerNorm((256,), eps=1e-05, elementwise_affine=True)
            (dropout1): Dropout(p=0.0, inplace=False)
            (dropout2): Dropout(p=0.0, inplace=False)
            (avg_pool_high): Identity()
            (avg_pool_low): AvgPool2d(kernel_size=2, stride=2, padding=0)
          )
          (1): SpatialAlignTransNormer(
            (q_proj): Linear(in_features=256, out_features=256, bias=True)
            (k_proj): Linear(in_features=256, out_features=256, bias=True)
            (v_proj): Linear(in_features=256, out_features=256, bias=True)
            (out_proj): Linear(in_features=256, out_features=256, bias=True)
            (attn_norm): RMSNorm((32,), eps=None, elementwise_affine=True)
            (linear1): Linear(in_features=256, out_features=1024, bias=True)
            (dropout): Dropout(p=0.0, inplace=False)
            (linear2): Linear(in_features=1024, out_features=256, bias=True)
            (activation): GELU(approximate='none')
            (norm1): LayerNorm((256,), eps=1e-05, elementwise_affine=True)
            (norm2): LayerNorm((256,), eps=1e-05, elementwise_affine=True)
            (dropout1): Dropout(p=0.0, inplace=False)
            (dropout2): Dropout(p=0.0, inplace=False)
            (avg_pool_high): AvgPool2d(kernel_size=2, stride=2, padding=0)
            (avg_pool_low): AvgPool2d(kernel_size=4, stride=4, padding=0)
          )
        )
        (extra_blocks): LastLevelP6P7(
          (p6): Conv2d(256, 256, kernel_size=(3, 3), stride=(2, 2), padding=(1, 1))
          (p7): Conv2d(256, 256, kernel_size=(3, 3), stride=(2, 2), padding=(1, 1))
        )
      )
    )
    (anchor_generator): AnchorGenerator()
    (head): RetinaNetHead(
      (classification_head): RetinaNetClassificationHead(
        (conv): Sequential(
          (0): Conv2dNormActivation(
            (0): Conv2d(256, 256, kernel_size=(3, 3), stride=(1, 1), padding=(1, 1))
            (1): ReLU(inplace=True)
          )
          (1): Conv2dNormActivation(
            (0): Conv2d(256, 256, kernel_size=(3, 3), stride=(1, 1), padding=(1, 1))
            (1): ReLU(inplace=True)
          )
          (2): Conv2dNormActivation(
            (0): Conv2d(256, 256, kernel_size=(3, 3), stride=(1, 1), padding=(1, 1))
            (1): ReLU(inplace=True)
          )
          (3): Conv2dNormActivation(
            (0): Conv2d(256, 256, kernel_size=(3, 3), stride=(1, 1), padding=(1, 1))
            (1): ReLU(inplace=True)
          )
        )
        (cls_logits): Conv2d(256, 819, kernel_size=(3, 3), stride=(1, 1), padding=(1, 1))
      )
      (regression_head): RetinaNetRegressionHead(
        (conv): Sequential(
          (0): Conv2dNormActivation(
            (0): Conv2d(256, 256, kernel_size=(3, 3), stride=(1, 1), padding=(1, 1))
            (1): ReLU(inplace=True)
          )
          (1): Conv2dNormActivation(
            (0): Conv2d(256, 256, kernel_size=(3, 3), stride=(1, 1), padding=(1, 1))
            (1): ReLU(inplace=True)
          )
          (2): Conv2dNormActivation(
            (0): Conv2d(256, 256, kernel_size=(3, 3), stride=(1, 1), padding=(1, 1))
            (1): ReLU(inplace=True)
          )
          (3): Conv2dNormActivation(
            (0): Conv2d(256, 256, kernel_size=(3, 3), stride=(1, 1), padding=(1, 1))
            (1): ReLU(inplace=True)
          )
        )
        (bbox_reg): Conv2d(256, 36, kernel_size=(3, 3), stride=(1, 1), padding=(1, 1))
      )
    )
    (transform): GeneralizedRCNNTransform(
        Normalize(mean=[0.485, 0.456, 0.406], std=[0.229, 0.224, 0.225])
        Resize(min_size=(800,), max_size=1333, mode='bilinear')
    )
  )
)
Warning: module FrozenBatchNorm2d is treated as a zero-op.
Warning: module Bottleneck is treated as a zero-op.
Warning: module IntermediateLayerGetter is treated as a zero-op.
…
Warning: module RetinaNetHead is treated as a zero-op.
Warning: module GeneralizedRCNNTransform is treated as a zero-op.
Warning: module RetinaNet is treated as a zero-op.
Warning: module DistributedDataParallel is treated as a zero-op.
DistributedDataParallel(
  35.37 M, 100.000% Params, 152.74 GMac, 99.886% MACs, 
  (module): RetinaNet(
    35.37 M, 100.000% Params, 152.74 GMac, 99.886% MACs, 
    (backbone): BackboneWithFPN(
      28.68 M, 81.083% Params, 63.43 GMac, 41.480% MACs, 
      (body): IntermediateLayerGetter(
        23.23 M, 65.680% Params, 52.26 GMac, 34.180% MACs, 
        (conv1): Conv2d(0, 0.000% Params, 1.51 GMac, 0.984% MACs, 3, 64, kernel_size=(7, 7), stride=(2, 2), padding=(3, 3), bias=False)
        (bn1): FrozenBatchNorm2d(64, eps=1e-05)
        (relu): ReLU(0, 0.000% Params, 10.24 MMac, 0.007% MACs, inplace=True)
        (maxpool): MaxPool2d(0, 0.000% Params, 10.24 MMac, 0.007% MACs, kernel_size=3, stride=2, padding=1, dilation=1, ceil_mode=False)
        (layer1): Sequential(
          0, 0.000% Params, 8.57 GMac, 5.602% MACs, 
          (0): Bottleneck(
            0, 0.000% Params, 2.96 GMac, 1.939% MACs, 
            (conv1): Conv2d(0, 0.000% Params, 163.84 MMac, 0.107% MACs, 64, 64, kernel_size=(1, 1), stride=(1, 1), bias=False)
            (bn1): FrozenBatchNorm2d(64, eps=1e-05)
            (conv2): Conv2d(0, 0.000% Params, 1.47 GMac, 0.964% MACs, 64, 64, kernel_size=(3, 3), stride=(1, 1), padding=(1, 1), bias=False)
            (bn2): FrozenBatchNorm2d(64, eps=1e-05)
            (conv3): Conv2d(0, 0.000% Params, 655.36 MMac, 0.429% MACs, 64, 256, kernel_size=(1, 1), stride=(1, 1), bias=False)
            (bn3): FrozenBatchNorm2d(256, eps=1e-05)
            (relu): ReLU(0, 0.000% Params, 15.36 MMac, 0.010% MACs, inplace=True)
            (downsample): Sequential(
              0, 0.000% Params, 655.36 MMac, 0.429% MACs, 
              (0): Conv2d(0, 0.000% Params, 655.36 MMac, 0.429% MACs, 64, 256, kernel_size=(1, 1), stride=(1, 1), bias=False)
              (1): FrozenBatchNorm2d(256, eps=1e-05)
            )
          )
          (1): Bottleneck(
            0, 0.000% Params, 2.8 GMac, 1.832% MACs, 
            (conv1): Conv2d(0, 0.000% Params, 655.36 MMac, 0.429% MACs, 256, 64, kernel_size=(1, 1), stride=(1, 1), bias=False)
            (bn1): FrozenBatchNorm2d(64, eps=1e-05)
            (conv2): Conv2d(0, 0.000% Params, 1.47 GMac, 0.964% MACs, 64, 64, kernel_size=(3, 3), stride=(1, 1), padding=(1, 1), bias=False)
            (bn2): FrozenBatchNorm2d(64, eps=1e-05)
            (conv3): Conv2d(0, 0.000% Params, 655.36 MMac, 0.429% MACs, 64, 256, kernel_size=(1, 1), stride=(1, 1), bias=False)
            (bn3): FrozenBatchNorm2d(256, eps=1e-05)
            (relu): ReLU(0, 0.000% Params, 15.36 MMac, 0.010% MACs, inplace=True)
          )
          (2): Bottleneck(
            0, 0.000% Params, 2.8 GMac, 1.832% MACs, 
            (conv1): Conv2d(0, 0.000% Params, 655.36 MMac, 0.429% MACs, 256, 64, kernel_size=(1, 1), stride=(1, 1), bias=False)
            (bn1): FrozenBatchNorm2d(64, eps=1e-05)
            (conv2): Conv2d(0, 0.000% Params, 1.47 GMac, 0.964% MACs, 64, 64, kernel_size=(3, 3), stride=(1, 1), padding=(1, 1), bias=False)
            (bn2): FrozenBatchNorm2d(64, eps=1e-05)
            (conv3): Conv2d(0, 0.000% Params, 655.36 MMac, 0.429% MACs, 64, 256, kernel_size=(1, 1), stride=(1, 1), bias=False)
            (bn3): FrozenBatchNorm2d(256, eps=1e-05)
            (relu): ReLU(0, 0.000% Params, 15.36 MMac, 0.010% MACs, inplace=True)
          )
        )
        (layer2): Sequential(
          1.21 M, 3.428% Params, 13.14 GMac, 8.594% MACs, 
          (0): Bottleneck(
            376.83 k, 1.065% Params, 4.76 GMac, 3.115% MACs, 
            (conv1): Conv2d(32.77 k, 0.093% Params, 1.31 GMac, 0.857% MACs, 256, 128, kernel_size=(1, 1), stride=(1, 1), bias=False)
            (bn1): FrozenBatchNorm2d(128, eps=1e-05)
            (conv2): Conv2d(147.46 k, 0.417% Params, 1.47 GMac, 0.964% MACs, 128, 128, kernel_size=(3, 3), stride=(2, 2), padding=(1, 1), bias=False)
            (bn2): FrozenBatchNorm2d(128, eps=1e-05)
            (conv3): Conv2d(65.54 k, 0.185% Params, 655.36 MMac, 0.429% MACs, 128, 512, kernel_size=(1, 1), stride=(1, 1), bias=False)
            (bn3): FrozenBatchNorm2d(512, eps=1e-05)
            (relu): ReLU(0, 0.000% Params, 11.52 MMac, 0.008% MACs, inplace=True)
            (downsample): Sequential(
              131.07 k, 0.371% Params, 1.31 GMac, 0.857% MACs, 
              (0): Conv2d(131.07 k, 0.371% Params, 1.31 GMac, 0.857% MACs, 256, 512, kernel_size=(1, 1), stride=(2, 2), bias=False)
              (1): FrozenBatchNorm2d(512, eps=1e-05)
            )
          )
          (1): Bottleneck(
            278.53 k, 0.787% Params, 2.79 GMac, 1.827% MACs, 
            (conv1): Conv2d(65.54 k, 0.185% Params, 655.36 MMac, 0.429% MACs, 512, 128, kernel_size=(1, 1), stride=(1, 1), bias=False)
            (bn1): FrozenBatchNorm2d(128, eps=1e-05)
            (conv2): Conv2d(147.46 k, 0.417% Params, 1.47 GMac, 0.964% MACs, 128, 128, kernel_size=(3, 3), stride=(1, 1), padding=(1, 1), bias=False)
            (bn2): FrozenBatchNorm2d(128, eps=1e-05)
            (conv3): Conv2d(65.54 k, 0.185% Params, 655.36 MMac, 0.429% MACs, 128, 512, kernel_size=(1, 1), stride=(1, 1), bias=False)
            (bn3): FrozenBatchNorm2d(512, eps=1e-05)
            (relu): ReLU(0, 0.000% Params, 7.68 MMac, 0.005% MACs, inplace=True)
          )
          (2): Bottleneck(
            278.53 k, 0.787% Params, 2.79 GMac, 1.827% MACs, 
            (conv1): Conv2d(65.54 k, 0.185% Params, 655.36 MMac, 0.429% MACs, 512, 128, kernel_size=(1, 1), stride=(1, 1), bias=False)
            (bn1): FrozenBatchNorm2d(128, eps=1e-05)
            (conv2): Conv2d(147.46 k, 0.417% Params, 1.47 GMac, 0.964% MACs, 128, 128, kernel_size=(3, 3), stride=(1, 1), padding=(1, 1), bias=False)
            (bn2): FrozenBatchNorm2d(128, eps=1e-05)
            (conv3): Conv2d(65.54 k, 0.185% Params, 655.36 MMac, 0.429% MACs, 128, 512, kernel_size=(1, 1), stride=(1, 1), bias=False)
            (bn3): FrozenBatchNorm2d(512, eps=1e-05)
            (relu): ReLU(0, 0.000% Params, 7.68 MMac, 0.005% MACs, inplace=True)
          )
          (3): Bottleneck(
            278.53 k, 0.787% Params, 2.79 GMac, 1.827% MACs, 
            (conv1): Conv2d(65.54 k, 0.185% Params, 655.36 MMac, 0.429% MACs, 512, 128, kernel_size=(1, 1), stride=(1, 1), bias=False)
            (bn1): FrozenBatchNorm2d(128, eps=1e-05)
            (conv2): Conv2d(147.46 k, 0.417% Params, 1.47 GMac, 0.964% MACs, 128, 128, kernel_size=(3, 3), stride=(1, 1), padding=(1, 1), bias=False)
            (bn2): FrozenBatchNorm2d(128, eps=1e-05)
            (conv3): Conv2d(65.54 k, 0.185% Params, 655.36 MMac, 0.429% MACs, 128, 512, kernel_size=(1, 1), stride=(1, 1), bias=False)
            (bn3): FrozenBatchNorm2d(512, eps=1e-05)
            (relu): ReLU(0, 0.000% Params, 7.68 MMac, 0.005% MACs, inplace=True)
          )
        )
        (layer3): Sequential(
          7.08 M, 20.010% Params, 18.7 GMac, 12.231% MACs, 
          (0): Bottleneck(
            1.51 M, 4.261% Params, 4.76 GMac, 3.111% MACs, 
            (conv1): Conv2d(131.07 k, 0.371% Params, 1.31 GMac, 0.857% MACs, 512, 256, kernel_size=(1, 1), stride=(1, 1), bias=False)
            (bn1): FrozenBatchNorm2d(256, eps=1e-05)
            (conv2): Conv2d(589.82 k, 1.667% Params, 1.47 GMac, 0.964% MACs, 256, 256, kernel_size=(3, 3), stride=(2, 2), padding=(1, 1), bias=False)
            (bn2): FrozenBatchNorm2d(256, eps=1e-05)
            (conv3): Conv2d(262.14 k, 0.741% Params, 655.36 MMac, 0.429% MACs, 256, 1024, kernel_size=(1, 1), stride=(1, 1), bias=False)
            (bn3): FrozenBatchNorm2d(1024, eps=1e-05)
            (relu): ReLU(0, 0.000% Params, 5.76 MMac, 0.004% MACs, inplace=True)
            (downsample): Sequential(
              524.29 k, 1.482% Params, 1.31 GMac, 0.857% MACs, 
              (0): Conv2d(524.29 k, 1.482% Params, 1.31 GMac, 0.857% MACs, 512, 1024, kernel_size=(1, 1), stride=(2, 2), bias=False)
              (1): FrozenBatchNorm2d(1024, eps=1e-05)
            )
          )
          (1): Bottleneck(
            1.11 M, 3.150% Params, 2.79 GMac, 1.824% MACs, 
            (conv1): Conv2d(262.14 k, 0.741% Params, 655.36 MMac, 0.429% MACs, 1024, 256, kernel_size=(1, 1), stride=(1, 1), bias=False)
            (bn1): FrozenBatchNorm2d(256, eps=1e-05)
            (conv2): Conv2d(589.82 k, 1.667% Params, 1.47 GMac, 0.964% MACs, 256, 256, kernel_size=(3, 3), stride=(1, 1), padding=(1, 1), bias=False)
            (bn2): FrozenBatchNorm2d(256, eps=1e-05)
            (conv3): Conv2d(262.14 k, 0.741% Params, 655.36 MMac, 0.429% MACs, 256, 1024, kernel_size=(1, 1), stride=(1, 1), bias=False)
            (bn3): FrozenBatchNorm2d(1024, eps=1e-05)
            (relu): ReLU(0, 0.000% Params, 3.84 MMac, 0.003% MACs, inplace=True)
          )
          (2): Bottleneck(
            1.11 M, 3.150% Params, 2.79 GMac, 1.824% MACs, 
            (conv1): Conv2d(262.14 k, 0.741% Params, 655.36 MMac, 0.429% MACs, 1024, 256, kernel_size=(1, 1), stride=(1, 1), bias=False)
            (bn1): FrozenBatchNorm2d(256, eps=1e-05)
            (conv2): Conv2d(589.82 k, 1.667% Params, 1.47 GMac, 0.964% MACs, 256, 256, kernel_size=(3, 3), stride=(1, 1), padding=(1, 1), bias=False)
            (bn2): FrozenBatchNorm2d(256, eps=1e-05)
            (conv3): Conv2d(262.14 k, 0.741% Params, 655.36 MMac, 0.429% MACs, 256, 1024, kernel_size=(1, 1), stride=(1, 1), bias=False)
            (bn3): FrozenBatchNorm2d(1024, eps=1e-05)
            (relu): ReLU(0, 0.000% Params, 3.84 MMac, 0.003% MACs, inplace=True)
          )
          (3): Bottleneck(
            1.11 M, 3.150% Params, 2.79 GMac, 1.824% MACs, 
            (conv1): Conv2d(262.14 k, 0.741% Params, 655.36 MMac, 0.429% MACs, 1024, 256, kernel_size=(1, 1), stride=(1, 1), bias=False)
            (bn1): FrozenBatchNorm2d(256, eps=1e-05)
            (conv2): Conv2d(589.82 k, 1.667% Params, 1.47 GMac, 0.964% MACs, 256, 256, kernel_size=(3, 3), stride=(1, 1), padding=(1, 1), bias=False)
            (bn2): FrozenBatchNorm2d(256, eps=1e-05)
            (conv3): Conv2d(262.14 k, 0.741% Params, 655.36 MMac, 0.429% MACs, 256, 1024, kernel_size=(1, 1), stride=(1, 1), bias=False)
            (bn3): FrozenBatchNorm2d(1024, eps=1e-05)
            (relu): ReLU(0, 0.000% Params, 3.84 MMac, 0.003% MACs, inplace=True)
          )
          (4): Bottleneck(
            1.11 M, 3.150% Params, 2.79 GMac, 1.824% MACs, 
            (conv1): Conv2d(262.14 k, 0.741% Params, 655.36 MMac, 0.429% MACs, 1024, 256, kernel_size=(1, 1), stride=(1, 1), bias=False)
            (bn1): FrozenBatchNorm2d(256, eps=1e-05)
            (conv2): Conv2d(589.82 k, 1.667% Params, 1.47 GMac, 0.964% MACs, 256, 256, kernel_size=(3, 3), stride=(1, 1), padding=(1, 1), bias=False)
            (bn2): FrozenBatchNorm2d(256, eps=1e-05)
            (conv3): Conv2d(262.14 k, 0.741% Params, 655.36 MMac, 0.429% MACs, 256, 1024, kernel_size=(1, 1), stride=(1, 1), bias=False)
            (bn3): FrozenBatchNorm2d(1024, eps=1e-05)
            (relu): ReLU(0, 0.000% Params, 3.84 MMac, 0.003% MACs, inplace=True)
          )
          (5): Bottleneck(
            1.11 M, 3.150% Params, 2.79 GMac, 1.824% MACs, 
            (conv1): Conv2d(262.14 k, 0.741% Params, 655.36 MMac, 0.429% MACs, 1024, 256, kernel_size=(1, 1), stride=(1, 1), bias=False)
            (bn1): FrozenBatchNorm2d(256, eps=1e-05)
            (conv2): Conv2d(589.82 k, 1.667% Params, 1.47 GMac, 0.964% MACs, 256, 256, kernel_size=(3, 3), stride=(1, 1), padding=(1, 1), bias=False)
            (bn2): FrozenBatchNorm2d(256, eps=1e-05)
            (conv3): Conv2d(262.14 k, 0.741% Params, 655.36 MMac, 0.429% MACs, 256, 1024, kernel_size=(1, 1), stride=(1, 1), bias=False)
            (bn3): FrozenBatchNorm2d(1024, eps=1e-05)
            (relu): ReLU(0, 0.000% Params, 3.84 MMac, 0.003% MACs, inplace=True)
          )
        )
        (layer4): Sequential(
          14.94 M, 42.243% Params, 10.33 GMac, 6.755% MACs, 
          (0): Bottleneck(
            6.03 M, 17.045% Params, 4.75 GMac, 3.109% MACs, 
            (conv1): Conv2d(524.29 k, 1.482% Params, 1.31 GMac, 0.857% MACs, 1024, 512, kernel_size=(1, 1), stride=(1, 1), bias=False)
            (bn1): FrozenBatchNorm2d(512, eps=1e-05)
            (conv2): Conv2d(2.36 M, 6.670% Params, 1.47 GMac, 0.964% MACs, 512, 512, kernel_size=(3, 3), stride=(2, 2), padding=(1, 1), bias=False)
            (bn2): FrozenBatchNorm2d(512, eps=1e-05)
            (conv3): Conv2d(1.05 M, 2.964% Params, 655.36 MMac, 0.429% MACs, 512, 2048, kernel_size=(1, 1), stride=(1, 1), bias=False)
            (bn3): FrozenBatchNorm2d(2048, eps=1e-05)
            (relu): ReLU(0, 0.000% Params, 2.88 MMac, 0.002% MACs, inplace=True)
            (downsample): Sequential(
              2.1 M, 5.929% Params, 1.31 GMac, 0.857% MACs, 
              (0): Conv2d(2.1 M, 5.929% Params, 1.31 GMac, 0.857% MACs, 1024, 2048, kernel_size=(1, 1), stride=(2, 2), bias=False)
              (1): FrozenBatchNorm2d(2048, eps=1e-05)
            )
          )
          (1): Bottleneck(
            4.46 M, 12.599% Params, 2.79 GMac, 1.823% MACs, 
            (conv1): Conv2d(1.05 M, 2.964% Params, 655.36 MMac, 0.429% MACs, 2048, 512, kernel_size=(1, 1), stride=(1, 1), bias=False)
            (bn1): FrozenBatchNorm2d(512, eps=1e-05)
            (conv2): Conv2d(2.36 M, 6.670% Params, 1.47 GMac, 0.964% MACs, 512, 512, kernel_size=(3, 3), stride=(1, 1), padding=(1, 1), bias=False)
            (bn2): FrozenBatchNorm2d(512, eps=1e-05)
            (conv3): Conv2d(1.05 M, 2.964% Params, 655.36 MMac, 0.429% MACs, 512, 2048, kernel_size=(1, 1), stride=(1, 1), bias=False)
            (bn3): FrozenBatchNorm2d(2048, eps=1e-05)
            (relu): ReLU(0, 0.000% Params, 1.92 MMac, 0.001% MACs, inplace=True)
          )
          (2): Bottleneck(
            4.46 M, 12.599% Params, 2.79 GMac, 1.823% MACs, 
            (conv1): Conv2d(1.05 M, 2.964% Params, 655.36 MMac, 0.429% MACs, 2048, 512, kernel_size=(1, 1), stride=(1, 1), bias=False)
            (bn1): FrozenBatchNorm2d(512, eps=1e-05)
            (conv2): Conv2d(2.36 M, 6.670% Params, 1.47 GMac, 0.964% MACs, 512, 512, kernel_size=(3, 3), stride=(1, 1), padding=(1, 1), bias=False)
            (bn2): FrozenBatchNorm2d(512, eps=1e-05)
            (conv3): Conv2d(1.05 M, 2.964% Params, 655.36 MMac, 0.429% MACs, 512, 2048, kernel_size=(1, 1), stride=(1, 1), bias=False)
            (bn3): FrozenBatchNorm2d(2048, eps=1e-05)
            (relu): ReLU(0, 0.000% Params, 1.92 MMac, 0.001% MACs, inplace=True)
          )
        )
      )
      (fpn): FeaturePyramidNetwork(
        5.45 M, 15.402% Params, 11.16 GMac, 7.300% MACs, 
        (inner_blocks): ModuleList(
          (0): Conv2dNormActivation(
            131.33 k, 0.371% Params, 1.31 GMac, 0.859% MACs, 
            (0): Conv2d(131.33 k, 0.371% Params, 1.31 GMac, 0.859% MACs, 512, 256, kernel_size=(1, 1), stride=(1, 1))
          )
          (1): Conv2dNormActivation(
            262.4 k, 0.742% Params, 656.0 MMac, 0.429% MACs, 
            (0): Conv2d(262.4 k, 0.742% Params, 656.0 MMac, 0.429% MACs, 1024, 256, kernel_size=(1, 1), stride=(1, 1))
          )
          (2): Conv2dNormActivation(
            524.54 k, 1.483% Params, 327.84 MMac, 0.214% MACs, 
            (0): Conv2d(524.54 k, 1.483% Params, 327.84 MMac, 0.214% MACs, 2048, 256, kernel_size=(1, 1), stride=(1, 1))
          )
        )
        (layer_blocks): ModuleList(
          (0): Conv2dNormActivation(
            590.08 k, 1.668% Params, 5.9 GMac, 3.859% MACs, 
            (0): Conv2d(590.08 k, 1.668% Params, 5.9 GMac, 3.859% MACs, 256, 256, kernel_size=(3, 3), stride=(1, 1), padding=(1, 1))
          )
          (1): Conv2dNormActivation(
            590.08 k, 1.668% Params, 1.48 GMac, 0.965% MACs, 
            (0): Conv2d(590.08 k, 1.668% Params, 1.48 GMac, 0.965% MACs, 256, 256, kernel_size=(3, 3), stride=(1, 1), padding=(1, 1))
          )
          (2): Conv2dNormActivation(
            590.08 k, 1.668% Params, 368.8 MMac, 0.241% MACs, 
            (0): Conv2d(590.08 k, 1.668% Params, 368.8 MMac, 0.241% MACs, 256, 256, kernel_size=(3, 3), stride=(1, 1), padding=(1, 1))
          )
        )
        (sa_cross_attn): ModuleList(
          (0): SpatialAlignTransNormer(
            789.76 k, 2.233% Params, 494.56 MMac, 0.323% MACs, 
            (q_proj): Linear(65.79 k, 0.186% Params, 41.12 MMac, 0.027% MACs, in_features=256, out_features=256, bias=True)
            (k_proj): Linear(65.79 k, 0.186% Params, 41.12 MMac, 0.027% MACs, in_features=256, out_features=256, bias=True)
            (v_proj): Linear(65.79 k, 0.186% Params, 41.12 MMac, 0.027% MACs, in_features=256, out_features=256, bias=True)
            (out_proj): Linear(65.79 k, 0.186% Params, 41.12 MMac, 0.027% MACs, in_features=256, out_features=256, bias=True)
            (attn_norm): RMSNorm(0, 0.000% Params, 0.0 Mac, 0.000% MACs, (32,), eps=None, elementwise_affine=True)
            (linear1): Linear(263.17 k, 0.744% Params, 164.48 MMac, 0.108% MACs, in_features=256, out_features=1024, bias=True)
            (dropout): Dropout(0, 0.000% Params, 0.0 Mac, 0.000% MACs, p=0.0, inplace=False)
            (linear2): Linear(262.4 k, 0.742% Params, 164.0 MMac, 0.107% MACs, in_features=1024, out_features=256, bias=True)
            (activation): GELU(0, 0.000% Params, 640.0 KMac, 0.000% MACs, approximate='none')
            (norm1): LayerNorm(512, 0.001% Params, 160.0 KMac, 0.000% MACs, (256,), eps=1e-05, elementwise_affine=True)
            (norm2): LayerNorm(512, 0.001% Params, 160.0 KMac, 0.000% MACs, (256,), eps=1e-05, elementwise_affine=True)
            (dropout1): Dropout(0, 0.000% Params, 0.0 Mac, 0.000% MACs, p=0.0, inplace=False)
            (dropout2): Dropout(0, 0.000% Params, 0.0 Mac, 0.000% MACs, p=0.0, inplace=False)
            (avg_pool_high): Identity(0, 0.000% Params, 0.0 Mac, 0.000% MACs, )
            (avg_pool_low): AvgPool2d(0, 0.000% Params, 640.0 KMac, 0.000% MACs, kernel_size=2, stride=2, padding=0)
          )
          (1): SpatialAlignTransNormer(
            789.76 k, 2.233% Params, 497.12 MMac, 0.325% MACs, 
            (q_proj): Linear(65.79 k, 0.186% Params, 41.12 MMac, 0.027% MACs, in_features=256, out_features=256, bias=True)
            (k_proj): Linear(65.79 k, 0.186% Params, 41.12 MMac, 0.027% MACs, in_features=256, out_features=256, bias=True)
            (v_proj): Linear(65.79 k, 0.186% Params, 41.12 MMac, 0.027% MACs, in_features=256, out_features=256, bias=True)
            (out_proj): Linear(65.79 k, 0.186% Params, 41.12 MMac, 0.027% MACs, in_features=256, out_features=256, bias=True)
            (attn_norm): RMSNorm(0, 0.000% Params, 0.0 Mac, 0.000% MACs, (32,), eps=None, elementwise_affine=True)
            (linear1): Linear(263.17 k, 0.744% Params, 164.48 MMac, 0.108% MACs, in_features=256, out_features=1024, bias=True)
            (dropout): Dropout(0, 0.000% Params, 0.0 Mac, 0.000% MACs, p=0.0, inplace=False)
            (linear2): Linear(262.4 k, 0.742% Params, 164.0 MMac, 0.107% MACs, in_features=1024, out_features=256, bias=True)
            (activation): GELU(0, 0.000% Params, 640.0 KMac, 0.000% MACs, approximate='none')
            (norm1): LayerNorm(512, 0.001% Params, 160.0 KMac, 0.000% MACs, (256,), eps=1e-05, elementwise_affine=True)
            (norm2): LayerNorm(512, 0.001% Params, 160.0 KMac, 0.000% MACs, (256,), eps=1e-05, elementwise_affine=True)
            (dropout1): Dropout(0, 0.000% Params, 0.0 Mac, 0.000% MACs, p=0.0, inplace=False)
            (dropout2): Dropout(0, 0.000% Params, 0.0 Mac, 0.000% MACs, p=0.0, inplace=False)
            (avg_pool_high): AvgPool2d(0, 0.000% Params, 640.0 KMac, 0.000% MACs, kernel_size=2, stride=2, padding=0)
            (avg_pool_low): AvgPool2d(0, 0.000% Params, 2.56 MMac, 0.002% MACs, kernel_size=4, stride=4, padding=0)
          )
        )
        (extra_blocks): LastLevelP6P7(
          1.18 M, 3.336% Params, 128.64 MMac, 0.084% MACs, 
          (p6): Conv2d(590.08 k, 1.668% Params, 99.72 MMac, 0.065% MACs, 256, 256, kernel_size=(3, 3), stride=(2, 2), padding=(1, 1))
          (p7): Conv2d(590.08 k, 1.668% Params, 28.91 MMac, 0.019% MACs, 256, 256, kernel_size=(3, 3), stride=(2, 2), padding=(1, 1))
        )
      )
    )
    (anchor_generator): AnchorGenerator(0, 0.000% Params, 0.0 Mac, 0.000% MACs, )
    (head): RetinaNetHead(
      6.69 M, 18.917% Params, 89.31 GMac, 58.407% MACs, 
      (classification_head): RetinaNetClassificationHead(
        4.25 M, 12.010% Params, 56.7 GMac, 37.078% MACs, 
        (conv): Sequential(
          2.36 M, 6.673% Params, 31.51 GMac, 20.605% MACs, 
          (0): Conv2dNormActivation(
            590.08 k, 1.668% Params, 7.88 GMac, 5.151% MACs, 
            (0): Conv2d(590.08 k, 1.668% Params, 7.87 GMac, 5.149% MACs, 256, 256, kernel_size=(3, 3), stride=(1, 1), padding=(1, 1))
            (1): ReLU(0, 0.000% Params, 3.42 MMac, 0.002% MACs, inplace=True)
          )
          (1): Conv2dNormActivation(
            590.08 k, 1.668% Params, 7.88 GMac, 5.151% MACs, 
            (0): Conv2d(590.08 k, 1.668% Params, 7.87 GMac, 5.149% MACs, 256, 256, kernel_size=(3, 3), stride=(1, 1), padding=(1, 1))
            (1): ReLU(0, 0.000% Params, 3.42 MMac, 0.002% MACs, inplace=True)
          )
          (2): Conv2dNormActivation(
            590.08 k, 1.668% Params, 7.88 GMac, 5.151% MACs, 
            (0): Conv2d(590.08 k, 1.668% Params, 7.87 GMac, 5.149% MACs, 256, 256, kernel_size=(3, 3), stride=(1, 1), padding=(1, 1))
            (1): ReLU(0, 0.000% Params, 3.42 MMac, 0.002% MACs, inplace=True)
          )
          (3): Conv2dNormActivation(
            590.08 k, 1.668% Params, 7.88 GMac, 5.151% MACs, 
            (0): Conv2d(590.08 k, 1.668% Params, 7.87 GMac, 5.149% MACs, 256, 256, kernel_size=(3, 3), stride=(1, 1), padding=(1, 1))
            (1): ReLU(0, 0.000% Params, 3.42 MMac, 0.002% MACs, inplace=True)
          )
        )
        (cls_logits): Conv2d(1.89 M, 5.337% Params, 25.19 GMac, 16.473% MACs, 256, 819, kernel_size=(3, 3), stride=(1, 1), padding=(1, 1))
      )
      (regression_head): RetinaNetRegressionHead(
        2.44 M, 6.907% Params, 32.61 GMac, 21.329% MACs, 
        (conv): Sequential(
          2.36 M, 6.673% Params, 31.51 GMac, 20.605% MACs, 
          (0): Conv2dNormActivation(
            590.08 k, 1.668% Params, 7.88 GMac, 5.151% MACs, 
            (0): Conv2d(590.08 k, 1.668% Params, 7.87 GMac, 5.149% MACs, 256, 256, kernel_size=(3, 3), stride=(1, 1), padding=(1, 1))
            (1): ReLU(0, 0.000% Params, 3.42 MMac, 0.002% MACs, inplace=True)
          )
          (1): Conv2dNormActivation(
            590.08 k, 1.668% Params, 7.88 GMac, 5.151% MACs, 
            (0): Conv2d(590.08 k, 1.668% Params, 7.87 GMac, 5.149% MACs, 256, 256, kernel_size=(3, 3), stride=(1, 1), padding=(1, 1))
            (1): ReLU(0, 0.000% Params, 3.42 MMac, 0.002% MACs, inplace=True)
          )
          (2): Conv2dNormActivation(
            590.08 k, 1.668% Params, 7.88 GMac, 5.151% MACs, 
            (0): Conv2d(590.08 k, 1.668% Params, 7.87 GMac, 5.149% MACs, 256, 256, kernel_size=(3, 3), stride=(1, 1), padding=(1, 1))
            (1): ReLU(0, 0.000% Params, 3.42 MMac, 0.002% MACs, inplace=True)
          )
          (3): Conv2dNormActivation(
            590.08 k, 1.668% Params, 7.88 GMac, 5.151% MACs, 
            (0): Conv2d(590.08 k, 1.668% Params, 7.87 GMac, 5.149% MACs, 256, 256, kernel_size=(3, 3), stride=(1, 1), padding=(1, 1))
            (1): ReLU(0, 0.000% Params, 3.42 MMac, 0.002% MACs, inplace=True)
          )
        )
        (bbox_reg): Conv2d(82.98 k, 0.235% Params, 1.11 GMac, 0.724% MACs, 256, 36, kernel_size=(3, 3), stride=(1, 1), padding=(1, 1))
      )
    )
    (transform): GeneralizedRCNNTransform(
        Normalize(mean=[0.485, 0.456, 0.406], std=[0.229, 0.224, 0.225])
        Resize(min_size=(800,), max_size=1333, mode='bilinear')
    )
  )
)
FLOPs: 152.91 GMac, Params: 35.37 M
Start training
/home/hslee/SONeck/vision/references/detection/engine.py:41: FutureWarning: `torch.cuda.amp.autocast(args...)` is deprecated. Please use `torch.amp.autocast('cuda', args...)` instead.
…
