…
index created!
Creating data loaders
Using [0, 0.5, 0.6299605249474366, 0.7937005259840997, 1.0, 1.2599210498948732, 1.5874010519681994, 2.0, inf] as bins for aspect ratio quantization
Count of instances per bin: [  104   982 24236  2332  8225 74466  5763  1158]
Creating model
model: DistributedDataParallel(
  (module): FasterRCNN(
    (transform): GeneralizedRCNNTransform(
        Normalize(mean=[0.485, 0.456, 0.406], std=[0.229, 0.224, 0.225])
        Resize(min_size=(800,), max_size=1333, mode='bilinear')
    )
    (backbone): BackboneWithFPN(
      (body): IntermediateLayerGetter(
        (conv1): Conv2d(3, 64, kernel_size=(7, 7), stride=(2, 2), padding=(3, 3), bias=False)
        (bn1): FrozenBatchNorm2d(64, eps=1e-05)
        (relu): ReLU(inplace=True)
        (maxpool): MaxPool2d(kernel_size=3, stride=2, padding=1, dilation=1, ceil_mode=False)
        (layer1): Sequential(
          (0): Bottleneck(
            (conv1): Conv2d(64, 64, kernel_size=(1, 1), stride=(1, 1), bias=False)
            (bn1): FrozenBatchNorm2d(64, eps=1e-05)
            (conv2): Conv2d(64, 64, kernel_size=(3, 3), stride=(1, 1), padding=(1, 1), bias=False)
            (bn2): FrozenBatchNorm2d(64, eps=1e-05)
            (conv3): Conv2d(64, 256, kernel_size=(1, 1), stride=(1, 1), bias=False)
            (bn3): FrozenBatchNorm2d(256, eps=1e-05)
            (relu): ReLU(inplace=True)
            (downsample): Sequential(
              (0): Conv2d(64, 256, kernel_size=(1, 1), stride=(1, 1), bias=False)
              (1): FrozenBatchNorm2d(256, eps=1e-05)
            )
          )
          (1): Bottleneck(
            (conv1): Conv2d(256, 64, kernel_size=(1, 1), stride=(1, 1), bias=False)
            (bn1): FrozenBatchNorm2d(64, eps=1e-05)
            (conv2): Conv2d(64, 64, kernel_size=(3, 3), stride=(1, 1), padding=(1, 1), bias=False)
            (bn2): FrozenBatchNorm2d(64, eps=1e-05)
            (conv3): Conv2d(64, 256, kernel_size=(1, 1), stride=(1, 1), bias=False)
            (bn3): FrozenBatchNorm2d(256, eps=1e-05)
            (relu): ReLU(inplace=True)
          )
          (2): Bottleneck(
            (conv1): Conv2d(256, 64, kernel_size=(1, 1), stride=(1, 1), bias=False)
            (bn1): FrozenBatchNorm2d(64, eps=1e-05)
            (conv2): Conv2d(64, 64, kernel_size=(3, 3), stride=(1, 1), padding=(1, 1), bias=False)
            (bn2): FrozenBatchNorm2d(64, eps=1e-05)
            (conv3): Conv2d(64, 256, kernel_size=(1, 1), stride=(1, 1), bias=False)
            (bn3): FrozenBatchNorm2d(256, eps=1e-05)
            (relu): ReLU(inplace=True)
          )
        )
        (layer2): Sequential(
          (0): Bottleneck(
            (conv1): Conv2d(256, 128, kernel_size=(1, 1), stride=(1, 1), bias=False)
            (bn1): FrozenBatchNorm2d(128, eps=1e-05)
            (conv2): Conv2d(128, 128, kernel_size=(3, 3), stride=(2, 2), padding=(1, 1), bias=False)
            (bn2): FrozenBatchNorm2d(128, eps=1e-05)
            (conv3): Conv2d(128, 512, kernel_size=(1, 1), stride=(1, 1), bias=False)
            (bn3): FrozenBatchNorm2d(512, eps=1e-05)
            (relu): ReLU(inplace=True)
            (downsample): Sequential(
              (0): Conv2d(256, 512, kernel_size=(1, 1), stride=(2, 2), bias=False)
              (1): FrozenBatchNorm2d(512, eps=1e-05)
            )
          )
          (1): Bottleneck(
            (conv1): Conv2d(512, 128, kernel_size=(1, 1), stride=(1, 1), bias=False)
            (bn1): FrozenBatchNorm2d(128, eps=1e-05)
            (conv2): Conv2d(128, 128, kernel_size=(3, 3), stride=(1, 1), padding=(1, 1), bias=False)
            (bn2): FrozenBatchNorm2d(128, eps=1e-05)
            (conv3): Conv2d(128, 512, kernel_size=(1, 1), stride=(1, 1), bias=False)
            (bn3): FrozenBatchNorm2d(512, eps=1e-05)
            (relu): ReLU(inplace=True)
          )
          (2): Bottleneck(
            (conv1): Conv2d(512, 128, kernel_size=(1, 1), stride=(1, 1), bias=False)
            (bn1): FrozenBatchNorm2d(128, eps=1e-05)
            (conv2): Conv2d(128, 128, kernel_size=(3, 3), stride=(1, 1), padding=(1, 1), bias=False)
            (bn2): FrozenBatchNorm2d(128, eps=1e-05)
            (conv3): Conv2d(128, 512, kernel_size=(1, 1), stride=(1, 1), bias=False)
            (bn3): FrozenBatchNorm2d(512, eps=1e-05)
            (relu): ReLU(inplace=True)
          )
          (3): Bottleneck(
            (conv1): Conv2d(512, 128, kernel_size=(1, 1), stride=(1, 1), bias=False)
            (bn1): FrozenBatchNorm2d(128, eps=1e-05)
            (conv2): Conv2d(128, 128, kernel_size=(3, 3), stride=(1, 1), padding=(1, 1), bias=False)
            (bn2): FrozenBatchNorm2d(128, eps=1e-05)
            (conv3): Conv2d(128, 512, kernel_size=(1, 1), stride=(1, 1), bias=False)
            (bn3): FrozenBatchNorm2d(512, eps=1e-05)
            (relu): ReLU(inplace=True)
          )
        )
        (layer3): Sequential(
          (0): Bottleneck(
            (conv1): Conv2d(512, 256, kernel_size=(1, 1), stride=(1, 1), bias=False)
            (bn1): FrozenBatchNorm2d(256, eps=1e-05)
            (conv2): Conv2d(256, 256, kernel_size=(3, 3), stride=(2, 2), padding=(1, 1), bias=False)
            (bn2): FrozenBatchNorm2d(256, eps=1e-05)
            (conv3): Conv2d(256, 1024, kernel_size=(1, 1), stride=(1, 1), bias=False)
            (bn3): FrozenBatchNorm2d(1024, eps=1e-05)
            (relu): ReLU(inplace=True)
            (downsample): Sequential(
              (0): Conv2d(512, 1024, kernel_size=(1, 1), stride=(2, 2), bias=False)
              (1): FrozenBatchNorm2d(1024, eps=1e-05)
            )
          )
          (1): Bottleneck(
            (conv1): Conv2d(1024, 256, kernel_size=(1, 1), stride=(1, 1), bias=False)
            (bn1): FrozenBatchNorm2d(256, eps=1e-05)
            (conv2): Conv2d(256, 256, kernel_size=(3, 3), stride=(1, 1), padding=(1, 1), bias=False)
            (bn2): FrozenBatchNorm2d(256, eps=1e-05)
            (conv3): Conv2d(256, 1024, kernel_size=(1, 1), stride=(1, 1), bias=False)
            (bn3): FrozenBatchNorm2d(1024, eps=1e-05)
            (relu): ReLU(inplace=True)
          )
          (2): Bottleneck(
            (conv1): Conv2d(1024, 256, kernel_size=(1, 1), stride=(1, 1), bias=False)
            (bn1): FrozenBatchNorm2d(256, eps=1e-05)
            (conv2): Conv2d(256, 256, kernel_size=(3, 3), stride=(1, 1), padding=(1, 1), bias=False)
            (bn2): FrozenBatchNorm2d(256, eps=1e-05)
            (conv3): Conv2d(256, 1024, kernel_size=(1, 1), stride=(1, 1), bias=False)
            (bn3): FrozenBatchNorm2d(1024, eps=1e-05)
            (relu): ReLU(inplace=True)
          )
          (3): Bottleneck(
            (conv1): Conv2d(1024, 256, kernel_size=(1, 1), stride=(1, 1), bias=False)
            (bn1): FrozenBatchNorm2d(256, eps=1e-05)
            (conv2): Conv2d(256, 256, kernel_size=(3, 3), stride=(1, 1), padding=(1, 1), bias=False)
            (bn2): FrozenBatchNorm2d(256, eps=1e-05)
            (conv3): Conv2d(256, 1024, kernel_size=(1, 1), stride=(1, 1), bias=False)
            (bn3): FrozenBatchNorm2d(1024, eps=1e-05)
            (relu): ReLU(inplace=True)
          )
          (4): Bottleneck(
            (conv1): Conv2d(1024, 256, kernel_size=(1, 1), stride=(1, 1), bias=False)
            (bn1): FrozenBatchNorm2d(256, eps=1e-05)
            (conv2): Conv2d(256, 256, kernel_size=(3, 3), stride=(1, 1), padding=(1, 1), bias=False)
            (bn2): FrozenBatchNorm2d(256, eps=1e-05)
            (conv3): Conv2d(256, 1024, kernel_size=(1, 1), stride=(1, 1), bias=False)
            (bn3): FrozenBatchNorm2d(1024, eps=1e-05)
            (relu): ReLU(inplace=True)
          )
          (5): Bottleneck(
            (conv1): Conv2d(1024, 256, kernel_size=(1, 1), stride=(1, 1), bias=False)
            (bn1): FrozenBatchNorm2d(256, eps=1e-05)
            (conv2): Conv2d(256, 256, kernel_size=(3, 3), stride=(1, 1), padding=(1, 1), bias=False)
            (bn2): FrozenBatchNorm2d(256, eps=1e-05)
            (conv3): Conv2d(256, 1024, kernel_size=(1, 1), stride=(1, 1), bias=False)
            (bn3): FrozenBatchNorm2d(1024, eps=1e-05)
            (relu): ReLU(inplace=True)
          )
        )
        (layer4): Sequential(
          (0): Bottleneck(
            (conv1): Conv2d(1024, 512, kernel_size=(1, 1), stride=(1, 1), bias=False)
            (bn1): FrozenBatchNorm2d(512, eps=1e-05)
            (conv2): Conv2d(512, 512, kernel_size=(3, 3), stride=(2, 2), padding=(1, 1), bias=False)
            (bn2): FrozenBatchNorm2d(512, eps=1e-05)
            (conv3): Conv2d(512, 2048, kernel_size=(1, 1), stride=(1, 1), bias=False)
            (bn3): FrozenBatchNorm2d(2048, eps=1e-05)
            (relu): ReLU(inplace=True)
            (downsample): Sequential(
              (0): Conv2d(1024, 2048, kernel_size=(1, 1), stride=(2, 2), bias=False)
              (1): FrozenBatchNorm2d(2048, eps=1e-05)
            )
          )
          (1): Bottleneck(
            (conv1): Conv2d(2048, 512, kernel_size=(1, 1), stride=(1, 1), bias=False)
            (bn1): FrozenBatchNorm2d(512, eps=1e-05)
            (conv2): Conv2d(512, 512, kernel_size=(3, 3), stride=(1, 1), padding=(1, 1), bias=False)
            (bn2): FrozenBatchNorm2d(512, eps=1e-05)
            (conv3): Conv2d(512, 2048, kernel_size=(1, 1), stride=(1, 1), bias=False)
            (bn3): FrozenBatchNorm2d(2048, eps=1e-05)
            (relu): ReLU(inplace=True)
          )
          (2): Bottleneck(
            (conv1): Conv2d(2048, 512, kernel_size=(1, 1), stride=(1, 1), bias=False)
            (bn1): FrozenBatchNorm2d(512, eps=1e-05)
            (conv2): Conv2d(512, 512, kernel_size=(3, 3), stride=(1, 1), padding=(1, 1), bias=False)
            (bn2): FrozenBatchNorm2d(512, eps=1e-05)
            (conv3): Conv2d(512, 2048, kernel_size=(1, 1), stride=(1, 1), bias=False)
            (bn3): FrozenBatchNorm2d(2048, eps=1e-05)
            (relu): ReLU(inplace=True)
          )
        )
      )
      (fpn): FeaturePyramidNetwork(
        (layer_blocks): ModuleList(
          (0-3): 4 x Conv2dNormActivation(
            (0): Conv2d(256, 256, kernel_size=(3, 3), stride=(1, 1), padding=(1, 1))
          )
        )
        (mgc): MultiLevelGlobalContext(
          (semantic_entities): ModuleList(
            (0): Conv2d(256, 256, kernel_size=(1, 1), stride=(1, 1), bias=False)
            (1): Conv2d(512, 192, kernel_size=(1, 1), stride=(1, 1), bias=False)
            (2): Conv2d(1024, 128, kernel_size=(1, 1), stride=(1, 1), bias=False)
            (3): Conv2d(2048, 64, kernel_size=(1, 1), stride=(1, 1), bias=False)
          )
          (feature_embeddings): ModuleList(
            (0): Conv2d(256, 256, kernel_size=(1, 1), stride=(1, 1), bias=False)
            (1): Conv2d(512, 256, kernel_size=(1, 1), stride=(1, 1), bias=False)
            (2): Conv2d(1024, 256, kernel_size=(1, 1), stride=(1, 1), bias=False)
            (3): Conv2d(2048, 256, kernel_size=(1, 1), stride=(1, 1), bias=False)
          )
          (single_level_gcns): ModuleList(
            (0-3): 4 x Sequential(
              (0): Conv1d(256, 64, kernel_size=(1,), stride=(1,))
              (1): ReLU(inplace=True)
              (2): Conv1d(64, 64, kernel_size=(1,), stride=(1,))
              (3): ReLU(inplace=True)
              (4): Conv1d(64, 256, kernel_size=(1,), stride=(1,))
            )
          )
          (multi_level_gcn): Sequential(
            (0): Conv1d(256, 64, kernel_size=(1,), stride=(1,))
            (1): ReLU(inplace=True)
            (2): Conv1d(64, 64, kernel_size=(1,), stride=(1,))
            (3): ReLU(inplace=True)
            (4): Conv1d(64, 256, kernel_size=(1,), stride=(1,))
          )
          (context_query): ModuleList(
            (0): Conv2d(256, 256, kernel_size=(1, 1), stride=(1, 1), bias=False)
            (1): Conv2d(512, 256, kernel_size=(1, 1), stride=(1, 1), bias=False)
            (2): Conv2d(1024, 256, kernel_size=(1, 1), stride=(1, 1), bias=False)
            (3): Conv2d(2048, 256, kernel_size=(1, 1), stride=(1, 1), bias=False)
          )
          (context_output): ModuleList(
            (0-3): 4 x Conv2d(256, 256, kernel_size=(1, 1), stride=(1, 1), bias=False)
          )
          (residual_proj): ModuleList(
            (0): Conv2d(256, 256, kernel_size=(1, 1), stride=(1, 1), bias=False)
            (1): Conv2d(512, 256, kernel_size=(1, 1), stride=(1, 1), bias=False)
            (2): Conv2d(1024, 256, kernel_size=(1, 1), stride=(1, 1), bias=False)
            (3): Conv2d(2048, 256, kernel_size=(1, 1), stride=(1, 1), bias=False)
          )
        )
        (extra_blocks): LastLevelMaxPool()
      )
    )
    (rpn): RegionProposalNetwork(
      (anchor_generator): AnchorGenerator()
      (head): RPNHead(
        (conv): Sequential(
          (0): Conv2dNormActivation(
            (0): Conv2d(256, 256, kernel_size=(3, 3), stride=(1, 1), padding=(1, 1))
            (1): ReLU(inplace=True)
          )
        )
        (cls_logits): Conv2d(256, 3, kernel_size=(1, 1), stride=(1, 1))
        (bbox_pred): Conv2d(256, 12, kernel_size=(1, 1), stride=(1, 1))
      )
    )
    (roi_heads): RoIHeads(
      (box_roi_pool): MultiScaleRoIAlign(featmap_names=['0', '1', '2', '3'], output_size=(7, 7), sampling_ratio=2)
      (box_head): TwoMLPHead(
        (fc6): Linear(in_features=12544, out_features=1024, bias=True)
        (fc7): Linear(in_features=1024, out_features=1024, bias=True)
      )
      (box_predictor): FastRCNNPredictor(
        (cls_score): Linear(in_features=1024, out_features=91, bias=True)
        (bbox_pred): Linear(in_features=1024, out_features=364, bias=True)
      )
    )
  )
)
Warning: module GeneralizedRCNNTransform is treated as a zero-op.
Warning: module FrozenBatchNorm2d is treated as a zero-op.
Warning: module Bottleneck is treated as a zero-op.
Warning: module IntermediateLayerGetter is treated as a zero-op.
Warning: module Conv2dNormActivation is treated as a zero-op.
Warning: module MultiLevelGlobalContext is treated as a zero-op.
…
Warning: module DistributedDataParallel is treated as a zero-op.
DistributedDataParallel(
  44.37 M, 100.000% Params, 151.93 GMac, 93.903% MACs, 
  (module): FasterRCNN(
    44.37 M, 100.000% Params, 151.93 GMac, 93.903% MACs, 
    (transform): GeneralizedRCNNTransform(
        Normalize(mean=[0.485, 0.456, 0.406], std=[0.229, 0.224, 0.225])
        Resize(min_size=(800,), max_size=1333, mode='bilinear')
    )
    (backbone): BackboneWithFPN(
      29.42 M, 66.294% Params, 105.9 GMac, 65.454% MACs, 
      (body): IntermediateLayerGetter(
        23.23 M, 52.358% Params, 52.26 GMac, 32.303% MACs, 
        (conv1): Conv2d(0, 0.000% Params, 1.51 GMac, 0.930% MACs, 3, 64, kernel_size=(7, 7), stride=(2, 2), padding=(3, 3), bias=False)
        (bn1): FrozenBatchNorm2d(64, eps=1e-05)
        (relu): ReLU(0, 0.000% Params, 10.24 MMac, 0.006% MACs, inplace=True)
        (maxpool): MaxPool2d(0, 0.000% Params, 10.24 MMac, 0.006% MACs, kernel_size=3, stride=2, padding=1, dilation=1, ceil_mode=False)
        (layer1): Sequential(
          0, 0.000% Params, 8.57 GMac, 5.294% MACs, 
          (0): Bottleneck(
            0, 0.000% Params, 2.96 GMac, 1.832% MACs, 
            (conv1): Conv2d(0, 0.000% Params, 163.84 MMac, 0.101% MACs, 64, 64, kernel_size=(1, 1), stride=(1, 1), bias=False)
            (bn1): FrozenBatchNorm2d(64, eps=1e-05)
            (conv2): Conv2d(0, 0.000% Params, 1.47 GMac, 0.911% MACs, 64, 64, kernel_size=(3, 3), stride=(1, 1), padding=(1, 1), bias=False)
            (bn2): FrozenBatchNorm2d(64, eps=1e-05)
            (conv3): Conv2d(0, 0.000% Params, 655.36 MMac, 0.405% MACs, 64, 256, kernel_size=(1, 1), stride=(1, 1), bias=False)
            (bn3): FrozenBatchNorm2d(256, eps=1e-05)
            (relu): ReLU(0, 0.000% Params, 15.36 MMac, 0.009% MACs, inplace=True)
            (downsample): Sequential(
              0, 0.000% Params, 655.36 MMac, 0.405% MACs, 
              (0): Conv2d(0, 0.000% Params, 655.36 MMac, 0.405% MACs, 64, 256, kernel_size=(1, 1), stride=(1, 1), bias=False)
              (1): FrozenBatchNorm2d(256, eps=1e-05)
            )
          )
          (1): Bottleneck(
            0, 0.000% Params, 2.8 GMac, 1.731% MACs, 
            (conv1): Conv2d(0, 0.000% Params, 655.36 MMac, 0.405% MACs, 256, 64, kernel_size=(1, 1), stride=(1, 1), bias=False)
            (bn1): FrozenBatchNorm2d(64, eps=1e-05)
            (conv2): Conv2d(0, 0.000% Params, 1.47 GMac, 0.911% MACs, 64, 64, kernel_size=(3, 3), stride=(1, 1), padding=(1, 1), bias=False)
            (bn2): FrozenBatchNorm2d(64, eps=1e-05)
            (conv3): Conv2d(0, 0.000% Params, 655.36 MMac, 0.405% MACs, 64, 256, kernel_size=(1, 1), stride=(1, 1), bias=False)
            (bn3): FrozenBatchNorm2d(256, eps=1e-05)
            (relu): ReLU(0, 0.000% Params, 15.36 MMac, 0.009% MACs, inplace=True)
          )
          (2): Bottleneck(
            0, 0.000% Params, 2.8 GMac, 1.731% MACs, 
            (conv1): Conv2d(0, 0.000% Params, 655.36 MMac, 0.405% MACs, 256, 64, kernel_size=(1, 1), stride=(1, 1), bias=False)
            (bn1): FrozenBatchNorm2d(64, eps=1e-05)
            (conv2): Conv2d(0, 0.000% Params, 1.47 GMac, 0.911% MACs, 64, 64, kernel_size=(3, 3), stride=(1, 1), padding=(1, 1), bias=False)
            (bn2): FrozenBatchNorm2d(64, eps=1e-05)
            (conv3): Conv2d(0, 0.000% Params, 655.36 MMac, 0.405% MACs, 64, 256, kernel_size=(1, 1), stride=(1, 1), bias=False)
            (bn3): FrozenBatchNorm2d(256, eps=1e-05)
            (relu): ReLU(0, 0.000% Params, 15.36 MMac, 0.009% MACs, inplace=True)
          )
        )
        (layer2): Sequential(
          1.21 M, 2.732% Params, 13.14 GMac, 8.122% MACs, 
          (0): Bottleneck(
            376.83 k, 0.849% Params, 4.76 GMac, 2.944% MACs, 
            (conv1): Conv2d(32.77 k, 0.074% Params, 1.31 GMac, 0.810% MACs, 256, 128, kernel_size=(1, 1), stride=(1, 1), bias=False)
            (bn1): FrozenBatchNorm2d(128, eps=1e-05)
            (conv2): Conv2d(147.46 k, 0.332% Params, 1.47 GMac, 0.911% MACs, 128, 128, kernel_size=(3, 3), stride=(2, 2), padding=(1, 1), bias=False)
            (bn2): FrozenBatchNorm2d(128, eps=1e-05)
            (conv3): Conv2d(65.54 k, 0.148% Params, 655.36 MMac, 0.405% MACs, 128, 512, kernel_size=(1, 1), stride=(1, 1), bias=False)
            (bn3): FrozenBatchNorm2d(512, eps=1e-05)
            (relu): ReLU(0, 0.000% Params, 11.52 MMac, 0.007% MACs, inplace=True)
            (downsample): Sequential(
              131.07 k, 0.295% Params, 1.31 GMac, 0.810% MACs, 
              (0): Conv2d(131.07 k, 0.295% Params, 1.31 GMac, 0.810% MACs, 256, 512, kernel_size=(1, 1), stride=(2, 2), bias=False)
              (1): FrozenBatchNorm2d(512, eps=1e-05)
            )
          )
          (1): Bottleneck(
            278.53 k, 0.628% Params, 2.79 GMac, 1.726% MACs, 
            (conv1): Conv2d(65.54 k, 0.148% Params, 655.36 MMac, 0.405% MACs, 512, 128, kernel_size=(1, 1), stride=(1, 1), bias=False)
            (bn1): FrozenBatchNorm2d(128, eps=1e-05)
            (conv2): Conv2d(147.46 k, 0.332% Params, 1.47 GMac, 0.911% MACs, 128, 128, kernel_size=(3, 3), stride=(1, 1), padding=(1, 1), bias=False)
            (bn2): FrozenBatchNorm2d(128, eps=1e-05)
            (conv3): Conv2d(65.54 k, 0.148% Params, 655.36 MMac, 0.405% MACs, 128, 512, kernel_size=(1, 1), stride=(1, 1), bias=False)
            (bn3): FrozenBatchNorm2d(512, eps=1e-05)
            (relu): ReLU(0, 0.000% Params, 7.68 MMac, 0.005% MACs, inplace=True)
          )
          (2): Bottleneck(
            278.53 k, 0.628% Params, 2.79 GMac, 1.726% MACs, 
            (conv1): Conv2d(65.54 k, 0.148% Params, 655.36 MMac, 0.405% MACs, 512, 128, kernel_size=(1, 1), stride=(1, 1), bias=False)
            (bn1): FrozenBatchNorm2d(128, eps=1e-05)
            (conv2): Conv2d(147.46 k, 0.332% Params, 1.47 GMac, 0.911% MACs, 128, 128, kernel_size=(3, 3), stride=(1, 1), padding=(1, 1), bias=False)
            (bn2): FrozenBatchNorm2d(128, eps=1e-05)
            (conv3): Conv2d(65.54 k, 0.148% Params, 655.36 MMac, 0.405% MACs, 128, 512, kernel_size=(1, 1), stride=(1, 1), bias=False)
            (bn3): FrozenBatchNorm2d(512, eps=1e-05)
            (relu): ReLU(0, 0.000% Params, 7.68 MMac, 0.005% MACs, inplace=True)
          )
          (3): Bottleneck(
            278.53 k, 0.628% Params, 2.79 GMac, 1.726% MACs, 
            (conv1): Conv2d(65.54 k, 0.148% Params, 655.36 MMac, 0.405% MACs, 512, 128, kernel_size=(1, 1), stride=(1, 1), bias=False)
            (bn1): FrozenBatchNorm2d(128, eps=1e-05)
            (conv2): Conv2d(147.46 k, 0.332% Params, 1.47 GMac, 0.911% MACs, 128, 128, kernel_size=(3, 3), stride=(1, 1), padding=(1, 1), bias=False)
            (bn2): FrozenBatchNorm2d(128, eps=1e-05)
            (conv3): Conv2d(65.54 k, 0.148% Params, 655.36 MMac, 0.405% MACs, 128, 512, kernel_size=(1, 1), stride=(1, 1), bias=False)
            (bn3): FrozenBatchNorm2d(512, eps=1e-05)
            (relu): ReLU(0, 0.000% Params, 7.68 MMac, 0.005% MACs, inplace=True)
          )
        )
        (layer3): Sequential(
          7.08 M, 15.951% Params, 18.7 GMac, 11.559% MACs, 
          (0): Bottleneck(
            1.51 M, 3.397% Params, 4.76 GMac, 2.940% MACs, 
            (conv1): Conv2d(131.07 k, 0.295% Params, 1.31 GMac, 0.810% MACs, 512, 256, kernel_size=(1, 1), stride=(1, 1), bias=False)
            (bn1): FrozenBatchNorm2d(256, eps=1e-05)
            (conv2): Conv2d(589.82 k, 1.329% Params, 1.47 GMac, 0.911% MACs, 256, 256, kernel_size=(3, 3), stride=(2, 2), padding=(1, 1), bias=False)
            (bn2): FrozenBatchNorm2d(256, eps=1e-05)
            (conv3): Conv2d(262.14 k, 0.591% Params, 655.36 MMac, 0.405% MACs, 256, 1024, kernel_size=(1, 1), stride=(1, 1), bias=False)
            (bn3): FrozenBatchNorm2d(1024, eps=1e-05)
            (relu): ReLU(0, 0.000% Params, 5.76 MMac, 0.004% MACs, inplace=True)
            (downsample): Sequential(
              524.29 k, 1.182% Params, 1.31 GMac, 0.810% MACs, 
              (0): Conv2d(524.29 k, 1.182% Params, 1.31 GMac, 0.810% MACs, 512, 1024, kernel_size=(1, 1), stride=(2, 2), bias=False)
              (1): FrozenBatchNorm2d(1024, eps=1e-05)
            )
          )
          (1): Bottleneck(
            1.11 M, 2.511% Params, 2.79 GMac, 1.724% MACs, 
            (conv1): Conv2d(262.14 k, 0.591% Params, 655.36 MMac, 0.405% MACs, 1024, 256, kernel_size=(1, 1), stride=(1, 1), bias=False)
            (bn1): FrozenBatchNorm2d(256, eps=1e-05)
            (conv2): Conv2d(589.82 k, 1.329% Params, 1.47 GMac, 0.911% MACs, 256, 256, kernel_size=(3, 3), stride=(1, 1), padding=(1, 1), bias=False)
            (bn2): FrozenBatchNorm2d(256, eps=1e-05)
            (conv3): Conv2d(262.14 k, 0.591% Params, 655.36 MMac, 0.405% MACs, 256, 1024, kernel_size=(1, 1), stride=(1, 1), bias=False)
            (bn3): FrozenBatchNorm2d(1024, eps=1e-05)
            (relu): ReLU(0, 0.000% Params, 3.84 MMac, 0.002% MACs, inplace=True)
          )
          (2): Bottleneck(
            1.11 M, 2.511% Params, 2.79 GMac, 1.724% MACs, 
            (conv1): Conv2d(262.14 k, 0.591% Params, 655.36 MMac, 0.405% MACs, 1024, 256, kernel_size=(1, 1), stride=(1, 1), bias=False)
            (bn1): FrozenBatchNorm2d(256, eps=1e-05)
            (conv2): Conv2d(589.82 k, 1.329% Params, 1.47 GMac, 0.911% MACs, 256, 256, kernel_size=(3, 3), stride=(1, 1), padding=(1, 1), bias=False)
            (bn2): FrozenBatchNorm2d(256, eps=1e-05)
            (conv3): Conv2d(262.14 k, 0.591% Params, 655.36 MMac, 0.405% MACs, 256, 1024, kernel_size=(1, 1), stride=(1, 1), bias=False)
            (bn3): FrozenBatchNorm2d(1024, eps=1e-05)
            (relu): ReLU(0, 0.000% Params, 3.84 MMac, 0.002% MACs, inplace=True)
          )
          (3): Bottleneck(
            1.11 M, 2.511% Params, 2.79 GMac, 1.724% MACs, 
            (conv1): Conv2d(262.14 k, 0.591% Params, 655.36 MMac, 0.405% MACs, 1024, 256, kernel_size=(1, 1), stride=(1, 1), bias=False)
            (bn1): FrozenBatchNorm2d(256, eps=1e-05)
            (conv2): Conv2d(589.82 k, 1.329% Params, 1.47 GMac, 0.911% MACs, 256, 256, kernel_size=(3, 3), stride=(1, 1), padding=(1, 1), bias=False)
            (bn2): FrozenBatchNorm2d(256, eps=1e-05)
            (conv3): Conv2d(262.14 k, 0.591% Params, 655.36 MMac, 0.405% MACs, 256, 1024, kernel_size=(1, 1), stride=(1, 1), bias=False)
            (bn3): FrozenBatchNorm2d(1024, eps=1e-05)
            (relu): ReLU(0, 0.000% Params, 3.84 MMac, 0.002% MACs, inplace=True)
          )
          (4): Bottleneck(
            1.11 M, 2.511% Params, 2.79 GMac, 1.724% MACs, 
            (conv1): Conv2d(262.14 k, 0.591% Params, 655.36 MMac, 0.405% MACs, 1024, 256, kernel_size=(1, 1), stride=(1, 1), bias=False)
            (bn1): FrozenBatchNorm2d(256, eps=1e-05)
            (conv2): Conv2d(589.82 k, 1.329% Params, 1.47 GMac, 0.911% MACs, 256, 256, kernel_size=(3, 3), stride=(1, 1), padding=(1, 1), bias=False)
            (bn2): FrozenBatchNorm2d(256, eps=1e-05)
            (conv3): Conv2d(262.14 k, 0.591% Params, 655.36 MMac, 0.405% MACs, 256, 1024, kernel_size=(1, 1), stride=(1, 1), bias=False)
            (bn3): FrozenBatchNorm2d(1024, eps=1e-05)
            (relu): ReLU(0, 0.000% Params, 3.84 MMac, 0.002% MACs, inplace=True)
          )
          (5): Bottleneck(
            1.11 M, 2.511% Params, 2.79 GMac, 1.724% MACs, 
            (conv1): Conv2d(262.14 k, 0.591% Params, 655.36 MMac, 0.405% MACs, 1024, 256, kernel_size=(1, 1), stride=(1, 1), bias=False)
            (bn1): FrozenBatchNorm2d(256, eps=1e-05)
            (conv2): Conv2d(589.82 k, 1.329% Params, 1.47 GMac, 0.911% MACs, 256, 256, kernel_size=(3, 3), stride=(1, 1), padding=(1, 1), bias=False)
            (bn2): FrozenBatchNorm2d(256, eps=1e-05)
            (conv3): Conv2d(262.14 k, 0.591% Params, 655.36 MMac, 0.405% MACs, 256, 1024, kernel_size=(1, 1), stride=(1, 1), bias=False)
            (bn3): FrozenBatchNorm2d(1024, eps=1e-05)
            (relu): ReLU(0, 0.000% Params, 3.84 MMac, 0.002% MACs, inplace=True)
          )
        )
        (layer4): Sequential(
          14.94 M, 33.675% Params, 10.33 GMac, 6.384% MACs, 
          (0): Bottleneck(
            6.03 M, 13.588% Params, 4.75 GMac, 2.938% MACs, 
            (conv1): Conv2d(524.29 k, 1.182% Params, 1.31 GMac, 0.810% MACs, 1024, 512, kernel_size=(1, 1), stride=(1, 1), bias=False)
            (bn1): FrozenBatchNorm2d(512, eps=1e-05)
            (conv2): Conv2d(2.36 M, 5.317% Params, 1.47 GMac, 0.911% MACs, 512, 512, kernel_size=(3, 3), stride=(2, 2), padding=(1, 1), bias=False)
            (bn2): FrozenBatchNorm2d(512, eps=1e-05)
            (conv3): Conv2d(1.05 M, 2.363% Params, 655.36 MMac, 0.405% MACs, 512, 2048, kernel_size=(1, 1), stride=(1, 1), bias=False)
            (bn3): FrozenBatchNorm2d(2048, eps=1e-05)
            (relu): ReLU(0, 0.000% Params, 2.88 MMac, 0.002% MACs, inplace=True)
            (downsample): Sequential(
              2.1 M, 4.726% Params, 1.31 GMac, 0.810% MACs, 
              (0): Conv2d(2.1 M, 4.726% Params, 1.31 GMac, 0.810% MACs, 1024, 2048, kernel_size=(1, 1), stride=(2, 2), bias=False)
              (1): FrozenBatchNorm2d(2048, eps=1e-05)
            )
          )
          (1): Bottleneck(
            4.46 M, 10.043% Params, 2.79 GMac, 1.723% MACs, 
            (conv1): Conv2d(1.05 M, 2.363% Params, 655.36 MMac, 0.405% MACs, 2048, 512, kernel_size=(1, 1), stride=(1, 1), bias=False)
            (bn1): FrozenBatchNorm2d(512, eps=1e-05)
            (conv2): Conv2d(2.36 M, 5.317% Params, 1.47 GMac, 0.911% MACs, 512, 512, kernel_size=(3, 3), stride=(1, 1), padding=(1, 1), bias=False)
            (bn2): FrozenBatchNorm2d(512, eps=1e-05)
            (conv3): Conv2d(1.05 M, 2.363% Params, 655.36 MMac, 0.405% MACs, 512, 2048, kernel_size=(1, 1), stride=(1, 1), bias=False)
            (bn3): FrozenBatchNorm2d(2048, eps=1e-05)
            (relu): ReLU(0, 0.000% Params, 1.92 MMac, 0.001% MACs, inplace=True)
          )
          (2): Bottleneck(
            4.46 M, 10.043% Params, 2.79 GMac, 1.723% MACs, 
            (conv1): Conv2d(1.05 M, 2.363% Params, 655.36 MMac, 0.405% MACs, 2048, 512, kernel_size=(1, 1), stride=(1, 1), bias=False)
            (bn1): FrozenBatchNorm2d(512, eps=1e-05)
            (conv2): Conv2d(2.36 M, 5.317% Params, 1.47 GMac, 0.911% MACs, 512, 512, kernel_size=(3, 3), stride=(1, 1), padding=(1, 1), bias=False)
            (bn2): FrozenBatchNorm2d(512, eps=1e-05)
            (conv3): Conv2d(1.05 M, 2.363% Params, 655.36 MMac, 0.405% MACs, 512, 2048, kernel_size=(1, 1), stride=(1, 1), bias=False)
            (bn3): FrozenBatchNorm2d(2048, eps=1e-05)
            (relu): ReLU(0, 0.000% Params, 1.92 MMac, 0.001% MACs, inplace=True)
          )
        )
      )
      (fpn): FeaturePyramidNetwork(
        6.18 M, 13.936% Params, 53.64 GMac, 33.151% MACs, 
        (layer_blocks): ModuleList(
          (0): Conv2dNormActivation(
            590.08 k, 1.330% Params, 23.6 GMac, 14.588% MACs, 
            (0): Conv2d(590.08 k, 1.330% Params, 23.6 GMac, 14.588% MACs, 256, 256, kernel_size=(3, 3), stride=(1, 1), padding=(1, 1))
          )
          (1): Conv2dNormActivation(
            590.08 k, 1.330% Params, 5.9 GMac, 3.647% MACs, 
            (0): Conv2d(590.08 k, 1.330% Params, 5.9 GMac, 3.647% MACs, 256, 256, kernel_size=(3, 3), stride=(1, 1), padding=(1, 1))
          )
          (2): Conv2dNormActivation(
            590.08 k, 1.330% Params, 1.48 GMac, 0.912% MACs, 
            (0): Conv2d(590.08 k, 1.330% Params, 1.48 GMac, 0.912% MACs, 256, 256, kernel_size=(3, 3), stride=(1, 1), padding=(1, 1))
          )
          (3): Conv2dNormActivation(
            590.08 k, 1.330% Params, 368.8 MMac, 0.228% MACs, 
            (0): Conv2d(590.08 k, 1.330% Params, 368.8 MMac, 0.228% MACs, 256, 256, kernel_size=(3, 3), stride=(1, 1), padding=(1, 1))
          )
        )
        (mgc): MultiLevelGlobalContext(
          3.82 M, 8.617% Params, 22.29 GMac, 13.776% MACs, 
          (semantic_entities): ModuleList(
            (0): Conv2d(65.54 k, 0.148% Params, 2.62 GMac, 1.620% MACs, 256, 256, kernel_size=(1, 1), stride=(1, 1), bias=False)
            (1): Conv2d(98.3 k, 0.222% Params, 983.04 MMac, 0.608% MACs, 512, 192, kernel_size=(1, 1), stride=(1, 1), bias=False)
            (2): Conv2d(131.07 k, 0.295% Params, 327.68 MMac, 0.203% MACs, 1024, 128, kernel_size=(1, 1), stride=(1, 1), bias=False)
            (3): Conv2d(131.07 k, 0.295% Params, 81.92 MMac, 0.051% MACs, 2048, 64, kernel_size=(1, 1), stride=(1, 1), bias=False)
          )
          (feature_embeddings): ModuleList(
            (0): Conv2d(65.54 k, 0.148% Params, 2.62 GMac, 1.620% MACs, 256, 256, kernel_size=(1, 1), stride=(1, 1), bias=False)
            (1): Conv2d(131.07 k, 0.295% Params, 1.31 GMac, 0.810% MACs, 512, 256, kernel_size=(1, 1), stride=(1, 1), bias=False)
            (2): Conv2d(262.14 k, 0.591% Params, 655.36 MMac, 0.405% MACs, 1024, 256, kernel_size=(1, 1), stride=(1, 1), bias=False)
            (3): Conv2d(524.29 k, 1.182% Params, 327.68 MMac, 0.203% MACs, 2048, 256, kernel_size=(1, 1), stride=(1, 1), bias=False)
          )
          (single_level_gcns): ModuleList(
            (0): Sequential(
              37.25 k, 0.084% Params, 9.57 MMac, 0.006% MACs, 
              (0): Conv1d(16.45 k, 0.037% Params, 4.21 MMac, 0.003% MACs, 256, 64, kernel_size=(1,), stride=(1,))
              (1): ReLU(0, 0.000% Params, 16.38 KMac, 0.000% MACs, inplace=True)
              (2): Conv1d(4.16 k, 0.009% Params, 1.06 MMac, 0.001% MACs, 64, 64, kernel_size=(1,), stride=(1,))
              (3): ReLU(0, 0.000% Params, 16.38 KMac, 0.000% MACs, inplace=True)
              (4): Conv1d(16.64 k, 0.038% Params, 4.26 MMac, 0.003% MACs, 64, 256, kernel_size=(1,), stride=(1,))
            )
            (1): Sequential(
              37.25 k, 0.084% Params, 7.18 MMac, 0.004% MACs, 
              (0): Conv1d(16.45 k, 0.037% Params, 3.16 MMac, 0.002% MACs, 256, 64, kernel_size=(1,), stride=(1,))
              (1): ReLU(0, 0.000% Params, 12.29 KMac, 0.000% MACs, inplace=True)
              (2): Conv1d(4.16 k, 0.009% Params, 798.72 KMac, 0.000% MACs, 64, 64, kernel_size=(1,), stride=(1,))
              (3): ReLU(0, 0.000% Params, 12.29 KMac, 0.000% MACs, inplace=True)
              (4): Conv1d(16.64 k, 0.038% Params, 3.19 MMac, 0.002% MACs, 64, 256, kernel_size=(1,), stride=(1,))
            )
            (2): Sequential(
              37.25 k, 0.084% Params, 4.78 MMac, 0.003% MACs, 
              (0): Conv1d(16.45 k, 0.037% Params, 2.11 MMac, 0.001% MACs, 256, 64, kernel_size=(1,), stride=(1,))
              (1): ReLU(0, 0.000% Params, 8.19 KMac, 0.000% MACs, inplace=True)
              (2): Conv1d(4.16 k, 0.009% Params, 532.48 KMac, 0.000% MACs, 64, 64, kernel_size=(1,), stride=(1,))
              (3): ReLU(0, 0.000% Params, 8.19 KMac, 0.000% MACs, inplace=True)
              (4): Conv1d(16.64 k, 0.038% Params, 2.13 MMac, 0.001% MACs, 64, 256, kernel_size=(1,), stride=(1,))
            )
            (3): Sequential(
              37.25 k, 0.084% Params, 2.39 MMac, 0.001% MACs, 
              (0): Conv1d(16.45 k, 0.037% Params, 1.05 MMac, 0.001% MACs, 256, 64, kernel_size=(1,), stride=(1,))
              (1): ReLU(0, 0.000% Params, 4.1 KMac, 0.000% MACs, inplace=True)
              (2): Conv1d(4.16 k, 0.009% Params, 266.24 KMac, 0.000% MACs, 64, 64, kernel_size=(1,), stride=(1,))
              (3): ReLU(0, 0.000% Params, 4.1 KMac, 0.000% MACs, inplace=True)
              (4): Conv1d(16.64 k, 0.038% Params, 1.06 MMac, 0.001% MACs, 64, 256, kernel_size=(1,), stride=(1,))
            )
          )
          (multi_level_gcn): Sequential(
            37.25 k, 0.084% Params, 23.92 MMac, 0.015% MACs, 
            (0): Conv1d(16.45 k, 0.037% Params, 10.53 MMac, 0.007% MACs, 256, 64, kernel_size=(1,), stride=(1,))
            (1): ReLU(0, 0.000% Params, 40.96 KMac, 0.000% MACs, inplace=True)
            (2): Conv1d(4.16 k, 0.009% Params, 2.66 MMac, 0.002% MACs, 64, 64, kernel_size=(1,), stride=(1,))
            (3): ReLU(0, 0.000% Params, 40.96 KMac, 0.000% MACs, inplace=True)
            (4): Conv1d(16.64 k, 0.038% Params, 10.65 MMac, 0.007% MACs, 64, 256, kernel_size=(1,), stride=(1,))
          )
          (context_query): ModuleList(
            (0): Conv2d(65.54 k, 0.148% Params, 2.62 GMac, 1.620% MACs, 256, 256, kernel_size=(1, 1), stride=(1, 1), bias=False)
            (1): Conv2d(131.07 k, 0.295% Params, 1.31 GMac, 0.810% MACs, 512, 256, kernel_size=(1, 1), stride=(1, 1), bias=False)
            (2): Conv2d(262.14 k, 0.591% Params, 655.36 MMac, 0.405% MACs, 1024, 256, kernel_size=(1, 1), stride=(1, 1), bias=False)
            (3): Conv2d(524.29 k, 1.182% Params, 327.68 MMac, 0.203% MACs, 2048, 256, kernel_size=(1, 1), stride=(1, 1), bias=False)
          )
          (context_output): ModuleList(
            (0): Conv2d(65.54 k, 0.148% Params, 2.62 GMac, 1.620% MACs, 256, 256, kernel_size=(1, 1), stride=(1, 1), bias=False)
            (1): Conv2d(65.54 k, 0.148% Params, 655.36 MMac, 0.405% MACs, 256, 256, kernel_size=(1, 1), stride=(1, 1), bias=False)
            (2): Conv2d(65.54 k, 0.148% Params, 163.84 MMac, 0.101% MACs, 256, 256, kernel_size=(1, 1), stride=(1, 1), bias=False)
            (3): Conv2d(65.54 k, 0.148% Params, 40.96 MMac, 0.025% MACs, 256, 256, kernel_size=(1, 1), stride=(1, 1), bias=False)
          )
          (residual_proj): ModuleList(
            (0): Conv2d(65.54 k, 0.148% Params, 2.62 GMac, 1.620% MACs, 256, 256, kernel_size=(1, 1), stride=(1, 1), bias=False)
            (1): Conv2d(131.07 k, 0.295% Params, 1.31 GMac, 0.810% MACs, 512, 256, kernel_size=(1, 1), stride=(1, 1), bias=False)
            (2): Conv2d(262.14 k, 0.591% Params, 655.36 MMac, 0.405% MACs, 1024, 256, kernel_size=(1, 1), stride=(1, 1), bias=False)
            (3): Conv2d(524.29 k, 1.182% Params, 327.68 MMac, 0.203% MACs, 2048, 256, kernel_size=(1, 1), stride=(1, 1), bias=False)
          )
        )
        (extra_blocks): LastLevelMaxPool(0, 0.000% Params, 0.0 Mac, 0.000% MACs, )
      )
    )
    (rpn): RegionProposalNetwork(
      593.93 k, 1.339% Params, 31.67 GMac, 19.572% MACs, 
      (anchor_generator): AnchorGenerator(0, 0.000% Params, 0.0 Mac, 0.000% MACs, )
      (head): RPNHead(
        593.93 k, 1.339% Params, 31.67 GMac, 19.572% MACs, 
        (conv): Sequential(
          590.08 k, 1.330% Params, 31.46 GMac, 19.445% MACs, 
          (0): Conv2dNormActivation(
            590.08 k, 1.330% Params, 31.46 GMac, 19.445% MACs, 
            (0): Conv2d(590.08 k, 1.330% Params, 31.45 GMac, 19.437% MACs, 256, 256, kernel_size=(3, 3), stride=(1, 1), padding=(1, 1))
            (1): ReLU(0, 0.000% Params, 13.64 MMac, 0.008% MACs, inplace=True)
          )
        )
        (cls_logits): Conv2d(771, 0.002% Params, 41.09 MMac, 0.025% MACs, 256, 3, kernel_size=(1, 1), stride=(1, 1))
        (bbox_pred): Conv2d(3.08 k, 0.007% Params, 164.36 MMac, 0.102% MACs, 256, 12, kernel_size=(1, 1), stride=(1, 1))
      )
    )
    (roi_heads): RoIHeads(
      14.36 M, 32.367% Params, 14.36 GMac, 8.877% MACs, 
      (box_roi_pool): MultiScaleRoIAlign(featmap_names=['0', '1', '2', '3'], output_size=(7, 7), sampling_ratio=2)
      (box_head): TwoMLPHead(
        13.9 M, 31.316% Params, 13.9 GMac, 8.588% MACs, 
        (fc6): Linear(12.85 M, 28.951% Params, 12.85 GMac, 7.940% MACs, in_features=12544, out_features=1024, bias=True)
        (fc7): Linear(1.05 M, 2.365% Params, 1.05 GMac, 0.649% MACs, in_features=1024, out_features=1024, bias=True)
      )
      (box_predictor): FastRCNNPredictor(
        466.38 k, 1.051% Params, 466.38 MMac, 0.288% MACs, 
        (cls_score): Linear(93.28 k, 0.210% Params, 93.28 MMac, 0.058% MACs, in_features=1024, out_features=91, bias=True)
        (bbox_pred): Linear(373.1 k, 0.841% Params, 373.1 MMac, 0.231% MACs, in_features=1024, out_features=364, bias=True)
      )
    )
  )
)
FLOPs: 161.8 GMac, Params: 44.37 M
Start training
/home/hslee/SONeck/vision/references/detection/engine.py:41: FutureWarning: `torch.cuda.amp.autocast(args...)` is deprecated. Please use `torch.amp.autocast('cuda', args...)` instead.
  with torch.cuda.amp.autocast(enabled=scaler is not None):
…
