…
Using [0, 0.5, 0.6299605249474366, 0.7937005259840997, 1.0, 1.2599210498948732, 1.5874010519681994, 2.0, inf] as bins for aspect ratio quantization
Count of instances per bin: [   58   492 10629  1166  3284 29808  2213   412]
Creating model
len(in_channels_list): 4
model: DistributedDataParallel(
  (module): KeypointRCNN(
    (transform): GeneralizedRCNNTransform(
        Normalize(mean=[0.485, 0.456, 0.406], std=[0.229, 0.224, 0.225])
        Resize(min_size=(640, 672, 704, 736, 768, 800), max_size=1333, mode='bilinear')
    )
    (backbone): BackboneWithFPN(
      (body): IntermediateLayerGetter(
        (conv1): Conv2d(3, 64, kernel_size=(7, 7), stride=(2, 2), padding=(3, 3), bias=False)
        (bn1): FrozenBatchNorm2d(64, eps=1e-05)
        (relu): ReLU(inplace=True)
        (maxpool): MaxPool2d(kernel_size=3, stride=2, padding=1, dilation=1, ceil_mode=False)
        (layer1): Sequential(
          (0): Bottleneck(
            (conv1): Conv2d(64, 64, kernel_size=(1, 1), stride=(1, 1), bias=False)
            (bn1): FrozenBatchNorm2d(64, eps=1e-05)
            (conv2): Conv2d(64, 64, kernel_size=(3, 3), stride=(1, 1), padding=(1, 1), bias=False)
            (bn2): FrozenBatchNorm2d(64, eps=1e-05)
            (conv3): Conv2d(64, 256, kernel_size=(1, 1), stride=(1, 1), bias=False)
            (bn3): FrozenBatchNorm2d(256, eps=1e-05)
            (relu): ReLU(inplace=True)
            (downsample): Sequential(
              (0): Conv2d(64, 256, kernel_size=(1, 1), stride=(1, 1), bias=False)
              (1): FrozenBatchNorm2d(256, eps=1e-05)
            )
          )
          (1): Bottleneck(
            (conv1): Conv2d(256, 64, kernel_size=(1, 1), stride=(1, 1), bias=False)
            (bn1): FrozenBatchNorm2d(64, eps=1e-05)
            (conv2): Conv2d(64, 64, kernel_size=(3, 3), stride=(1, 1), padding=(1, 1), bias=False)
            (bn2): FrozenBatchNorm2d(64, eps=1e-05)
            (conv3): Conv2d(64, 256, kernel_size=(1, 1), stride=(1, 1), bias=False)
            (bn3): FrozenBatchNorm2d(256, eps=1e-05)
            (relu): ReLU(inplace=True)
          )
          (2): Bottleneck(
            (conv1): Conv2d(256, 64, kernel_size=(1, 1), stride=(1, 1), bias=False)
            (bn1): FrozenBatchNorm2d(64, eps=1e-05)
            (conv2): Conv2d(64, 64, kernel_size=(3, 3), stride=(1, 1), padding=(1, 1), bias=False)
            (bn2): FrozenBatchNorm2d(64, eps=1e-05)
            (conv3): Conv2d(64, 256, kernel_size=(1, 1), stride=(1, 1), bias=False)
            (bn3): FrozenBatchNorm2d(256, eps=1e-05)
            (relu): ReLU(inplace=True)
          )
        )
        (layer2): Sequential(
          (0): Bottleneck(
            (conv1): Conv2d(256, 128, kernel_size=(1, 1), stride=(1, 1), bias=False)
            (bn1): FrozenBatchNorm2d(128, eps=1e-05)
            (conv2): Conv2d(128, 128, kernel_size=(3, 3), stride=(2, 2), padding=(1, 1), bias=False)
            (bn2): FrozenBatchNorm2d(128, eps=1e-05)
            (conv3): Conv2d(128, 512, kernel_size=(1, 1), stride=(1, 1), bias=False)
            (bn3): FrozenBatchNorm2d(512, eps=1e-05)
            (relu): ReLU(inplace=True)
            (downsample): Sequential(
              (0): Conv2d(256, 512, kernel_size=(1, 1), stride=(2, 2), bias=False)
              (1): FrozenBatchNorm2d(512, eps=1e-05)
            )
          )
          (1): Bottleneck(
            (conv1): Conv2d(512, 128, kernel_size=(1, 1), stride=(1, 1), bias=False)
            (bn1): FrozenBatchNorm2d(128, eps=1e-05)
            (conv2): Conv2d(128, 128, kernel_size=(3, 3), stride=(1, 1), padding=(1, 1), bias=False)
            (bn2): FrozenBatchNorm2d(128, eps=1e-05)
            (conv3): Conv2d(128, 512, kernel_size=(1, 1), stride=(1, 1), bias=False)
            (bn3): FrozenBatchNorm2d(512, eps=1e-05)
            (relu): ReLU(inplace=True)
          )
          (2): Bottleneck(
            (conv1): Conv2d(512, 128, kernel_size=(1, 1), stride=(1, 1), bias=False)
            (bn1): FrozenBatchNorm2d(128, eps=1e-05)
            (conv2): Conv2d(128, 128, kernel_size=(3, 3), stride=(1, 1), padding=(1, 1), bias=False)
            (bn2): FrozenBatchNorm2d(128, eps=1e-05)
            (conv3): Conv2d(128, 512, kernel_size=(1, 1), stride=(1, 1), bias=False)
            (bn3): FrozenBatchNorm2d(512, eps=1e-05)
            (relu): ReLU(inplace=True)
          )
          (3): Bottleneck(
            (conv1): Conv2d(512, 128, kernel_size=(1, 1), stride=(1, 1), bias=False)
            (bn1): FrozenBatchNorm2d(128, eps=1e-05)
            (conv2): Conv2d(128, 128, kernel_size=(3, 3), stride=(1, 1), padding=(1, 1), bias=False)
            (bn2): FrozenBatchNorm2d(128, eps=1e-05)
            (conv3): Conv2d(128, 512, kernel_size=(1, 1), stride=(1, 1), bias=False)
            (bn3): FrozenBatchNorm2d(512, eps=1e-05)
            (relu): ReLU(inplace=True)
          )
        )
        (layer3): Sequential(
          (0): Bottleneck(
            (conv1): Conv2d(512, 256, kernel_size=(1, 1), stride=(1, 1), bias=False)
            (bn1): FrozenBatchNorm2d(256, eps=1e-05)
            (conv2): Conv2d(256, 256, kernel_size=(3, 3), stride=(2, 2), padding=(1, 1), bias=False)
            (bn2): FrozenBatchNorm2d(256, eps=1e-05)
            (conv3): Conv2d(256, 1024, kernel_size=(1, 1), stride=(1, 1), bias=False)
            (bn3): FrozenBatchNorm2d(1024, eps=1e-05)
            (relu): ReLU(inplace=True)
            (downsample): Sequential(
              (0): Conv2d(512, 1024, kernel_size=(1, 1), stride=(2, 2), bias=False)
              (1): FrozenBatchNorm2d(1024, eps=1e-05)
            )
          )
          (1): Bottleneck(
            (conv1): Conv2d(1024, 256, kernel_size=(1, 1), stride=(1, 1), bias=False)
            (bn1): FrozenBatchNorm2d(256, eps=1e-05)
            (conv2): Conv2d(256, 256, kernel_size=(3, 3), stride=(1, 1), padding=(1, 1), bias=False)
            (bn2): FrozenBatchNorm2d(256, eps=1e-05)
            (conv3): Conv2d(256, 1024, kernel_size=(1, 1), stride=(1, 1), bias=False)
            (bn3): FrozenBatchNorm2d(1024, eps=1e-05)
            (relu): ReLU(inplace=True)
          )
          (2): Bottleneck(
            (conv1): Conv2d(1024, 256, kernel_size=(1, 1), stride=(1, 1), bias=False)
            (bn1): FrozenBatchNorm2d(256, eps=1e-05)
            (conv2): Conv2d(256, 256, kernel_size=(3, 3), stride=(1, 1), padding=(1, 1), bias=False)
            (bn2): FrozenBatchNorm2d(256, eps=1e-05)
            (conv3): Conv2d(256, 1024, kernel_size=(1, 1), stride=(1, 1), bias=False)
            (bn3): FrozenBatchNorm2d(1024, eps=1e-05)
            (relu): ReLU(inplace=True)
          )
          (3): Bottleneck(
            (conv1): Conv2d(1024, 256, kernel_size=(1, 1), stride=(1, 1), bias=False)
            (bn1): FrozenBatchNorm2d(256, eps=1e-05)
            (conv2): Conv2d(256, 256, kernel_size=(3, 3), stride=(1, 1), padding=(1, 1), bias=False)
            (bn2): FrozenBatchNorm2d(256, eps=1e-05)
            (conv3): Conv2d(256, 1024, kernel_size=(1, 1), stride=(1, 1), bias=False)
            (bn3): FrozenBatchNorm2d(1024, eps=1e-05)
            (relu): ReLU(inplace=True)
          )
          (4): Bottleneck(
            (conv1): Conv2d(1024, 256, kernel_size=(1, 1), stride=(1, 1), bias=False)
            (bn1): FrozenBatchNorm2d(256, eps=1e-05)
            (conv2): Conv2d(256, 256, kernel_size=(3, 3), stride=(1, 1), padding=(1, 1), bias=False)
            (bn2): FrozenBatchNorm2d(256, eps=1e-05)
            (conv3): Conv2d(256, 1024, kernel_size=(1, 1), stride=(1, 1), bias=False)
            (bn3): FrozenBatchNorm2d(1024, eps=1e-05)
            (relu): ReLU(inplace=True)
          )
          (5): Bottleneck(
            (conv1): Conv2d(1024, 256, kernel_size=(1, 1), stride=(1, 1), bias=False)
            (bn1): FrozenBatchNorm2d(256, eps=1e-05)
            (conv2): Conv2d(256, 256, kernel_size=(3, 3), stride=(1, 1), padding=(1, 1), bias=False)
            (bn2): FrozenBatchNorm2d(256, eps=1e-05)
            (conv3): Conv2d(256, 1024, kernel_size=(1, 1), stride=(1, 1), bias=False)
            (bn3): FrozenBatchNorm2d(1024, eps=1e-05)
            (relu): ReLU(inplace=True)
          )
        )
        (layer4): Sequential(
          (0): Bottleneck(
            (conv1): Conv2d(1024, 512, kernel_size=(1, 1), stride=(1, 1), bias=False)
            (bn1): FrozenBatchNorm2d(512, eps=1e-05)
            (conv2): Conv2d(512, 512, kernel_size=(3, 3), stride=(2, 2), padding=(1, 1), bias=False)
            (bn2): FrozenBatchNorm2d(512, eps=1e-05)
            (conv3): Conv2d(512, 2048, kernel_size=(1, 1), stride=(1, 1), bias=False)
            (bn3): FrozenBatchNorm2d(2048, eps=1e-05)
            (relu): ReLU(inplace=True)
            (downsample): Sequential(
              (0): Conv2d(1024, 2048, kernel_size=(1, 1), stride=(2, 2), bias=False)
              (1): FrozenBatchNorm2d(2048, eps=1e-05)
            )
          )
          (1): Bottleneck(
            (conv1): Conv2d(2048, 512, kernel_size=(1, 1), stride=(1, 1), bias=False)
            (bn1): FrozenBatchNorm2d(512, eps=1e-05)
            (conv2): Conv2d(512, 512, kernel_size=(3, 3), stride=(1, 1), padding=(1, 1), bias=False)
            (bn2): FrozenBatchNorm2d(512, eps=1e-05)
            (conv3): Conv2d(512, 2048, kernel_size=(1, 1), stride=(1, 1), bias=False)
            (bn3): FrozenBatchNorm2d(2048, eps=1e-05)
            (relu): ReLU(inplace=True)
          )
          (2): Bottleneck(
            (conv1): Conv2d(2048, 512, kernel_size=(1, 1), stride=(1, 1), bias=False)
            (bn1): FrozenBatchNorm2d(512, eps=1e-05)
            (conv2): Conv2d(512, 512, kernel_size=(3, 3), stride=(1, 1), padding=(1, 1), bias=False)
            (bn2): FrozenBatchNorm2d(512, eps=1e-05)
            (conv3): Conv2d(512, 2048, kernel_size=(1, 1), stride=(1, 1), bias=False)
            (bn3): FrozenBatchNorm2d(2048, eps=1e-05)
            (relu): ReLU(inplace=True)
          )
        )
      )
      (fpn): FeaturePyramidNetwork(
        (inner_blocks): ModuleList(
          (0): Conv2dNormActivation(
            (0): Conv2d(256, 256, kernel_size=(1, 1), stride=(1, 1))
          )
          (1): Conv2dNormActivation(
            (0): Conv2d(512, 256, kernel_size=(1, 1), stride=(1, 1))
          )
          (2): Conv2dNormActivation(
            (0): Conv2d(1024, 256, kernel_size=(1, 1), stride=(1, 1))
          )
          (3): Conv2dNormActivation(
            (0): Conv2d(2048, 256, kernel_size=(1, 1), stride=(1, 1))
          )
        )
        (layer_blocks): ModuleList(
          (0-3): 4 x Conv2dNormActivation(
            (0): Conv2d(256, 256, kernel_size=(3, 3), stride=(1, 1), padding=(1, 1))
          )
        )
        (sa_cross_attn): ModuleList(
          (0): SpatialAlignTransNormer(
            (q_proj): Linear(in_features=256, out_features=256, bias=True)
            (k_proj): Linear(in_features=256, out_features=256, bias=True)
            (v_proj): Linear(in_features=256, out_features=256, bias=True)
            (out_proj): Linear(in_features=256, out_features=256, bias=True)
            (attn_norm): RMSNorm((16,), eps=None, elementwise_affine=True)
            (linear1): Linear(in_features=256, out_features=1024, bias=True)
            (dropout): Dropout(p=0.0, inplace=False)
            (linear2): Linear(in_features=1024, out_features=256, bias=True)
            (activation): GELU(approximate='none')
            (norm1): LayerNorm((256,), eps=1e-05, elementwise_affine=True)
            (norm2): LayerNorm((256,), eps=1e-05, elementwise_affine=True)
            (dropout1): Dropout(p=0.0, inplace=False)
            (dropout2): Dropout(p=0.0, inplace=False)
            (avg_pool_high): Identity()
            (avg_pool_low): AvgPool2d(kernel_size=2, stride=2, padding=0)
          )
          (1): SpatialAlignTransNormer(
            (q_proj): Linear(in_features=256, out_features=256, bias=True)
            (k_proj): Linear(in_features=256, out_features=256, bias=True)
            (v_proj): Linear(in_features=256, out_features=256, bias=True)
            (out_proj): Linear(in_features=256, out_features=256, bias=True)
            (attn_norm): RMSNorm((16,), eps=None, elementwise_affine=True)
            (linear1): Linear(in_features=256, out_features=1024, bias=True)
            (dropout): Dropout(p=0.0, inplace=False)
            (linear2): Linear(in_features=1024, out_features=256, bias=True)
            (activation): GELU(approximate='none')
            (norm1): LayerNorm((256,), eps=1e-05, elementwise_affine=True)
            (norm2): LayerNorm((256,), eps=1e-05, elementwise_affine=True)
            (dropout1): Dropout(p=0.0, inplace=False)
            (dropout2): Dropout(p=0.0, inplace=False)
            (avg_pool_high): AvgPool2d(kernel_size=2, stride=2, padding=0)
            (avg_pool_low): AvgPool2d(kernel_size=4, stride=4, padding=0)
          )
        )
        (extra_blocks): LastLevelMaxPool()
      )
    )
    (rpn): RegionProposalNetwork(
      (anchor_generator): AnchorGenerator()
      (head): RPNHead(
        (conv): Sequential(
          (0): Conv2dNormActivation(
            (0): Conv2d(256, 256, kernel_size=(3, 3), stride=(1, 1), padding=(1, 1))
            (1): ReLU(inplace=True)
          )
        )
        (cls_logits): Conv2d(256, 3, kernel_size=(1, 1), stride=(1, 1))
        (bbox_pred): Conv2d(256, 12, kernel_size=(1, 1), stride=(1, 1))
      )
    )
    (roi_heads): RoIHeads(
      (box_roi_pool): MultiScaleRoIAlign(featmap_names=['0', '1', '2', '3'], output_size=(7, 7), sampling_ratio=2)
      (box_head): TwoMLPHead(
        (fc6): Linear(in_features=12544, out_features=1024, bias=True)
        (fc7): Linear(in_features=1024, out_features=1024, bias=True)
      )
      (box_predictor): FastRCNNPredictor(
        (cls_score): Linear(in_features=1024, out_features=2, bias=True)
        (bbox_pred): Linear(in_features=1024, out_features=8, bias=True)
      )
      (keypoint_roi_pool): MultiScaleRoIAlign(featmap_names=['0', '1', '2', '3'], output_size=(14, 14), sampling_ratio=2)
      (keypoint_head): KeypointRCNNHeads(
        (0): Conv2d(256, 512, kernel_size=(3, 3), stride=(1, 1), padding=(1, 1))
        (1): ReLU(inplace=True)
        (2): Conv2d(512, 512, kernel_size=(3, 3), stride=(1, 1), padding=(1, 1))
        (3): ReLU(inplace=True)
        (4): Conv2d(512, 512, kernel_size=(3, 3), stride=(1, 1), padding=(1, 1))
        (5): ReLU(inplace=True)
        (6): Conv2d(512, 512, kernel_size=(3, 3), stride=(1, 1), padding=(1, 1))
        (7): ReLU(inplace=True)
        (8): Conv2d(512, 512, kernel_size=(3, 3), stride=(1, 1), padding=(1, 1))
        (9): ReLU(inplace=True)
        (10): Conv2d(512, 512, kernel_size=(3, 3), stride=(1, 1), padding=(1, 1))
        (11): ReLU(inplace=True)
        (12): Conv2d(512, 512, kernel_size=(3, 3), stride=(1, 1), padding=(1, 1))
        (13): ReLU(inplace=True)
        (14): Conv2d(512, 512, kernel_size=(3, 3), stride=(1, 1), padding=(1, 1))
        (15): ReLU(inplace=True)
      )
      (keypoint_predictor): KeypointRCNNPredictor(
        (kps_score_lowres): ConvTranspose2d(512, 17, kernel_size=(4, 4), stride=(2, 2), padding=(1, 1))
      )
    )
  )
)
Warning: module GeneralizedRCNNTransform is treated as a zero-op.
Warning: module FrozenBatchNorm2d is treated as a zero-op.
Warning: module Bottleneck is treated as a zero-op.
Warning: module IntermediateLayerGetter is treated as a zero-op.
Warning: module Conv2dNormActivation is treated as a zero-op.
Warning: module RMSNorm is treated as a zero-op.
…
Warning: module DistributedDataParallel is treated as a zero-op.
DistributedDataParallel(
  60.49 M, 100.000% Params, 493.0 GMac, 99.941% MACs, 
  (module): KeypointRCNN(
    60.49 M, 100.000% Params, 493.0 GMac, 99.941% MACs, 
    (transform): GeneralizedRCNNTransform(
        Normalize(mean=[0.485, 0.456, 0.406], std=[0.229, 0.224, 0.225])
        Resize(min_size=(640, 672, 704, 736, 768, 800), max_size=1333, mode='bilinear')
    )
    (backbone): BackboneWithFPN(
      28.16 M, 46.544% Params, 89.53 GMac, 18.150% MACs, 
      (body): IntermediateLayerGetter(
        23.23 M, 38.404% Params, 52.26 GMac, 10.595% MACs, 
        (conv1): Conv2d(0, 0.000% Params, 1.51 GMac, 0.305% MACs, 3, 64, kernel_size=(7, 7), stride=(2, 2), padding=(3, 3), bias=False)
        (bn1): FrozenBatchNorm2d(64, eps=1e-05)
        (relu): ReLU(0, 0.000% Params, 10.24 MMac, 0.002% MACs, inplace=True)
        (maxpool): MaxPool2d(0, 0.000% Params, 10.24 MMac, 0.002% MACs, kernel_size=3, stride=2, padding=1, dilation=1, ceil_mode=False)
        (layer1): Sequential(
          0, 0.000% Params, 8.57 GMac, 1.736% MACs, 
          (0): Bottleneck(
            0, 0.000% Params, 2.96 GMac, 0.601% MACs, 
            (conv1): Conv2d(0, 0.000% Params, 163.84 MMac, 0.033% MACs, 64, 64, kernel_size=(1, 1), stride=(1, 1), bias=False)
            (bn1): FrozenBatchNorm2d(64, eps=1e-05)
            (conv2): Conv2d(0, 0.000% Params, 1.47 GMac, 0.299% MACs, 64, 64, kernel_size=(3, 3), stride=(1, 1), padding=(1, 1), bias=False)
            (bn2): FrozenBatchNorm2d(64, eps=1e-05)
            (conv3): Conv2d(0, 0.000% Params, 655.36 MMac, 0.133% MACs, 64, 256, kernel_size=(1, 1), stride=(1, 1), bias=False)
            (bn3): FrozenBatchNorm2d(256, eps=1e-05)
            (relu): ReLU(0, 0.000% Params, 15.36 MMac, 0.003% MACs, inplace=True)
            (downsample): Sequential(
              0, 0.000% Params, 655.36 MMac, 0.133% MACs, 
              (0): Conv2d(0, 0.000% Params, 655.36 MMac, 0.133% MACs, 64, 256, kernel_size=(1, 1), stride=(1, 1), bias=False)
              (1): FrozenBatchNorm2d(256, eps=1e-05)
            )
          )
          (1): Bottleneck(
            0, 0.000% Params, 2.8 GMac, 0.568% MACs, 
            (conv1): Conv2d(0, 0.000% Params, 655.36 MMac, 0.133% MACs, 256, 64, kernel_size=(1, 1), stride=(1, 1), bias=False)
            (bn1): FrozenBatchNorm2d(64, eps=1e-05)
            (conv2): Conv2d(0, 0.000% Params, 1.47 GMac, 0.299% MACs, 64, 64, kernel_size=(3, 3), stride=(1, 1), padding=(1, 1), bias=False)
            (bn2): FrozenBatchNorm2d(64, eps=1e-05)
            (conv3): Conv2d(0, 0.000% Params, 655.36 MMac, 0.133% MACs, 64, 256, kernel_size=(1, 1), stride=(1, 1), bias=False)
            (bn3): FrozenBatchNorm2d(256, eps=1e-05)
            (relu): ReLU(0, 0.000% Params, 15.36 MMac, 0.003% MACs, inplace=True)
          )
          (2): Bottleneck(
            0, 0.000% Params, 2.8 GMac, 0.568% MACs, 
            (conv1): Conv2d(0, 0.000% Params, 655.36 MMac, 0.133% MACs, 256, 64, kernel_size=(1, 1), stride=(1, 1), bias=False)
            (bn1): FrozenBatchNorm2d(64, eps=1e-05)
            (conv2): Conv2d(0, 0.000% Params, 1.47 GMac, 0.299% MACs, 64, 64, kernel_size=(3, 3), stride=(1, 1), padding=(1, 1), bias=False)
            (bn2): FrozenBatchNorm2d(64, eps=1e-05)
            (conv3): Conv2d(0, 0.000% Params, 655.36 MMac, 0.133% MACs, 64, 256, kernel_size=(1, 1), stride=(1, 1), bias=False)
            (bn3): FrozenBatchNorm2d(256, eps=1e-05)
            (relu): ReLU(0, 0.000% Params, 15.36 MMac, 0.003% MACs, inplace=True)
          )
        )
        (layer2): Sequential(
          1.21 M, 2.004% Params, 13.14 GMac, 2.664% MACs, 
          (0): Bottleneck(
            376.83 k, 0.623% Params, 4.76 GMac, 0.966% MACs, 
            (conv1): Conv2d(32.77 k, 0.054% Params, 1.31 GMac, 0.266% MACs, 256, 128, kernel_size=(1, 1), stride=(1, 1), bias=False)
            (bn1): FrozenBatchNorm2d(128, eps=1e-05)
            (conv2): Conv2d(147.46 k, 0.244% Params, 1.47 GMac, 0.299% MACs, 128, 128, kernel_size=(3, 3), stride=(2, 2), padding=(1, 1), bias=False)
            (bn2): FrozenBatchNorm2d(128, eps=1e-05)
            (conv3): Conv2d(65.54 k, 0.108% Params, 655.36 MMac, 0.133% MACs, 128, 512, kernel_size=(1, 1), stride=(1, 1), bias=False)
            (bn3): FrozenBatchNorm2d(512, eps=1e-05)
            (relu): ReLU(0, 0.000% Params, 11.52 MMac, 0.002% MACs, inplace=True)
            (downsample): Sequential(
              131.07 k, 0.217% Params, 1.31 GMac, 0.266% MACs, 
              (0): Conv2d(131.07 k, 0.217% Params, 1.31 GMac, 0.266% MACs, 256, 512, kernel_size=(1, 1), stride=(2, 2), bias=False)
              (1): FrozenBatchNorm2d(512, eps=1e-05)
            )
          )
          (1): Bottleneck(
            278.53 k, 0.460% Params, 2.79 GMac, 0.566% MACs, 
            (conv1): Conv2d(65.54 k, 0.108% Params, 655.36 MMac, 0.133% MACs, 512, 128, kernel_size=(1, 1), stride=(1, 1), bias=False)
            (bn1): FrozenBatchNorm2d(128, eps=1e-05)
            (conv2): Conv2d(147.46 k, 0.244% Params, 1.47 GMac, 0.299% MACs, 128, 128, kernel_size=(3, 3), stride=(1, 1), padding=(1, 1), bias=False)
            (bn2): FrozenBatchNorm2d(128, eps=1e-05)
            (conv3): Conv2d(65.54 k, 0.108% Params, 655.36 MMac, 0.133% MACs, 128, 512, kernel_size=(1, 1), stride=(1, 1), bias=False)
            (bn3): FrozenBatchNorm2d(512, eps=1e-05)
            (relu): ReLU(0, 0.000% Params, 7.68 MMac, 0.002% MACs, inplace=True)
          )
          (2): Bottleneck(
            278.53 k, 0.460% Params, 2.79 GMac, 0.566% MACs, 
            (conv1): Conv2d(65.54 k, 0.108% Params, 655.36 MMac, 0.133% MACs, 512, 128, kernel_size=(1, 1), stride=(1, 1), bias=False)
            (bn1): FrozenBatchNorm2d(128, eps=1e-05)
            (conv2): Conv2d(147.46 k, 0.244% Params, 1.47 GMac, 0.299% MACs, 128, 128, kernel_size=(3, 3), stride=(1, 1), padding=(1, 1), bias=False)
            (bn2): FrozenBatchNorm2d(128, eps=1e-05)
            (conv3): Conv2d(65.54 k, 0.108% Params, 655.36 MMac, 0.133% MACs, 128, 512, kernel_size=(1, 1), stride=(1, 1), bias=False)
            (bn3): FrozenBatchNorm2d(512, eps=1e-05)
            (relu): ReLU(0, 0.000% Params, 7.68 MMac, 0.002% MACs, inplace=True)
          )
          (3): Bottleneck(
            278.53 k, 0.460% Params, 2.79 GMac, 0.566% MACs, 
            (conv1): Conv2d(65.54 k, 0.108% Params, 655.36 MMac, 0.133% MACs, 512, 128, kernel_size=(1, 1), stride=(1, 1), bias=False)
            (bn1): FrozenBatchNorm2d(128, eps=1e-05)
            (conv2): Conv2d(147.46 k, 0.244% Params, 1.47 GMac, 0.299% MACs, 128, 128, kernel_size=(3, 3), stride=(1, 1), padding=(1, 1), bias=False)
            (bn2): FrozenBatchNorm2d(128, eps=1e-05)
            (conv3): Conv2d(65.54 k, 0.108% Params, 655.36 MMac, 0.133% MACs, 128, 512, kernel_size=(1, 1), stride=(1, 1), bias=False)
            (bn3): FrozenBatchNorm2d(512, eps=1e-05)
            (relu): ReLU(0, 0.000% Params, 7.68 MMac, 0.002% MACs, inplace=True)
          )
        )
        (layer3): Sequential(
          7.08 M, 11.700% Params, 18.7 GMac, 3.791% MACs, 
          (0): Bottleneck(
            1.51 M, 2.492% Params, 4.76 GMac, 0.964% MACs, 
            (conv1): Conv2d(131.07 k, 0.217% Params, 1.31 GMac, 0.266% MACs, 512, 256, kernel_size=(1, 1), stride=(1, 1), bias=False)
            (bn1): FrozenBatchNorm2d(256, eps=1e-05)
            (conv2): Conv2d(589.82 k, 0.975% Params, 1.47 GMac, 0.299% MACs, 256, 256, kernel_size=(3, 3), stride=(2, 2), padding=(1, 1), bias=False)
            (bn2): FrozenBatchNorm2d(256, eps=1e-05)
            (conv3): Conv2d(262.14 k, 0.433% Params, 655.36 MMac, 0.133% MACs, 256, 1024, kernel_size=(1, 1), stride=(1, 1), bias=False)
            (bn3): FrozenBatchNorm2d(1024, eps=1e-05)
            (relu): ReLU(0, 0.000% Params, 5.76 MMac, 0.001% MACs, inplace=True)
            (downsample): Sequential(
              524.29 k, 0.867% Params, 1.31 GMac, 0.266% MACs, 
              (0): Conv2d(524.29 k, 0.867% Params, 1.31 GMac, 0.266% MACs, 512, 1024, kernel_size=(1, 1), stride=(2, 2), bias=False)
              (1): FrozenBatchNorm2d(1024, eps=1e-05)
            )
          )
          (1): Bottleneck(
            1.11 M, 1.842% Params, 2.79 GMac, 0.565% MACs, 
            (conv1): Conv2d(262.14 k, 0.433% Params, 655.36 MMac, 0.133% MACs, 1024, 256, kernel_size=(1, 1), stride=(1, 1), bias=False)
            (bn1): FrozenBatchNorm2d(256, eps=1e-05)
            (conv2): Conv2d(589.82 k, 0.975% Params, 1.47 GMac, 0.299% MACs, 256, 256, kernel_size=(3, 3), stride=(1, 1), padding=(1, 1), bias=False)
            (bn2): FrozenBatchNorm2d(256, eps=1e-05)
            (conv3): Conv2d(262.14 k, 0.433% Params, 655.36 MMac, 0.133% MACs, 256, 1024, kernel_size=(1, 1), stride=(1, 1), bias=False)
            (bn3): FrozenBatchNorm2d(1024, eps=1e-05)
            (relu): ReLU(0, 0.000% Params, 3.84 MMac, 0.001% MACs, inplace=True)
          )
          (2): Bottleneck(
            1.11 M, 1.842% Params, 2.79 GMac, 0.565% MACs, 
            (conv1): Conv2d(262.14 k, 0.433% Params, 655.36 MMac, 0.133% MACs, 1024, 256, kernel_size=(1, 1), stride=(1, 1), bias=False)
            (bn1): FrozenBatchNorm2d(256, eps=1e-05)
            (conv2): Conv2d(589.82 k, 0.975% Params, 1.47 GMac, 0.299% MACs, 256, 256, kernel_size=(3, 3), stride=(1, 1), padding=(1, 1), bias=False)
            (bn2): FrozenBatchNorm2d(256, eps=1e-05)
            (conv3): Conv2d(262.14 k, 0.433% Params, 655.36 MMac, 0.133% MACs, 256, 1024, kernel_size=(1, 1), stride=(1, 1), bias=False)
            (bn3): FrozenBatchNorm2d(1024, eps=1e-05)
            (relu): ReLU(0, 0.000% Params, 3.84 MMac, 0.001% MACs, inplace=True)
          )
          (3): Bottleneck(
            1.11 M, 1.842% Params, 2.79 GMac, 0.565% MACs, 
            (conv1): Conv2d(262.14 k, 0.433% Params, 655.36 MMac, 0.133% MACs, 1024, 256, kernel_size=(1, 1), stride=(1, 1), bias=False)
            (bn1): FrozenBatchNorm2d(256, eps=1e-05)
            (conv2): Conv2d(589.82 k, 0.975% Params, 1.47 GMac, 0.299% MACs, 256, 256, kernel_size=(3, 3), stride=(1, 1), padding=(1, 1), bias=False)
            (bn2): FrozenBatchNorm2d(256, eps=1e-05)
            (conv3): Conv2d(262.14 k, 0.433% Params, 655.36 MMac, 0.133% MACs, 256, 1024, kernel_size=(1, 1), stride=(1, 1), bias=False)
            (bn3): FrozenBatchNorm2d(1024, eps=1e-05)
            (relu): ReLU(0, 0.000% Params, 3.84 MMac, 0.001% MACs, inplace=True)
          )
          (4): Bottleneck(
            1.11 M, 1.842% Params, 2.79 GMac, 0.565% MACs, 
            (conv1): Conv2d(262.14 k, 0.433% Params, 655.36 MMac, 0.133% MACs, 1024, 256, kernel_size=(1, 1), stride=(1, 1), bias=False)
            (bn1): FrozenBatchNorm2d(256, eps=1e-05)
            (conv2): Conv2d(589.82 k, 0.975% Params, 1.47 GMac, 0.299% MACs, 256, 256, kernel_size=(3, 3), stride=(1, 1), padding=(1, 1), bias=False)
            (bn2): FrozenBatchNorm2d(256, eps=1e-05)
            (conv3): Conv2d(262.14 k, 0.433% Params, 655.36 MMac, 0.133% MACs, 256, 1024, kernel_size=(1, 1), stride=(1, 1), bias=False)
            (bn3): FrozenBatchNorm2d(1024, eps=1e-05)
            (relu): ReLU(0, 0.000% Params, 3.84 MMac, 0.001% MACs, inplace=True)
          )
          (5): Bottleneck(
            1.11 M, 1.842% Params, 2.79 GMac, 0.565% MACs, 
            (conv1): Conv2d(262.14 k, 0.433% Params, 655.36 MMac, 0.133% MACs, 1024, 256, kernel_size=(1, 1), stride=(1, 1), bias=False)
            (bn1): FrozenBatchNorm2d(256, eps=1e-05)
            (conv2): Conv2d(589.82 k, 0.975% Params, 1.47 GMac, 0.299% MACs, 256, 256, kernel_size=(3, 3), stride=(1, 1), padding=(1, 1), bias=False)
            (bn2): FrozenBatchNorm2d(256, eps=1e-05)
            (conv3): Conv2d(262.14 k, 0.433% Params, 655.36 MMac, 0.133% MACs, 256, 1024, kernel_size=(1, 1), stride=(1, 1), bias=False)
            (bn3): FrozenBatchNorm2d(1024, eps=1e-05)
            (relu): ReLU(0, 0.000% Params, 3.84 MMac, 0.001% MACs, inplace=True)
          )
        )
        (layer4): Sequential(
          14.94 M, 24.700% Params, 10.33 GMac, 2.094% MACs, 
          (0): Bottleneck(
            6.03 M, 9.967% Params, 4.75 GMac, 0.964% MACs, 
            (conv1): Conv2d(524.29 k, 0.867% Params, 1.31 GMac, 0.266% MACs, 1024, 512, kernel_size=(1, 1), stride=(1, 1), bias=False)
            (bn1): FrozenBatchNorm2d(512, eps=1e-05)
            (conv2): Conv2d(2.36 M, 3.900% Params, 1.47 GMac, 0.299% MACs, 512, 512, kernel_size=(3, 3), stride=(2, 2), padding=(1, 1), bias=False)
            (bn2): FrozenBatchNorm2d(512, eps=1e-05)
            (conv3): Conv2d(1.05 M, 1.733% Params, 655.36 MMac, 0.133% MACs, 512, 2048, kernel_size=(1, 1), stride=(1, 1), bias=False)
            (bn3): FrozenBatchNorm2d(2048, eps=1e-05)
            (relu): ReLU(0, 0.000% Params, 2.88 MMac, 0.001% MACs, inplace=True)
            (downsample): Sequential(
              2.1 M, 3.467% Params, 1.31 GMac, 0.266% MACs, 
              (0): Conv2d(2.1 M, 3.467% Params, 1.31 GMac, 0.266% MACs, 1024, 2048, kernel_size=(1, 1), stride=(2, 2), bias=False)
              (1): FrozenBatchNorm2d(2048, eps=1e-05)
            )
          )
          (1): Bottleneck(
            4.46 M, 7.367% Params, 2.79 GMac, 0.565% MACs, 
            (conv1): Conv2d(1.05 M, 1.733% Params, 655.36 MMac, 0.133% MACs, 2048, 512, kernel_size=(1, 1), stride=(1, 1), bias=False)
            (bn1): FrozenBatchNorm2d(512, eps=1e-05)
            (conv2): Conv2d(2.36 M, 3.900% Params, 1.47 GMac, 0.299% MACs, 512, 512, kernel_size=(3, 3), stride=(1, 1), padding=(1, 1), bias=False)
            (bn2): FrozenBatchNorm2d(512, eps=1e-05)
            (conv3): Conv2d(1.05 M, 1.733% Params, 655.36 MMac, 0.133% MACs, 512, 2048, kernel_size=(1, 1), stride=(1, 1), bias=False)
            (bn3): FrozenBatchNorm2d(2048, eps=1e-05)
            (relu): ReLU(0, 0.000% Params, 1.92 MMac, 0.000% MACs, inplace=True)
          )
          (2): Bottleneck(
            4.46 M, 7.367% Params, 2.79 GMac, 0.565% MACs, 
            (conv1): Conv2d(1.05 M, 1.733% Params, 655.36 MMac, 0.133% MACs, 2048, 512, kernel_size=(1, 1), stride=(1, 1), bias=False)
            (bn1): FrozenBatchNorm2d(512, eps=1e-05)
            (conv2): Conv2d(2.36 M, 3.900% Params, 1.47 GMac, 0.299% MACs, 512, 512, kernel_size=(3, 3), stride=(1, 1), padding=(1, 1), bias=False)
            (bn2): FrozenBatchNorm2d(512, eps=1e-05)
            (conv3): Conv2d(1.05 M, 1.733% Params, 655.36 MMac, 0.133% MACs, 512, 2048, kernel_size=(1, 1), stride=(1, 1), bias=False)
            (bn3): FrozenBatchNorm2d(2048, eps=1e-05)
            (relu): ReLU(0, 0.000% Params, 1.92 MMac, 0.000% MACs, inplace=True)
          )
        )
      )
      (fpn): FeaturePyramidNetwork(
        4.92 M, 8.139% Params, 37.27 GMac, 7.555% MACs, 
        (inner_blocks): ModuleList(
          (0): Conv2dNormActivation(
            65.79 k, 0.109% Params, 2.63 GMac, 0.533% MACs, 
            (0): Conv2d(65.79 k, 0.109% Params, 2.63 GMac, 0.533% MACs, 256, 256, kernel_size=(1, 1), stride=(1, 1))
          )
          (1): Conv2dNormActivation(
            131.33 k, 0.217% Params, 1.31 GMac, 0.266% MACs, 
            (0): Conv2d(131.33 k, 0.217% Params, 1.31 GMac, 0.266% MACs, 512, 256, kernel_size=(1, 1), stride=(1, 1))
          )
          (2): Conv2dNormActivation(
            262.4 k, 0.434% Params, 656.0 MMac, 0.133% MACs, 
            (0): Conv2d(262.4 k, 0.434% Params, 656.0 MMac, 0.133% MACs, 1024, 256, kernel_size=(1, 1), stride=(1, 1))
          )
          (3): Conv2dNormActivation(
            524.54 k, 0.867% Params, 327.84 MMac, 0.066% MACs, 
            (0): Conv2d(524.54 k, 0.867% Params, 327.84 MMac, 0.066% MACs, 2048, 256, kernel_size=(1, 1), stride=(1, 1))
          )
        )
        (layer_blocks): ModuleList(
          (0): Conv2dNormActivation(
            590.08 k, 0.975% Params, 23.6 GMac, 4.785% MACs, 
            (0): Conv2d(590.08 k, 0.975% Params, 23.6 GMac, 4.785% MACs, 256, 256, kernel_size=(3, 3), stride=(1, 1), padding=(1, 1))
          )
          (1): Conv2dNormActivation(
            590.08 k, 0.975% Params, 5.9 GMac, 1.196% MACs, 
            (0): Conv2d(590.08 k, 0.975% Params, 5.9 GMac, 1.196% MACs, 256, 256, kernel_size=(3, 3), stride=(1, 1), padding=(1, 1))
          )
          (2): Conv2dNormActivation(
            590.08 k, 0.975% Params, 1.48 GMac, 0.299% MACs, 
            (0): Conv2d(590.08 k, 0.975% Params, 1.48 GMac, 0.299% MACs, 256, 256, kernel_size=(3, 3), stride=(1, 1), padding=(1, 1))
          )
          (3): Conv2dNormActivation(
            590.08 k, 0.975% Params, 368.8 MMac, 0.075% MACs, 
            (0): Conv2d(590.08 k, 0.975% Params, 368.8 MMac, 0.075% MACs, 256, 256, kernel_size=(3, 3), stride=(1, 1), padding=(1, 1))
          )
        )
        (sa_cross_attn): ModuleList(
          (0): SpatialAlignTransNormer(
            789.76 k, 1.306% Params, 494.56 MMac, 0.100% MACs, 
            (q_proj): Linear(65.79 k, 0.109% Params, 41.12 MMac, 0.008% MACs, in_features=256, out_features=256, bias=True)
            (k_proj): Linear(65.79 k, 0.109% Params, 41.12 MMac, 0.008% MACs, in_features=256, out_features=256, bias=True)
            (v_proj): Linear(65.79 k, 0.109% Params, 41.12 MMac, 0.008% MACs, in_features=256, out_features=256, bias=True)
            (out_proj): Linear(65.79 k, 0.109% Params, 41.12 MMac, 0.008% MACs, in_features=256, out_features=256, bias=True)
            (attn_norm): RMSNorm(0, 0.000% Params, 0.0 Mac, 0.000% MACs, (16,), eps=None, elementwise_affine=True)
            (linear1): Linear(263.17 k, 0.435% Params, 164.48 MMac, 0.033% MACs, in_features=256, out_features=1024, bias=True)
            (dropout): Dropout(0, 0.000% Params, 0.0 Mac, 0.000% MACs, p=0.0, inplace=False)
            (linear2): Linear(262.4 k, 0.434% Params, 164.0 MMac, 0.033% MACs, in_features=1024, out_features=256, bias=True)
            (activation): GELU(0, 0.000% Params, 640.0 KMac, 0.000% MACs, approximate='none')
            (norm1): LayerNorm(512, 0.001% Params, 160.0 KMac, 0.000% MACs, (256,), eps=1e-05, elementwise_affine=True)
            (norm2): LayerNorm(512, 0.001% Params, 160.0 KMac, 0.000% MACs, (256,), eps=1e-05, elementwise_affine=True)
            (dropout1): Dropout(0, 0.000% Params, 0.0 Mac, 0.000% MACs, p=0.0, inplace=False)
            (dropout2): Dropout(0, 0.000% Params, 0.0 Mac, 0.000% MACs, p=0.0, inplace=False)
            (avg_pool_high): Identity(0, 0.000% Params, 0.0 Mac, 0.000% MACs, )
            (avg_pool_low): AvgPool2d(0, 0.000% Params, 640.0 KMac, 0.000% MACs, kernel_size=2, stride=2, padding=0)
          )
          (1): SpatialAlignTransNormer(
            789.76 k, 1.306% Params, 497.12 MMac, 0.101% MACs, 
            (q_proj): Linear(65.79 k, 0.109% Params, 41.12 MMac, 0.008% MACs, in_features=256, out_features=256, bias=True)
            (k_proj): Linear(65.79 k, 0.109% Params, 41.12 MMac, 0.008% MACs, in_features=256, out_features=256, bias=True)
            (v_proj): Linear(65.79 k, 0.109% Params, 41.12 MMac, 0.008% MACs, in_features=256, out_features=256, bias=True)
            (out_proj): Linear(65.79 k, 0.109% Params, 41.12 MMac, 0.008% MACs, in_features=256, out_features=256, bias=True)
            (attn_norm): RMSNorm(0, 0.000% Params, 0.0 Mac, 0.000% MACs, (16,), eps=None, elementwise_affine=True)
            (linear1): Linear(263.17 k, 0.435% Params, 164.48 MMac, 0.033% MACs, in_features=256, out_features=1024, bias=True)
            (dropout): Dropout(0, 0.000% Params, 0.0 Mac, 0.000% MACs, p=0.0, inplace=False)
            (linear2): Linear(262.4 k, 0.434% Params, 164.0 MMac, 0.033% MACs, in_features=1024, out_features=256, bias=True)
            (activation): GELU(0, 0.000% Params, 640.0 KMac, 0.000% MACs, approximate='none')
            (norm1): LayerNorm(512, 0.001% Params, 160.0 KMac, 0.000% MACs, (256,), eps=1e-05, elementwise_affine=True)
            (norm2): LayerNorm(512, 0.001% Params, 160.0 KMac, 0.000% MACs, (256,), eps=1e-05, elementwise_affine=True)
            (dropout1): Dropout(0, 0.000% Params, 0.0 Mac, 0.000% MACs, p=0.0, inplace=False)
            (dropout2): Dropout(0, 0.000% Params, 0.0 Mac, 0.000% MACs, p=0.0, inplace=False)
            (avg_pool_high): AvgPool2d(0, 0.000% Params, 640.0 KMac, 0.000% MACs, kernel_size=2, stride=2, padding=0)
            (avg_pool_low): AvgPool2d(0, 0.000% Params, 2.56 MMac, 0.001% MACs, kernel_size=4, stride=4, padding=0)
          )
        )
        (extra_blocks): LastLevelMaxPool(0, 0.000% Params, 0.0 Mac, 0.000% MACs, )
      )
    )
    (rpn): RegionProposalNetwork(
      593.93 k, 0.982% Params, 31.67 GMac, 6.419% MACs, 
      (anchor_generator): AnchorGenerator(0, 0.000% Params, 0.0 Mac, 0.000% MACs, )
      (head): RPNHead(
        593.93 k, 0.982% Params, 31.67 GMac, 6.419% MACs, 
        (conv): Sequential(
          590.08 k, 0.975% Params, 31.46 GMac, 6.378% MACs, 
          (0): Conv2dNormActivation(
            590.08 k, 0.975% Params, 31.46 GMac, 6.378% MACs, 
            (0): Conv2d(590.08 k, 0.975% Params, 31.45 GMac, 6.375% MACs, 256, 256, kernel_size=(3, 3), stride=(1, 1), padding=(1, 1))
            (1): ReLU(0, 0.000% Params, 13.64 MMac, 0.003% MACs, inplace=True)
          )
        )
        (cls_logits): Conv2d(771, 0.001% Params, 41.09 MMac, 0.008% MACs, 256, 3, kernel_size=(1, 1), stride=(1, 1))
        (bbox_pred): Conv2d(3.08 k, 0.005% Params, 164.36 MMac, 0.033% MACs, 256, 12, kernel_size=(1, 1), stride=(1, 1))
      )
    )
    (roi_heads): RoIHeads(
      31.74 M, 52.474% Params, 371.8 GMac, 75.372% MACs, 
      (box_roi_pool): MultiScaleRoIAlign(featmap_names=['0', '1', '2', '3'], output_size=(7, 7), sampling_ratio=2)
      (box_head): TwoMLPHead(
        13.9 M, 22.970% Params, 13.9 GMac, 2.817% MACs, 
        (fc6): Linear(12.85 M, 21.235% Params, 12.85 GMac, 2.604% MACs, in_features=12544, out_features=1024, bias=True)
        (fc7): Linear(1.05 M, 1.735% Params, 1.05 GMac, 0.213% MACs, in_features=1024, out_features=1024, bias=True)
      )
      (box_predictor): FastRCNNPredictor(
        10.25 k, 0.017% Params, 10.25 MMac, 0.002% MACs, 
        (cls_score): Linear(2.05 k, 0.003% Params, 2.05 MMac, 0.000% MACs, in_features=1024, out_features=2, bias=True)
        (bbox_pred): Linear(8.2 k, 0.014% Params, 8.2 MMac, 0.002% MACs, in_features=1024, out_features=8, bias=True)
      )
      (keypoint_roi_pool): MultiScaleRoIAlign(featmap_names=['0', '1', '2', '3'], output_size=(14, 14), sampling_ratio=2)
      (keypoint_head): KeypointRCNNHeads(
        17.7 M, 29.257% Params, 346.98 GMac, 70.339% MACs, 
        (0): Conv2d(1.18 M, 1.951% Params, 23.13 GMac, 4.689% MACs, 256, 512, kernel_size=(3, 3), stride=(1, 1), padding=(1, 1))
        (1): ReLU(0, 0.000% Params, 10.04 MMac, 0.002% MACs, inplace=True)
        (2): Conv2d(2.36 M, 3.901% Params, 46.25 GMac, 9.376% MACs, 512, 512, kernel_size=(3, 3), stride=(1, 1), padding=(1, 1))
        (3): ReLU(0, 0.000% Params, 10.04 MMac, 0.002% MACs, inplace=True)
        (4): Conv2d(2.36 M, 3.901% Params, 46.25 GMac, 9.376% MACs, 512, 512, kernel_size=(3, 3), stride=(1, 1), padding=(1, 1))
        (5): ReLU(0, 0.000% Params, 10.04 MMac, 0.002% MACs, inplace=True)
        (6): Conv2d(2.36 M, 3.901% Params, 46.25 GMac, 9.376% MACs, 512, 512, kernel_size=(3, 3), stride=(1, 1), padding=(1, 1))
        (7): ReLU(0, 0.000% Params, 10.04 MMac, 0.002% MACs, inplace=True)
        (8): Conv2d(2.36 M, 3.901% Params, 46.25 GMac, 9.376% MACs, 512, 512, kernel_size=(3, 3), stride=(1, 1), padding=(1, 1))
        (9): ReLU(0, 0.000% Params, 10.04 MMac, 0.002% MACs, inplace=True)
        (10): Conv2d(2.36 M, 3.901% Params, 46.25 GMac, 9.376% MACs, 512, 512, kernel_size=(3, 3), stride=(1, 1), padding=(1, 1))
        (11): ReLU(0, 0.000% Params, 10.04 MMac, 0.002% MACs, inplace=True)
        (12): Conv2d(2.36 M, 3.901% Params, 46.25 GMac, 9.376% MACs, 512, 512, kernel_size=(3, 3), stride=(1, 1), padding=(1, 1))
        (13): ReLU(0, 0.000% Params, 10.04 MMac, 0.002% MACs, inplace=True)
        (14): Conv2d(2.36 M, 3.901% Params, 46.25 GMac, 9.376% MACs, 512, 512, kernel_size=(3, 3), stride=(1, 1), padding=(1, 1))
        (15): ReLU(0, 0.000% Params, 10.04 MMac, 0.002% MACs, inplace=True)
      )
      (keypoint_predictor): KeypointRCNNPredictor(
        139.28 k, 0.230% Params, 10.92 GMac, 2.214% MACs, 
        (kps_score_lowres): ConvTranspose2d(139.28 k, 0.230% Params, 10.92 GMac, 2.214% MACs, 512, 17, kernel_size=(4, 4), stride=(2, 2), padding=(1, 1))
      )
    )
  )
)
FLOPs: 493.29 GMac, Params: 60.49 M
Start training
/home/hslee/SONeck/vision/references/detection/engine.py:41: FutureWarning: `torch.cuda.amp.autocast(args...)` is deprecated. Please use `torch.amp.autocast('cuda', args...)` instead.
  with torch.cuda.amp.autocast(enabled=scaler is not None):
…
